…
[[8772, 15, 16, 929, 432, 31, 16452, 29, 82, 43, 6, 1257, 82, 1328, 176, 152, 13, 1489, 179, 152, 818, 6], [3382, 1429, 8997, 91, 373, 13, 573, 19, 40, 63, 280, 7, 640, 1971, 28, 124, 18, 11373, 219064, 164, 84, 33921], [29198, 9, 51653, 823, 80, 46, 7, 17053, 10, 99188, 731, 20, 29198, 7, 7367, 9, 51653, 7042, 40484, 22, 7, 2001], [280, 235, 20, 8, 6, 1747, 3201, 789, 258, 25006, 553, 1956, 536, 9, 5978, 140, 797, 2056, 10, 14, 50, 645], [106, 729, 22, 3082, 15, 13, 47, 7, 560, 10, 4, 4917, 9, 4, 22687, 438, 12, 139, 12, 9034, 23, 45244]]
Begin: Training
_________________________________________________________________
Layer (type)                 Output Shape              Param #   
=================================================================
input_1 (InputLayer)         (None, 22)                0         
_________________________________________________________________
embedding_1 (Embedding)      (None, 22, 100)           50000200  
_________________________________________________________________
bidirectional_1 (Bidirection (None, 22, 256)           234496    
_________________________________________________________________
dense_1 (Dense)              (None, 22, 64)            16448     
_________________________________________________________________
dropout_1 (Dropout)          (None, 22, 64)            0         
_________________________________________________________________
dense_2 (Dense)              (None, 22, 32)            2080      
_________________________________________________________________
dropout_2 (Dropout)          (None, 22, 32)            0         
_________________________________________________________________
flatten_1 (Flatten)          (None, 704)               0         
_________________________________________________________________
dense_3 (Dense)              (None, 3)                 2115      
=================================================================
Total params: 50,255,339
Trainable params: 255,139
Non-trainable params: 50,000,200
_________________________________________________________________
Epoch 1/30

  32/5999 [..............................] - ETA: 1:24 - loss: 1.3128 - acc: 0.2500
 128/5999 [..............................] - ETA: 23s - loss: 1.2555 - acc: 0.3125 
…
