…
[[8, 8, 117, 19, 11, 14765, 862, 2307, 91, 0, 22, 11665, 28, 124, 59, 4721, 65, 15, 68, 1971, 28, 14], [115, 93, 13, 80, 6, 1035, 57, 13, 36, 31, 31118, 10, 16, 2705, 223, 12, 4088, 231, 1, 1, 1, 1], [1506, 26, 19, 185764, 821, 31, 7, 224, 2159, 425, 26, 67, 4751, 10668, 15, 21, 332, 3382, 1429, 9623, 32, 1688], [18923, 16053, 59, 8, 65, 373, 31, 32, 4, 8, 12, 11023, 14, 13, 1558, 106, 3107, 11510, 1302, 179, 6, 2607], [339, 224, 105, 20, 4, 784, 26, 2382, 10798, 51421, 0, 0, 1, 1, 1, 1, 1, 1, 1, 1, 1, 1]]
Begin: Training
_________________________________________________________________
Layer (type)                 Output Shape              Param #   
=================================================================
input_1 (InputLayer)         (None, 22)                0         
_________________________________________________________________
embedding_1 (Embedding)      (None, 22, 100)           50000200  
_________________________________________________________________
bidirectional_1 (Bidirection (None, 22, 256)           234496    
_________________________________________________________________
dense_1 (Dense)              (None, 22, 64)            16448     
_________________________________________________________________
dropout_1 (Dropout)          (None, 22, 64)            0         
_________________________________________________________________
dense_2 (Dense)              (None, 22, 32)            2080      
_________________________________________________________________
dropout_2 (Dropout)          (None, 22, 32)            0         
_________________________________________________________________
flatten_1 (Flatten)          (None, 704)               0         
_________________________________________________________________
dense_3 (Dense)              (None, 2)                 1410      
=================================================================
Total params: 50,254,634
Trainable params: 254,434
Non-trainable params: 50,000,200
_________________________________________________________________
Epoch 1/30

  32/3957 [..............................] - ETA: 55s - loss: 0.8606 - acc: 0.6250
 128/3957 [..............................] - ETA: 15s - loss: 0.8147 - acc: 0.7578
…
