…
[[251082, 379135, 0, 4863, 0, 128543, 475063, 124071, 477665, 477237, 260900, 0, 1, 1, 1, 1, 1, 1, 1, 1, 1, 1], [174480, 105126, 314439, 0, 7617, 267208, 347852, 215869, 482893, 0, 413858, 267208, 479698, 74594, 0, 383082, 455605, 413858, 28863, 0, 0, 1], [404386, 318159, 381696, 0, 190258, 0, 106246, 0, 44759, 372899, 227471, 313953, 194042, 200600, 267208, 159995, 426083, 0, 215284, 420494, 233837, 454528], [407745, 475155, 94188, 0, 0, 0, 0, 0, 0, 1, 1, 1, 1, 1, 1, 1, 1, 1, 1, 1, 1, 1], [485860, 0, 0, 38619, 420494, 0, 249000, 0, 483573, 133420, 315275, 302366, 290997, 411253, 147790, 448759, 55461, 460899, 215284, 275784, 11419, 55461]]
Begin: Training
_________________________________________________________________
Layer (type)                 Output Shape              Param #   
=================================================================
input_1 (InputLayer)         (None, 22)                0         
_________________________________________________________________
embedding_1 (Embedding)      (None, 22, 100)           50000200  
_________________________________________________________________
bidirectional_1 (Bidirection (None, 22, 256)           234496    
_________________________________________________________________
dense_1 (Dense)              (None, 22, 64)            16448     
_________________________________________________________________
dropout_1 (Dropout)          (None, 22, 64)            0         
_________________________________________________________________
dense_2 (Dense)              (None, 22, 32)            2080      
_________________________________________________________________
dropout_2 (Dropout)          (None, 22, 32)            0         
_________________________________________________________________
flatten_1 (Flatten)          (None, 704)               0         
_________________________________________________________________
dense_3 (Dense)              (None, 3)                 2115      
=================================================================
Total params: 50,255,339
Trainable params: 255,139
Non-trainable params: 50,000,200
_________________________________________________________________
Epoch 1/30

  32/5999 [..............................] - ETA: 1:49 - loss: 1.3680 - acc: 0.3125
 128/5999 [..............................] - ETA: 30s - loss: 1.2866 - acc: 0.3594 
…
