…
[[6544, 22, 210, 31, 4, 2147, 1558, 12, 4, 156, 1, 1, 1, 1, 1, 1, 1, 1, 1, 1, 1, 1], [5978, 140, 797, 649, 240, 10, 1566, 668, 18, 2189, 308, 519, 77, 29, 129, 871, 1108, 894, 11, 31, 217, 6], [8, 81, 6, 573, 19, 40, 63, 581, 4, 1004, 5559, 231, 9, 63, 30, 284, 6, 1045, 215, 33, 10319, 58], [21, 108, 32, 4, 1146, 82, 38997, 82, 12, 36380, 3598, 14, 132, 5774, 3383, 831, 43, 14, 183, 31, 3500, 18], [331, 1823, 9908, 78179, 9, 4, 157, 12, 9473, 0, 3336, 4, 145, 14, 373, 4, 6495, 5347, 718, 243, 6136, 0]]
Begin: Training
_________________________________________________________________
Layer (type)                 Output Shape              Param #   
=================================================================
input_1 (InputLayer)         (None, 22)                0         
_________________________________________________________________
embedding_1 (Embedding)      (None, 22, 100)           50000200  
_________________________________________________________________
bidirectional_1 (Bidirection (None, 22, 256)           234496    
_________________________________________________________________
dense_1 (Dense)              (None, 22, 64)            16448     
_________________________________________________________________
dropout_1 (Dropout)          (None, 22, 64)            0         
_________________________________________________________________
dense_2 (Dense)              (None, 22, 32)            2080      
_________________________________________________________________
dropout_2 (Dropout)          (None, 22, 32)            0         
_________________________________________________________________
flatten_1 (Flatten)          (None, 704)               0         
_________________________________________________________________
dense_3 (Dense)              (None, 2)                 1410      
=================================================================
Total params: 50,254,634
Trainable params: 254,434
Non-trainable params: 50,000,200
_________________________________________________________________
Epoch 1/30

  32/3957 [..............................] - ETA: 56s - loss: 0.8625 - acc: 0.6562
 128/3957 [..............................] - ETA: 15s - loss: 0.7910 - acc: 0.8203
…
