…
, 0, 74325, 186519, 64116, 0, 125023, 236303, 8210, 1], [427771, 427771, 0, 83669, 0, 0, 236303, 14525, 138698, 0, 93581, 418823, 56318, 455628, 211844, 418823, 0, 452790, 324103, 168416, 271897, 484163], [227732, 384634, 384634, 384634, 67811, 312846, 483699, 172106, 294128, 405377, 402414, 0, 255769, 0, 0, 0, 384634, 384634, 384634, 396035, 146685, 0]]
Begin: Training
_________________________________________________________________
Layer (type)                 Output Shape              Param #   
=================================================================
input_1 (InputLayer)         (None, 22)                0         
_________________________________________________________________
embedding_1 (Embedding)      (None, 22, 100)           50000200  
_________________________________________________________________
bidirectional_1 (Bidirection (None, 22, 256)           234496    
_________________________________________________________________
dense_1 (Dense)              (None, 22, 64)            16448     
_________________________________________________________________
dropout_1 (Dropout)          (None, 22, 64)            0         
_________________________________________________________________
dense_2 (Dense)              (None, 22, 32)            2080      
_________________________________________________________________
dropout_2 (Dropout)          (None, 22, 32)            0         
_________________________________________________________________
flatten_1 (Flatten)          (None, 704)               0         
_________________________________________________________________
dense_3 (Dense)              (None, 2)                 1410      
=================================================================
Total params: 50,254,634
Trainable params: 254,434
Non-trainable params: 50,000,200
_________________________________________________________________
Epoch 1/30

  32/3957 [..............................] - ETA: 56s - loss: 0.9338 - acc: 0.5312
 128/3957 [..............................] - ETA: 15s - loss: 0.8172 - acc: 0.7578
…
