…
[[756, 4, 2574, 78, 13, 1635, 40, 929, 356, 86, 13, 375, 64, 437, 1451, 40, 275, 17, 391, 33, 7, 860, 50], [106, 136, 377, 25, 1696, 231, 1782, 12, 10293, 13, 108, 1638, 48, 12, 4, 399214, 1725, 10, 4, 3234, 18, 33793, 9], [1413, 4, 3452, 15, 760, 1746, 2183, 15, 7320, 15, 1434, 3363, 15, 9014, 1434, 12, 7, 55710, 795, 0, 1, 1, 1], [18923, 16053, 5223, 11, 926, 34062, 174, 9288, 23299, 15, 86, 337, 79, 106, 1889, 27834, 6579, 4, 801, 394, 394, 394, 46], [315, 6, 32, 284, 95, 3991, 282, 18, 53011, 17, 4, 1146, 43, 10, 305, 191, 14, 674, 1328, 112, 48, 874, 204]]
Begin: Training
_________________________________________________________________
Layer (type)                 Output Shape              Param #   
=================================================================
input_1 (InputLayer)         (None, 23)                0         
_________________________________________________________________
embedding_1 (Embedding)      (None, 23, 100)           50000200  
_________________________________________________________________
bidirectional_1 (Bidirection (None, 23, 256)           234496    
_________________________________________________________________
dense_1 (Dense)              (None, 23, 64)            16448     
_________________________________________________________________
dropout_1 (Dropout)          (None, 23, 64)            0         
_________________________________________________________________
dense_2 (Dense)              (None, 23, 32)            2080      
_________________________________________________________________
dropout_2 (Dropout)          (None, 23, 32)            0         
_________________________________________________________________
flatten_1 (Flatten)          (None, 736)               0         
_________________________________________________________________
dense_3 (Dense)              (None, 2)                 1474      
=================================================================
Total params: 50,254,698
Trainable params: 254,498
Non-trainable params: 50,000,200
_________________________________________________________________
Epoch 1/30

  32/5872 [..............................] - ETA: 1:30 - loss: 0.8670 - acc: 0.5312
 128/5872 [..............................] - ETA: 25s - loss: 0.8548 - acc: 0.5703 
…
