…
[[16, 62, 350, 5655, 95, 1473, 6, 2382, 10798, 23, 7, 626, 14, 21, 626, 63, 7575, 20, 7, 141, 23, 670], [8, 2859, 3084, 3004, 22, 110720, 129, 1889, 0, 85, 170, 3354, 1952, 27272, 46688, 568, 586, 7423, 0, 28437, 6199, 10], [420, 33, 82, 716, 82, 8, 82, 663, 15, 927, 64, 6, 173, 18, 41, 5164, 15, 174, 4, 1165, 82, 29], [30, 61, 106, 3382, 1429, 22, 176, 23, 67, 283, 84, 64, 4, 194, 1612, 902, 82, 4, 489, 108, 1813, 23], [6544, 9, 881, 23, 776, 424, 1591, 9, 38, 13, 79, 23, 4, 16491, 176, 86, 22, 15475, 11, 89, 25714, 1506]]
Begin: Training
_________________________________________________________________
Layer (type)                 Output Shape              Param #   
=================================================================
input_1 (InputLayer)         (None, 22)                0         
_________________________________________________________________
embedding_1 (Embedding)      (None, 22, 100)           50000200  
_________________________________________________________________
bidirectional_1 (Bidirection (None, 22, 256)           234496    
_________________________________________________________________
dense_1 (Dense)              (None, 22, 64)            16448     
_________________________________________________________________
dropout_1 (Dropout)          (None, 22, 64)            0         
_________________________________________________________________
dense_2 (Dense)              (None, 22, 32)            2080      
_________________________________________________________________
dropout_2 (Dropout)          (None, 22, 32)            0         
_________________________________________________________________
flatten_1 (Flatten)          (None, 704)               0         
_________________________________________________________________
dense_3 (Dense)              (None, 3)                 2115      
=================================================================
Total params: 50,255,339
Trainable params: 255,139
Non-trainable params: 50,000,200
_________________________________________________________________
Epoch 1/30

  32/5999 [..............................] - ETA: 1:24 - loss: 1.2994 - acc: 0.3125
 128/5999 [..............................] - ETA: 23s - loss: 1.2410 - acc: 0.4219 
…
