…
[[8, 13, 482, 79, 40, 50, 168, 22, 7, 2837, 96, 1105, 23, 0, 42, 20, 21341, 445, 34494, 1, 1, 1], [22, 729, 166, 6, 5978, 140, 797, 18, 2189, 308, 185, 733, 84, 1, 1, 1, 1, 1, 1, 1, 1, 1], [8, 1435, 13, 159, 853, 16, 1961, 1802, 6576, 2709, 23, 36827, 9, 54, 68, 617, 23, 4375, 406, 4, 2673, 53], [170, 1261, 262, 3382, 1429, 610, 3658, 16045, 1261, 13525, 31, 7, 325, 182, 184, 14, 183, 317, 177376, 281, 14, 19], [16795, 22, 348, 733, 5384, 264, 28, 406, 1566, 295, 15, 546, 89, 20, 29, 6, 79, 552, 1881, 36947, 84, 84]]
Begin: Training
_________________________________________________________________
Layer (type)                 Output Shape              Param #   
=================================================================
input_1 (InputLayer)         (None, 22)                0         
_________________________________________________________________
embedding_1 (Embedding)      (None, 22, 100)           50000200  
_________________________________________________________________
bidirectional_1 (Bidirection (None, 22, 256)           234496    
_________________________________________________________________
dense_1 (Dense)              (None, 22, 64)            16448     
_________________________________________________________________
dropout_1 (Dropout)          (None, 22, 64)            0         
_________________________________________________________________
dense_2 (Dense)              (None, 22, 32)            2080      
_________________________________________________________________
dropout_2 (Dropout)          (None, 22, 32)            0         
_________________________________________________________________
flatten_1 (Flatten)          (None, 704)               0         
_________________________________________________________________
dense_3 (Dense)              (None, 2)                 1410      
=================================================================
Total params: 50,254,634
Trainable params: 254,434
Non-trainable params: 50,000,200
_________________________________________________________________
Epoch 1/30

  32/3957 [..............................] - ETA: 40s - loss: 0.8752 - acc: 0.5312
 128/3957 [..............................] - ETA: 11s - loss: 0.8107 - acc: 0.6641
…
