…
545, 128543, 0, 318159, 0, 0, 204153, 0, 318159, 22521, 55461, 262544, 181474, 413858], [0, 483862, 0, 55461, 454486, 0, 104710, 267208, 0, 0, 106246, 0, 288424, 0, 267208, 17094, 438347, 381696, 0, 0, 132400, 0], [27021, 475155, 141842, 267208, 262594, 0, 0, 0, 0, 124191, 19847, 19847, 230871, 313953, 369493, 457981, 138514, 0, 266569, 313953, 0, 2285]]
Begin: Training
_________________________________________________________________
Layer (type)                 Output Shape              Param #   
=================================================================
input_1 (InputLayer)         (None, 22)                0         
_________________________________________________________________
embedding_1 (Embedding)      (None, 22, 100)           50000200  
_________________________________________________________________
bidirectional_1 (Bidirection (None, 22, 256)           234496    
_________________________________________________________________
dense_1 (Dense)              (None, 22, 64)            16448     
_________________________________________________________________
dropout_1 (Dropout)          (None, 22, 64)            0         
_________________________________________________________________
dense_2 (Dense)              (None, 22, 32)            2080      
_________________________________________________________________
dropout_2 (Dropout)          (None, 22, 32)            0         
_________________________________________________________________
flatten_1 (Flatten)          (None, 704)               0         
_________________________________________________________________
dense_3 (Dense)              (None, 2)                 1410      
=================================================================
Total params: 50,254,634
Trainable params: 254,434
Non-trainable params: 50,000,200
_________________________________________________________________
Epoch 1/30

  32/3957 [..............................] - ETA: 56s - loss: 0.8937 - acc: 0.7188
 128/3957 [..............................] - ETA: 15s - loss: 0.8203 - acc: 0.7188
…
