…
[[18, 4, 2264, 15, 81207, 4876, 23, 189321, 1107, 14, 115, 58147, 27750, 22, 26, 50, 8539, 108, 1007, 17294, 82101, 0], [55946, 31, 2003, 4, 926, 438, 20, 7, 639, 12, 9480, 56, 1525, 14, 1, 1, 1, 1, 1, 1, 1, 1], [6544, 178, 175, 24, 6, 112, 760, 1675, 0, 1, 1, 1, 1, 1, 1, 1, 1, 1, 1, 1, 1, 1], [8, 8, 8, 10, 4, 621, 239113, 87, 373, 32, 61, 265360, 1343, 15, 50, 327828, 22, 10627, 801, 14, 1844, 65473], [4375, 91, 0, 1273, 6, 5124, 314, 215, 1602, 20, 4375, 72, 0, 9, 949, 46, 17, 314, 1, 1, 1, 1]]
Begin: Training
_________________________________________________________________
Layer (type)                 Output Shape              Param #   
=================================================================
input_1 (InputLayer)         (None, 22)                0         
_________________________________________________________________
embedding_1 (Embedding)      (None, 22, 100)           50000200  
_________________________________________________________________
bidirectional_1 (Bidirection (None, 22, 256)           234496    
_________________________________________________________________
dense_1 (Dense)              (None, 22, 64)            16448     
_________________________________________________________________
dropout_1 (Dropout)          (None, 22, 64)            0         
_________________________________________________________________
dense_2 (Dense)              (None, 22, 32)            2080      
_________________________________________________________________
dropout_2 (Dropout)          (None, 22, 32)            0         
_________________________________________________________________
flatten_1 (Flatten)          (None, 704)               0         
_________________________________________________________________
dense_3 (Dense)              (None, 2)                 1410      
=================================================================
Total params: 50,254,634
Trainable params: 254,434
Non-trainable params: 50,000,200
_________________________________________________________________
Epoch 1/30

  32/3957 [..............................] - ETA: 56s - loss: 0.8468 - acc: 0.7188
 128/3957 [..............................] - ETA: 15s - loss: 0.7921 - acc: 0.7500
…
