…
 0, 36689, 65374, 109906, 236303, 194898, 134186, 137060, 0, 277566, 34458, 0, 142576, 0, 0, 0, 85144, 130841], [427771, 0, 327184, 280528, 206095, 280528, 10183, 115055, 462814, 0, 154649, 0, 354321, 363186, 0, 12676, 410012, 415015, 275862, 0, 53674, 8423], [309046, 251832, 153747, 154649, 153854, 85938, 0, 1, 1, 1, 1, 1, 1, 1, 1, 1, 1, 1, 1, 1, 1, 1]]
Begin: Training
_________________________________________________________________
Layer (type)                 Output Shape              Param #   
=================================================================
input_1 (InputLayer)         (None, 22)                0         
_________________________________________________________________
embedding_1 (Embedding)      (None, 22, 100)           50000200  
_________________________________________________________________
bidirectional_1 (Bidirection (None, 22, 256)           234496    
_________________________________________________________________
dense_1 (Dense)              (None, 22, 64)            16448     
_________________________________________________________________
dropout_1 (Dropout)          (None, 22, 64)            0         
_________________________________________________________________
dense_2 (Dense)              (None, 22, 32)            2080      
_________________________________________________________________
dropout_2 (Dropout)          (None, 22, 32)            0         
_________________________________________________________________
flatten_1 (Flatten)          (None, 704)               0         
_________________________________________________________________
dense_3 (Dense)              (None, 3)                 2115      
=================================================================
Total params: 50,255,339
Trainable params: 255,139
Non-trainable params: 50,000,200
_________________________________________________________________
Epoch 1/30

  32/5999 [..............................] - ETA: 1:26 - loss: 1.3164 - acc: 0.3438
 128/5999 [..............................] - ETA: 23s - loss: 1.2397 - acc: 0.4531 
…
