…
[[729, 204, 6, 89, 6, 6320, 18091, 9, 3493, 22386, 18, 4088, 23, 251, 13, 47, 69, 1242, 2491, 9, 35, 1242], [8, 19, 978, 11, 18923, 16053, 18811, 37, 9288, 23299, 10, 926, 866, 17, 26628, 3560, 0, 1, 1, 1, 1, 1], [2290, 1821, 6483, 3651, 131, 45054, 538, 4155, 82, 437, 44, 16, 21000, 78, 106, 19, 120, 64, 281, 1218, 269, 15], [8, 373, 68, 32, 16, 74, 2135, 17, 1688, 15, 50, 63, 3871, 17, 422, 106, 755, 8874, 14, 18, 1104, 755], [1776, 1114, 17, 4, 1447, 5751, 12, 4, 51, 11, 11, 431556, 15868, 1, 1, 1, 1, 1, 1, 1, 1, 1]]
Begin: Training
_________________________________________________________________
Layer (type)                 Output Shape              Param #   
=================================================================
input_1 (InputLayer)         (None, 22)                0         
_________________________________________________________________
embedding_1 (Embedding)      (None, 22, 100)           50000200  
_________________________________________________________________
bidirectional_1 (Bidirection (None, 22, 256)           234496    
_________________________________________________________________
dense_1 (Dense)              (None, 22, 64)            16448     
_________________________________________________________________
dropout_1 (Dropout)          (None, 22, 64)            0         
_________________________________________________________________
dense_2 (Dense)              (None, 22, 32)            2080      
_________________________________________________________________
dropout_2 (Dropout)          (None, 22, 32)            0         
_________________________________________________________________
flatten_1 (Flatten)          (None, 704)               0         
_________________________________________________________________
dense_3 (Dense)              (None, 3)                 2115      
=================================================================
Total params: 50,255,339
Trainable params: 255,139
Non-trainable params: 50,000,200
_________________________________________________________________
Epoch 1/30

  32/5999 [..............................] - ETA: 1:24 - loss: 1.2666 - acc: 0.3125
 128/5999 [..............................] - ETA: 23s - loss: 1.2511 - acc: 0.4141 
…
