…
89, 0, 233910, 0, 0, 22521, 0, 348503, 47782, 0, 375416, 313953, 381443, 282766, 0, 19847, 408004], [452537, 3187, 0, 0, 349775, 0, 0, 313953, 240704, 339986, 423874, 0, 71982, 469457, 431750, 262876, 0, 0, 53393, 0, 0, 243568, 1], [0, 349775, 131434, 267208, 0, 78014, 395849, 124071, 135668, 0, 130084, 313953, 251082, 379135, 0, 0, 0, 1, 1, 1, 1, 1, 1]]
Begin: Training
_________________________________________________________________
Layer (type)                 Output Shape              Param #   
=================================================================
input_1 (InputLayer)         (None, 23)                0         
_________________________________________________________________
embedding_1 (Embedding)      (None, 23, 100)           50000200  
_________________________________________________________________
bidirectional_1 (Bidirection (None, 23, 256)           234496    
_________________________________________________________________
dense_1 (Dense)              (None, 23, 64)            16448     
_________________________________________________________________
dropout_1 (Dropout)          (None, 23, 64)            0         
_________________________________________________________________
dense_2 (Dense)              (None, 23, 32)            2080      
_________________________________________________________________
dropout_2 (Dropout)          (None, 23, 32)            0         
_________________________________________________________________
flatten_1 (Flatten)          (None, 736)               0         
_________________________________________________________________
dense_3 (Dense)              (None, 2)                 1474      
=================================================================
Total params: 50,254,698
Trainable params: 254,498
Non-trainable params: 50,000,200
_________________________________________________________________
Epoch 1/30

  32/5872 [..............................] - ETA: 1:25 - loss: 0.9383 - acc: 0.6875
 128/5872 [..............................] - ETA: 23s - loss: 0.8876 - acc: 0.5234 
…
