…
[[223, 4, 3466, 22, 775, 9, 40, 22, 225, 430, 9, 63, 167, 68, 2321, 59, 524, 16, 4375, 2895, 1136, 482, 5400], [552, 1881, 36947, 36, 4, 324, 950, 46, 17, 231, 2701, 2179, 14, 1, 1, 1, 1, 1, 1, 1, 1, 1, 1], [14, 8, 263, 70, 2103, 733, 20946, 7709, 32712, 17, 19044, 0, 53, 67, 20, 4929, 0, 0, 3476, 11, 1, 1, 1], [7, 626, 51, 20, 112, 5680, 525, 23, 11, 56759, 1, 1, 1, 1, 1, 1, 1, 1, 1, 1, 1, 1, 1], [379, 4, 187, 3635, 118, 517, 263, 139, 12, 9034, 263, 23, 4, 5972, 2108, 10, 0, 3701, 231, 1, 1, 1, 1]]
Begin: Training
_________________________________________________________________
Layer (type)                 Output Shape              Param #   
=================================================================
input_1 (InputLayer)         (None, 23)                0         
_________________________________________________________________
embedding_1 (Embedding)      (None, 23, 100)           50000200  
_________________________________________________________________
bidirectional_1 (Bidirection (None, 23, 256)           234496    
_________________________________________________________________
dense_1 (Dense)              (None, 23, 64)            16448     
_________________________________________________________________
dropout_1 (Dropout)          (None, 23, 64)            0         
_________________________________________________________________
dense_2 (Dense)              (None, 23, 32)            2080      
_________________________________________________________________
dropout_2 (Dropout)          (None, 23, 32)            0         
_________________________________________________________________
flatten_1 (Flatten)          (None, 736)               0         
_________________________________________________________________
dense_3 (Dense)              (None, 2)                 1474      
=================================================================
Total params: 50,254,698
Trainable params: 254,498
Non-trainable params: 50,000,200
_________________________________________________________________
Epoch 1/30

  32/5872 [..............................] - ETA: 1:22 - loss: 0.8686 - acc: 0.5312
 128/5872 [..............................] - ETA: 23s - loss: 0.8619 - acc: 0.5000 
…
