…
[[159, 275, 17, 8, 8, 10, 1062, 14, 2560, 13, 368, 208, 8, 30, 13, 93, 6732, 165, 3439, 95, 18923, 16053], [61, 7, 1391, 6047, 40, 36, 6381, 52264, 0, 1097, 14, 86, 4, 881, 9, 6381, 4, 0, 23903, 23, 251, 14], [12434, 538, 24, 373, 32, 15685, 104, 833, 184, 13, 93, 172, 16, 692, 6, 4, 12341, 17, 4, 15445, 23, 10248], [2452, 91, 449, 674, 68, 1871, 16517, 14, 27, 47, 86, 2467, 23, 6, 18659, 194, 119, 2283, 6296, 14, 20046, 4], [8, 223, 136, 221, 68, 13885, 4, 377, 85, 133, 14, 926, 43, 29198, 9465, 7, 1777, 23, 1509, 64, 40, 1]]
Begin: Training
_________________________________________________________________
Layer (type)                 Output Shape              Param #   
=================================================================
input_1 (InputLayer)         (None, 22)                0         
_________________________________________________________________
embedding_1 (Embedding)      (None, 22, 100)           50000200  
_________________________________________________________________
bidirectional_1 (Bidirection (None, 22, 256)           234496    
_________________________________________________________________
dense_1 (Dense)              (None, 22, 64)            16448     
_________________________________________________________________
dropout_1 (Dropout)          (None, 22, 64)            0         
_________________________________________________________________
dense_2 (Dense)              (None, 22, 32)            2080      
_________________________________________________________________
dropout_2 (Dropout)          (None, 22, 32)            0         
_________________________________________________________________
flatten_1 (Flatten)          (None, 704)               0         
_________________________________________________________________
dense_3 (Dense)              (None, 3)                 2115      
=================================================================
Total params: 50,255,339
Trainable params: 255,139
Non-trainable params: 50,000,200
_________________________________________________________________
Epoch 1/30

  32/5999 [..............................] - ETA: 1:34 - loss: 1.2727 - acc: 0.2188
 128/5999 [..............................] - ETA: 26s - loss: 1.2351 - acc: 0.4219 
…
