…
03, 0, 0, 344002, 272973, 401952, 486964, 0, 244413, 112089, 0], [401952, 80956, 0, 342718, 97117, 101623, 298634, 71229, 204167, 0, 0, 377392, 198609, 0, 182128, 0, 203816, 63252, 160840, 0, 0, 157586], [401952, 211144, 63252, 0, 252114, 406612, 451070, 476379, 377392, 210461, 37602, 9338, 26557, 89928, 416827, 37602, 251565, 9249, 71627, 416827, 1, 1]]
Begin: Training
_________________________________________________________________
Layer (type)                 Output Shape              Param #   
=================================================================
input_1 (InputLayer)         (None, 22)                0         
_________________________________________________________________
embedding_1 (Embedding)      (None, 22, 100)           50000200  
_________________________________________________________________
bidirectional_1 (Bidirection (None, 22, 256)           234496    
_________________________________________________________________
dense_1 (Dense)              (None, 22, 64)            16448     
_________________________________________________________________
dropout_1 (Dropout)          (None, 22, 64)            0         
_________________________________________________________________
dense_2 (Dense)              (None, 22, 32)            2080      
_________________________________________________________________
dropout_2 (Dropout)          (None, 22, 32)            0         
_________________________________________________________________
flatten_1 (Flatten)          (None, 704)               0         
_________________________________________________________________
dense_3 (Dense)              (None, 3)                 2115      
=================================================================
Total params: 50,255,339
Trainable params: 255,139
Non-trainable params: 50,000,200
_________________________________________________________________
Epoch 1/30

  32/5999 [..............................] - ETA: 1:25 - loss: 1.3463 - acc: 0.3750
 128/5999 [..............................] - ETA: 23s - loss: 1.2705 - acc: 0.4062 
…
