…
[[8, 19, 540, 79, 10319, 156, 14, 24, 36, 210, 55, 10, 16, 7426, 14, 13, 654, 24, 3098, 9, 373, 79], [221, 19, 125, 34, 328, 78, 26445, 44, 86, 357, 6, 4, 1030, 84, 352, 90, 23, 1511, 2459, 20, 8, 33], [8, 3820, 2307, 305, 2400, 20, 11846, 2400, 2717, 14, 1511, 1468, 14, 1616, 41, 6932, 14, 1, 1, 1, 1, 1], [13, 159, 275, 6, 79, 9288, 23299, 588, 10005, 13826, 23, 1145, 1137, 11, 11, 360, 18923, 16053, 588, 1889, 27834, 23], [573, 90, 61, 0, 9, 24, 373, 32, 1262, 23, 34, 3791, 11, 11, 11, 59, 6133, 14, 0, 139, 12, 9034]]
Begin: Training
_________________________________________________________________
Layer (type)                 Output Shape              Param #   
=================================================================
input_1 (InputLayer)         (None, 22)                0         
_________________________________________________________________
embedding_1 (Embedding)      (None, 22, 100)           50000200  
_________________________________________________________________
bidirectional_1 (Bidirection (None, 22, 256)           234496    
_________________________________________________________________
dense_1 (Dense)              (None, 22, 64)            16448     
_________________________________________________________________
dropout_1 (Dropout)          (None, 22, 64)            0         
_________________________________________________________________
dense_2 (Dense)              (None, 22, 32)            2080      
_________________________________________________________________
dropout_2 (Dropout)          (None, 22, 32)            0         
_________________________________________________________________
flatten_1 (Flatten)          (None, 704)               0         
_________________________________________________________________
dense_3 (Dense)              (None, 2)                 1410      
=================================================================
Total params: 50,254,634
Trainable params: 254,434
Non-trainable params: 50,000,200
_________________________________________________________________
Epoch 1/30

  32/3957 [..............................] - ETA: 1:10 - loss: 0.8433 - acc: 0.5625
  96/3957 [..............................] - ETA: 25s - loss: 0.8392 - acc: 0.6562 
…
