…
[[12877, 10, 4, 51, 35, 21454, 2227, 36, 112, 14, 1137, 10, 4, 6495, 1427, 16022, 23, 295, 1511, 16732, 1, 1, 1], [106, 5845, 3223, 1688, 15, 6538, 40, 4194, 128, 4, 8777, 140, 34730, 33088, 10, 170, 9, 122410, 215, 140, 15574, 85, 41708], [231, 51, 1440, 1094, 32, 40, 1776, 1114, 333, 23, 3423, 40, 959, 13, 120, 204, 6, 80, 168, 223, 119, 4, 185], [0, 22, 146, 17, 760, 1902, 12709, 7070, 0, 4, 39653, 946, 540, 68, 32, 1021, 85, 69, 2974, 6, 4605, 11859, 959], [63, 1292, 179, 23, 16, 2369, 598, 12, 139, 12, 9034, 12548, 218, 5264, 2079, 15, 674, 24, 173, 131, 228, 1185, 64]]
Begin: Training
_________________________________________________________________
Layer (type)                 Output Shape              Param #   
=================================================================
input_1 (InputLayer)         (None, 23)                0         
_________________________________________________________________
embedding_1 (Embedding)      (None, 23, 100)           50000200  
_________________________________________________________________
bidirectional_1 (Bidirection (None, 23, 256)           234496    
_________________________________________________________________
dense_1 (Dense)              (None, 23, 64)            16448     
_________________________________________________________________
dropout_1 (Dropout)          (None, 23, 64)            0         
_________________________________________________________________
dense_2 (Dense)              (None, 23, 32)            2080      
_________________________________________________________________
dropout_2 (Dropout)          (None, 23, 32)            0         
_________________________________________________________________
flatten_1 (Flatten)          (None, 736)               0         
_________________________________________________________________
dense_3 (Dense)              (None, 2)                 1474      
=================================================================
Total params: 50,254,698
Trainable params: 254,498
Non-trainable params: 50,000,200
_________________________________________________________________
Epoch 1/30

  32/5872 [..............................] - ETA: 1:00 - loss: 0.8447 - acc: 0.5312
 128/5872 [..............................] - ETA: 17s - loss: 0.8576 - acc: 0.5547 
…
