…
[[696, 21341, 715, 8, 6, 4375, 2895, 50, 13939, 6, 79, 24, 73, 23, 1739, 17, 1146, 965, 14, 5494, 16576, 6026, 18], [1113, 179, 6, 80, 5014, 20, 29, 231, 105, 84, 1, 1, 1, 1, 1, 1, 1, 1, 1, 1, 1, 1, 1], [360, 75241, 108, 60, 4, 2461, 33, 52264, 23, 14093, 503, 0, 1, 1, 1, 1, 1, 1, 1, 1, 1, 1, 1], [43411, 20, 127, 231, 11, 56759, 0, 1, 1, 1, 1, 1, 1, 1, 1, 1, 1, 1, 1, 1, 1, 1, 1], [8, 8, 36, 10, 23, 1489, 9, 136, 149, 81, 4, 3218, 4406, 114, 444, 14, 136, 2637, 7070, 0, 47, 7, 450]]
Begin: Training
_________________________________________________________________
Layer (type)                 Output Shape              Param #   
=================================================================
input_1 (InputLayer)         (None, 23)                0         
_________________________________________________________________
embedding_1 (Embedding)      (None, 23, 100)           50000200  
_________________________________________________________________
bidirectional_1 (Bidirection (None, 23, 256)           234496    
_________________________________________________________________
dense_1 (Dense)              (None, 23, 64)            16448     
_________________________________________________________________
dropout_1 (Dropout)          (None, 23, 64)            0         
_________________________________________________________________
dense_2 (Dense)              (None, 23, 32)            2080      
_________________________________________________________________
dropout_2 (Dropout)          (None, 23, 32)            0         
_________________________________________________________________
flatten_1 (Flatten)          (None, 736)               0         
_________________________________________________________________
dense_3 (Dense)              (None, 2)                 1474      
=================================================================
Total params: 50,254,698
Trainable params: 254,498
Non-trainable params: 50,000,200
_________________________________________________________________
Epoch 1/30

  32/5872 [..............................] - ETA: 1:22 - loss: 0.9044 - acc: 0.5000
 128/5872 [..............................] - ETA: 23s - loss: 0.8638 - acc: 0.5078 
…
