…
4, 280660, 465382, 41202, 425165, 450670, 465382, 5609], [0, 361709, 0, 0, 86828, 465382, 272560, 172985, 299629, 0, 0, 142557, 277796, 318173, 117984, 0, 41202, 176357, 97374, 51034, 361139, 289357], [483459, 0, 41202, 255777, 378889, 119461, 359347, 321247, 303831, 327332, 148607, 496803, 66849, 177398, 381812, 200917, 233049, 0, 399791, 318173, 0, 0]]
Begin: Training
_________________________________________________________________
Layer (type)                 Output Shape              Param #   
=================================================================
input_1 (InputLayer)         (None, 22)                0         
_________________________________________________________________
embedding_1 (Embedding)      (None, 22, 100)           50000200  
_________________________________________________________________
bidirectional_1 (Bidirection (None, 22, 256)           234496    
_________________________________________________________________
dense_1 (Dense)              (None, 22, 64)            16448     
_________________________________________________________________
dropout_1 (Dropout)          (None, 22, 64)            0         
_________________________________________________________________
dense_2 (Dense)              (None, 22, 32)            2080      
_________________________________________________________________
dropout_2 (Dropout)          (None, 22, 32)            0         
_________________________________________________________________
flatten_1 (Flatten)          (None, 704)               0         
_________________________________________________________________
dense_3 (Dense)              (None, 2)                 1410      
=================================================================
Total params: 50,254,634
Trainable params: 254,434
Non-trainable params: 50,000,200
_________________________________________________________________
Epoch 1/30

  32/3957 [..............................] - ETA: 1:09 - loss: 0.8772 - acc: 0.7188
 128/3957 [..............................] - ETA: 18s - loss: 0.8245 - acc: 0.7500 
…
