…
[[581, 7, 21454, 2227, 3557, 860, 75, 9, 7, 12154, 3557, 860, 231, 51, 14, 13, 142, 284, 14, 1, 1, 1, 1], [596, 251, 105, 75434, 6514, 14, 464, 219, 24, 17, 162, 103, 18, 1104, 11, 13, 6713, 4, 1432, 7070, 0, 5822, 2365], [82, 265360, 22, 505, 6, 6424, 4, 6047, 170, 6918, 6, 10, 4, 2454, 543, 3475, 10, 7, 6537, 44158, 82, 0, 1], [1329, 251, 11, 448, 52264, 20, 16, 5326, 176, 86, 9, 360, 166, 6, 79, 4, 35396, 75, 11, 1, 1, 1, 1], [32864, 20, 89984, 231, 14, 170, 1343, 24, 82, 64, 16210, 82, 59, 68, 3431, 830, 65, 140, 112, 11292, 59, 17, 202]]
Begin: Training
_________________________________________________________________
Layer (type)                 Output Shape              Param #   
=================================================================
input_1 (InputLayer)         (None, 23)                0         
_________________________________________________________________
embedding_1 (Embedding)      (None, 23, 100)           50000200  
_________________________________________________________________
bidirectional_1 (Bidirection (None, 23, 256)           234496    
_________________________________________________________________
dense_1 (Dense)              (None, 23, 64)            16448     
_________________________________________________________________
dropout_1 (Dropout)          (None, 23, 64)            0         
_________________________________________________________________
dense_2 (Dense)              (None, 23, 32)            2080      
_________________________________________________________________
dropout_2 (Dropout)          (None, 23, 32)            0         
_________________________________________________________________
flatten_1 (Flatten)          (None, 736)               0         
_________________________________________________________________
dense_3 (Dense)              (None, 2)                 1474      
=================================================================
Total params: 50,254,698
Trainable params: 254,498
Non-trainable params: 50,000,200
_________________________________________________________________
Epoch 1/30

  32/5872 [..............................] - ETA: 1:24 - loss: 0.9073 - acc: 0.5312
 128/5872 [..............................] - ETA: 23s - loss: 0.8729 - acc: 0.4531 
…
