…
 148607, 165313, 0, 0, 0, 0, 142529, 1, 1, 1, 1, 1, 1, 1, 1, 1, 1], [405630, 145678, 13533, 119461, 111222, 0, 0, 434886, 292182, 90530, 0, 113059, 145678, 448602, 43569, 484739, 131868, 0, 273547, 0, 1, 1], [365617, 148607, 229850, 163976, 0, 41202, 12063, 215137, 41202, 440305, 83895, 460804, 322833, 0, 312820, 247197, 0, 0, 131650, 385257, 0, 443525]]
Begin: Training
_________________________________________________________________
Layer (type)                 Output Shape              Param #   
=================================================================
input_1 (InputLayer)         (None, 22)                0         
_________________________________________________________________
embedding_1 (Embedding)      (None, 22, 100)           50000200  
_________________________________________________________________
bidirectional_1 (Bidirection (None, 22, 256)           234496    
_________________________________________________________________
dense_1 (Dense)              (None, 22, 64)            16448     
_________________________________________________________________
dropout_1 (Dropout)          (None, 22, 64)            0         
_________________________________________________________________
dense_2 (Dense)              (None, 22, 32)            2080      
_________________________________________________________________
dropout_2 (Dropout)          (None, 22, 32)            0         
_________________________________________________________________
flatten_1 (Flatten)          (None, 704)               0         
_________________________________________________________________
dense_3 (Dense)              (None, 3)                 2115      
=================================================================
Total params: 50,255,339
Trainable params: 255,139
Non-trainable params: 50,000,200
_________________________________________________________________
Epoch 1/30

  32/5999 [..............................] - ETA: 1:27 - loss: 1.3604 - acc: 0.2500
 128/5999 [..............................] - ETA: 24s - loss: 1.2945 - acc: 0.3594 
…
