…
[[45, 213, 11, 47, 19, 7792, 6, 443, 4, 476, 2038, 757, 1802, 27, 44, 952, 425, 185, 213, 84, 751, 181], [22, 4, 881, 236, 72, 84, 12434, 373, 47, 4, 42825, 12, 41, 1012, 84, 285, 0, 1, 1, 1, 1, 1], [236610, 0, 4, 76, 51, 12, 16, 107, 36, 3248, 2722, 15, 229, 13, 460, 77, 6, 379, 19, 15, 50, 13], [3466, 91, 426, 15, 157, 44, 7057, 20, 61, 6014, 7535, 22, 1612, 14, 87, 19, 1045, 29, 4633, 3049, 84, 16895], [16, 1539, 96, 638, 20, 49626, 39, 23, 378, 1246, 870, 18, 2191, 14, 5088, 32, 7, 56, 103, 14, 1, 1]]
Begin: Training
_________________________________________________________________
Layer (type)                 Output Shape              Param #   
=================================================================
input_1 (InputLayer)         (None, 22)                0         
_________________________________________________________________
embedding_1 (Embedding)      (None, 22, 100)           50000200  
_________________________________________________________________
bidirectional_1 (Bidirection (None, 22, 256)           234496    
_________________________________________________________________
dense_1 (Dense)              (None, 22, 64)            16448     
_________________________________________________________________
dropout_1 (Dropout)          (None, 22, 64)            0         
_________________________________________________________________
dense_2 (Dense)              (None, 22, 32)            2080      
_________________________________________________________________
dropout_2 (Dropout)          (None, 22, 32)            0         
_________________________________________________________________
flatten_1 (Flatten)          (None, 704)               0         
_________________________________________________________________
dense_3 (Dense)              (None, 2)                 1410      
=================================================================
Total params: 50,254,634
Trainable params: 254,434
Non-trainable params: 50,000,200
_________________________________________________________________
Epoch 1/30

  32/3957 [..............................] - ETA: 1:01 - loss: 0.8455 - acc: 0.5938
 128/3957 [..............................] - ETA: 16s - loss: 0.8139 - acc: 0.7188 
…
