…
, 392832, 0, 454997, 68484, 0, 69965, 188771, 1, 1, 1, 1], [141909, 246961, 0, 0, 261288, 354415, 101623, 350672, 309969, 0, 143375, 0, 252114, 0, 494076, 0, 268658, 63252, 262323, 207205, 416827, 381430, 469410], [416827, 0, 0, 325184, 251565, 277254, 281959, 379669, 0, 0, 333686, 223983, 48701, 47519, 394679, 0, 0, 349410, 32259, 0, 126956, 0, 198609]]
Begin: Training
_________________________________________________________________
Layer (type)                 Output Shape              Param #   
=================================================================
input_1 (InputLayer)         (None, 23)                0         
_________________________________________________________________
embedding_1 (Embedding)      (None, 23, 100)           50000200  
_________________________________________________________________
bidirectional_1 (Bidirection (None, 23, 256)           234496    
_________________________________________________________________
dense_1 (Dense)              (None, 23, 64)            16448     
_________________________________________________________________
dropout_1 (Dropout)          (None, 23, 64)            0         
_________________________________________________________________
dense_2 (Dense)              (None, 23, 32)            2080      
_________________________________________________________________
dropout_2 (Dropout)          (None, 23, 32)            0         
_________________________________________________________________
flatten_1 (Flatten)          (None, 736)               0         
_________________________________________________________________
dense_3 (Dense)              (None, 2)                 1474      
=================================================================
Total params: 50,254,698
Trainable params: 254,498
Non-trainable params: 50,000,200
_________________________________________________________________
Epoch 1/30

  32/5872 [..............................] - ETA: 1:23 - loss: 0.9382 - acc: 0.5938
 128/5872 [..............................] - ETA: 23s - loss: 0.8775 - acc: 0.4844 
…
