…
[[8, 108, 1198, 493, 24, 162, 632, 10, 4, 881, 14, 13, 1298, 208, 139, 12, 9034, 18, 586, 632, 15, 50], [1113, 179, 6, 80, 5014, 20, 29, 231, 105, 84, 1, 1, 1, 1, 1, 1, 1, 1, 1, 1, 1, 1], [1122, 2770, 82, 3726, 82, 20, 34, 225, 600, 1949, 14, 28987, 23, 3052, 775, 11, 0, 105355, 8, 0, 1, 1], [82, 8, 78, 8, 2143, 10, 39, 20, 4, 610, 490, 82, 14, 674, 21, 160, 8, 4, 1146, 2834, 84, 0], [8, 93, 19, 160, 45, 3617, 0, 20, 26339, 760, 4580, 16, 139, 159867, 30, 133, 9, 19, 93, 79, 442, 50]]
Begin: Training
_________________________________________________________________
Layer (type)                 Output Shape              Param #   
=================================================================
input_1 (InputLayer)         (None, 22)                0         
_________________________________________________________________
embedding_1 (Embedding)      (None, 22, 100)           50000200  
_________________________________________________________________
bidirectional_1 (Bidirection (None, 22, 256)           234496    
_________________________________________________________________
dense_1 (Dense)              (None, 22, 64)            16448     
_________________________________________________________________
dropout_1 (Dropout)          (None, 22, 64)            0         
_________________________________________________________________
dense_2 (Dense)              (None, 22, 32)            2080      
_________________________________________________________________
dropout_2 (Dropout)          (None, 22, 32)            0         
_________________________________________________________________
flatten_1 (Flatten)          (None, 704)               0         
_________________________________________________________________
dense_3 (Dense)              (None, 3)                 2115      
=================================================================
Total params: 50,255,339
Trainable params: 255,139
Non-trainable params: 50,000,200
_________________________________________________________________
Epoch 1/30

  32/5999 [..............................] - ETA: 1:01 - loss: 1.3033 - acc: 0.4062
 128/5999 [..............................] - ETA: 17s - loss: 1.2484 - acc: 0.4609 
…
