…
860, 0, 88421, 1, 1, 1, 1, 1, 1, 1, 1, 1], [235665, 240309, 325263, 459963, 270901, 327039, 0, 273197, 243739, 125770, 0, 383964, 459963, 47942, 0, 43559, 476831, 438583, 0, 113389, 1, 1, 1], [181010, 235665, 254288, 389214, 0, 255257, 443205, 125770, 227680, 287225, 229537, 17282, 459963, 47942, 0, 0, 30102, 79370, 136718, 457448, 172154, 11887, 30102]]
Begin: Training
_________________________________________________________________
Layer (type)                 Output Shape              Param #   
=================================================================
input_1 (InputLayer)         (None, 23)                0         
_________________________________________________________________
embedding_1 (Embedding)      (None, 23, 100)           50000200  
_________________________________________________________________
bidirectional_1 (Bidirection (None, 23, 256)           234496    
_________________________________________________________________
dense_1 (Dense)              (None, 23, 64)            16448     
_________________________________________________________________
dropout_1 (Dropout)          (None, 23, 64)            0         
_________________________________________________________________
dense_2 (Dense)              (None, 23, 32)            2080      
_________________________________________________________________
dropout_2 (Dropout)          (None, 23, 32)            0         
_________________________________________________________________
flatten_1 (Flatten)          (None, 736)               0         
_________________________________________________________________
dense_3 (Dense)              (None, 2)                 1474      
=================================================================
Total params: 50,254,698
Trainable params: 254,498
Non-trainable params: 50,000,200
_________________________________________________________________
Epoch 1/30

  32/5872 [..............................] - ETA: 1:22 - loss: 0.8855 - acc: 0.5938
 128/5872 [..............................] - ETA: 23s - loss: 0.8744 - acc: 0.5078 
…
