…
[[26339, 7048, 91, 0, 800, 1090, 26339, 1172, 15, 11947, 8347, 47733, 20, 26339, 1172, 0, 9, 25, 1904, 26, 0, 1], [210, 336, 2859, 310, 17023, 1782, 12, 0, 23, 251, 15, 755, 1328, 3114, 95, 305, 191, 174, 4, 279, 1, 1], [10850, 0, 23, 670, 155, 165, 926, 1777, 14, 192, 411, 170, 645, 87, 24, 10, 156, 1237, 131, 19642, 779, 14], [1821, 23359, 85, 1216, 4949, 373, 31, 32, 4, 2350, 1379, 257, 189, 1476, 10, 16, 107, 1, 1, 1, 1, 1], [356050, 6, 26781, 3683, 17, 716, 31416, 17, 1862, 82, 5041, 82, 85, 4, 586, 1265, 170, 3619, 12, 6, 2976, 422]]
Begin: Training
_________________________________________________________________
Layer (type)                 Output Shape              Param #   
=================================================================
input_1 (InputLayer)         (None, 22)                0         
_________________________________________________________________
embedding_1 (Embedding)      (None, 22, 100)           50000200  
_________________________________________________________________
bidirectional_1 (Bidirection (None, 22, 256)           234496    
_________________________________________________________________
dense_1 (Dense)              (None, 22, 64)            16448     
_________________________________________________________________
dropout_1 (Dropout)          (None, 22, 64)            0         
_________________________________________________________________
dense_2 (Dense)              (None, 22, 32)            2080      
_________________________________________________________________
dropout_2 (Dropout)          (None, 22, 32)            0         
_________________________________________________________________
flatten_1 (Flatten)          (None, 704)               0         
_________________________________________________________________
dense_3 (Dense)              (None, 3)                 2115      
=================================================================
Total params: 50,255,339
Trainable params: 255,139
Non-trainable params: 50,000,200
_________________________________________________________________
Epoch 1/30

  32/5999 [..............................] - ETA: 1:29 - loss: 1.2936 - acc: 0.2812
 128/5999 [..............................] - ETA: 24s - loss: 1.2499 - acc: 0.3906 
…
