…
[[8, 76, 28, 23, 4, 554, 17, 29, 36, 24142, 15, 31531, 15, 5362, 60111, 15, 2312, 45969, 15, 5978, 140, 797], [12434, 108, 32, 3943, 16139, 54, 4028, 42825, 23, 1511, 1447, 11, 270, 829, 284, 6, 79, 61, 371, 26, 0, 1], [8, 36380, 77262, 239, 6943, 12, 283, 53, 3257, 4, 48, 395, 4, 1447, 14, 24899, 1, 1, 1, 1, 1, 1], [1329, 251, 11, 448, 52264, 20, 16, 5326, 176, 86, 9, 360, 166, 6, 79, 4, 35396, 75, 11, 1, 1, 1], [4375, 2895, 22, 1328, 7, 3183, 26, 13, 4093, 7, 611, 62, 452, 78, 24, 167, 989, 72, 14, 87, 202, 8]]
Begin: Training
_________________________________________________________________
Layer (type)                 Output Shape              Param #   
=================================================================
input_1 (InputLayer)         (None, 22)                0         
_________________________________________________________________
embedding_1 (Embedding)      (None, 22, 100)           50000200  
_________________________________________________________________
bidirectional_1 (Bidirection (None, 22, 256)           234496    
_________________________________________________________________
dense_1 (Dense)              (None, 22, 64)            16448     
_________________________________________________________________
dropout_1 (Dropout)          (None, 22, 64)            0         
_________________________________________________________________
dense_2 (Dense)              (None, 22, 32)            2080      
_________________________________________________________________
dropout_2 (Dropout)          (None, 22, 32)            0         
_________________________________________________________________
flatten_1 (Flatten)          (None, 704)               0         
_________________________________________________________________
dense_3 (Dense)              (None, 2)                 1410      
=================================================================
Total params: 50,254,634
Trainable params: 254,434
Non-trainable params: 50,000,200
_________________________________________________________________
Epoch 1/30

  32/3957 [..............................] - ETA: 1:20 - loss: 0.8422 - acc: 0.7188
  96/3957 [..............................] - ETA: 28s - loss: 0.8050 - acc: 0.7292 
…
