…
[[4606, 37, 10, 4, 489, 20, 3991, 282, 9, 4, 154, 10, 4, 3366, 12963, 23812, 7190, 1, 1, 1, 1, 1], [8, 221, 19, 68, 79, 16, 13885, 84, 0, 774, 198, 231, 14, 120, 228, 3, 29, 14, 1, 1, 1, 1], [13, 31, 67505, 16, 14160, 4282, 23, 1903, 223, 170, 1249, 1821, 6483, 7, 7447, 17, 1612, 27, 373, 217, 6, 5861], [452, 665, 39, 7021, 33, 4, 2071, 2873, 900, 2382, 10798, 11, 0, 1, 1, 1, 1, 1, 1, 1, 1, 1], [10319, 58, 17, 4, 1146, 43, 42, 916, 115, 1346, 22, 40, 84, 1, 1, 1, 1, 1, 1, 1, 1, 1]]
Begin: Training
_________________________________________________________________
Layer (type)                 Output Shape              Param #   
=================================================================
input_1 (InputLayer)         (None, 22)                0         
_________________________________________________________________
embedding_1 (Embedding)      (None, 22, 100)           50000200  
_________________________________________________________________
bidirectional_1 (Bidirection (None, 22, 256)           234496    
_________________________________________________________________
dense_1 (Dense)              (None, 22, 64)            16448     
_________________________________________________________________
dropout_1 (Dropout)          (None, 22, 64)            0         
_________________________________________________________________
dense_2 (Dense)              (None, 22, 32)            2080      
_________________________________________________________________
dropout_2 (Dropout)          (None, 22, 32)            0         
_________________________________________________________________
flatten_1 (Flatten)          (None, 704)               0         
_________________________________________________________________
dense_3 (Dense)              (None, 3)                 2115      
=================================================================
Total params: 50,255,339
Trainable params: 255,139
Non-trainable params: 50,000,200
_________________________________________________________________
Epoch 1/30

  32/5999 [..............................] - ETA: 1:01 - loss: 1.2919 - acc: 0.3438
 128/5999 [..............................] - ETA: 17s - loss: 1.2519 - acc: 0.4375 
…
