…
[[418823, 0, 0, 418823, 125023, 257247, 154649, 0, 423523, 369756, 109906, 423523, 13269, 54181, 0, 346662, 0, 454373, 209462, 384634, 1, 1, 1], [15168, 327184, 213456, 0, 0, 147421, 0, 288136, 0, 132137, 0, 154649, 246363, 0, 2289, 427771, 1, 1, 1, 1, 1, 1, 1], [0, 125023, 154649, 350662, 238120, 0, 0, 440513, 124829, 0, 327184, 114135, 125023, 196275, 462814, 72303, 124829, 0, 350662, 238120, 0, 85144, 377556], [67418, 0, 183792, 387097, 427771, 354743, 452790, 211440, 175831, 128426, 1, 1, 1, 1, 1, 1, 1, 1, 1, 1, 1, 1, 1], [41596, 0, 56789, 461879, 483699, 354743, 252641, 492044, 1, 1, 1, 1, 1, 1, 1, 1, 1, 1, 1, 1, 1, 1, 1]]
Begin: Training
_________________________________________________________________
Layer (type)                 Output Shape              Param #   
=================================================================
input_1 (InputLayer)         (None, 23)                0         
_________________________________________________________________
embedding_1 (Embedding)      (None, 23, 100)           50000200  
_________________________________________________________________
bidirectional_1 (Bidirection (None, 23, 256)           234496    
_________________________________________________________________
dense_1 (Dense)              (None, 23, 64)            16448     
_________________________________________________________________
dropout_1 (Dropout)          (None, 23, 64)            0         
_________________________________________________________________
dense_2 (Dense)              (None, 23, 32)            2080      
_________________________________________________________________
dropout_2 (Dropout)          (None, 23, 32)            0         
_________________________________________________________________
flatten_1 (Flatten)          (None, 736)               0         
_________________________________________________________________
dense_3 (Dense)              (None, 2)                 1474      
=================================================================
Total params: 50,254,698
Trainable params: 254,498
Non-trainable params: 50,000,200
_________________________________________________________________
Epoch 1/30

  32/5872 [..............................] - ETA: 1:23 - loss: 0.9290 - acc: 0.6250
 128/5872 [..............................] - ETA: 23s - loss: 0.8752 - acc: 0.5781 
…
