…
[[2269, 1090, 33, 6019, 14, 11170, 9, 9, 4091, 4723, 13620, 11077, 23, 4, 4324, 12, 985, 10, 1147, 9, 3495, 91, 0], [82, 10938, 7070, 0, 323, 578, 23, 35861, 91, 18490, 18163, 1596, 12, 714, 954, 58199, 104365, 1707, 140, 140, 1371, 36, 517], [13, 249, 63, 166, 6, 3136, 16, 3820, 2307, 295, 231, 1, 1, 1, 1, 1, 1, 1, 1, 1, 1, 1, 1], [13, 696, 8, 36, 21409, 4, 122479, 578, 6, 493, 145, 6, 10600, 2689, 84, 13, 633, 68, 14, 0, 1, 1, 1], [54, 775, 11, 76, 148, 10, 7, 212, 43, 14, 4189, 15, 6869, 15, 681, 1567, 15, 17638, 14, 14079, 244, 3093, 15]]
Begin: Training
_________________________________________________________________
Layer (type)                 Output Shape              Param #   
=================================================================
input_1 (InputLayer)         (None, 23)                0         
_________________________________________________________________
embedding_1 (Embedding)      (None, 23, 100)           50000200  
_________________________________________________________________
bidirectional_1 (Bidirection (None, 23, 256)           234496    
_________________________________________________________________
dense_1 (Dense)              (None, 23, 64)            16448     
_________________________________________________________________
dropout_1 (Dropout)          (None, 23, 64)            0         
_________________________________________________________________
dense_2 (Dense)              (None, 23, 32)            2080      
_________________________________________________________________
dropout_2 (Dropout)          (None, 23, 32)            0         
_________________________________________________________________
flatten_1 (Flatten)          (None, 736)               0         
_________________________________________________________________
dense_3 (Dense)              (None, 2)                 1474      
=================================================================
Total params: 50,254,698
Trainable params: 254,498
Non-trainable params: 50,000,200
_________________________________________________________________
Epoch 1/30

  32/5872 [..............................] - ETA: 1:23 - loss: 0.8697 - acc: 0.6250
 128/5872 [..............................] - ETA: 23s - loss: 0.8562 - acc: 0.5547 
…
