…
35665, 0, 250151, 476831, 0, 70331, 0, 30768, 355304, 0, 0, 1, 1, 1], [118908, 0, 0, 494863, 283018, 200254, 74942, 0, 0, 110994, 216152, 190136, 0, 30102, 60561, 0, 270901, 225570, 118908, 0, 287723, 0], [459963, 72576, 0, 380529, 347699, 317170, 0, 235665, 54646, 0, 30102, 181979, 347699, 466233, 0, 30102, 258108, 41060, 22118, 216152, 248864, 258108]]
Begin: Training
_________________________________________________________________
Layer (type)                 Output Shape              Param #   
=================================================================
input_1 (InputLayer)         (None, 22)                0         
_________________________________________________________________
embedding_1 (Embedding)      (None, 22, 100)           50000200  
_________________________________________________________________
bidirectional_1 (Bidirection (None, 22, 256)           234496    
_________________________________________________________________
dense_1 (Dense)              (None, 22, 64)            16448     
_________________________________________________________________
dropout_1 (Dropout)          (None, 22, 64)            0         
_________________________________________________________________
dense_2 (Dense)              (None, 22, 32)            2080      
_________________________________________________________________
dropout_2 (Dropout)          (None, 22, 32)            0         
_________________________________________________________________
flatten_1 (Flatten)          (None, 704)               0         
_________________________________________________________________
dense_3 (Dense)              (None, 2)                 1410      
=================================================================
Total params: 50,254,634
Trainable params: 254,434
Non-trainable params: 50,000,200
_________________________________________________________________
Epoch 1/30

  32/3957 [..............................] - ETA: 56s - loss: 0.9060 - acc: 0.6250
 128/3957 [..............................] - ETA: 15s - loss: 0.8097 - acc: 0.7422
…
