…
[[82, 16, 1502, 166, 6, 1884, 251, 7070, 0, 289, 80, 50, 183, 204, 278, 29, 7070, 0, 7070, 0, 23, 7070, 82], [8, 13, 31, 77, 73, 33, 6904, 23, 452, 9, 13, 7070, 0, 522, 1594, 192, 14, 1, 1, 1, 1, 1, 1], [8, 8, 3570, 56360, 373, 32, 7, 3405, 3981, 53, 53, 50, 183, 22, 34, 3405, 3981, 14, 27, 39, 132, 1, 1], [397, 32, 193, 6284, 4, 1346, 3858, 1451, 1229, 8, 21, 251, 51, 18, 4088, 152, 8, 2323, 4, 3858, 226, 14, 0], [8, 64, 437, 44, 19, 607, 2618, 15, 12104, 13848, 22, 480, 15, 13379, 284, 17, 7, 380, 40, 1205, 32, 72, 982]]
Begin: Training
_________________________________________________________________
Layer (type)                 Output Shape              Param #   
=================================================================
input_1 (InputLayer)         (None, 23)                0         
_________________________________________________________________
embedding_1 (Embedding)      (None, 23, 100)           50000200  
_________________________________________________________________
bidirectional_1 (Bidirection (None, 23, 256)           234496    
_________________________________________________________________
dense_1 (Dense)              (None, 23, 64)            16448     
_________________________________________________________________
dropout_1 (Dropout)          (None, 23, 64)            0         
_________________________________________________________________
dense_2 (Dense)              (None, 23, 32)            2080      
_________________________________________________________________
dropout_2 (Dropout)          (None, 23, 32)            0         
_________________________________________________________________
flatten_1 (Flatten)          (None, 736)               0         
_________________________________________________________________
dense_3 (Dense)              (None, 2)                 1474      
=================================================================
Total params: 50,254,698
Trainable params: 254,498
Non-trainable params: 50,000,200
_________________________________________________________________
Epoch 1/30

  32/5872 [..............................] - ETA: 1:00 - loss: 0.9625 - acc: 0.3750
 128/5872 [..............................] - ETA: 17s - loss: 0.8878 - acc: 0.4297 
…
