…
 204167, 401952, 378270, 164296, 223983, 492577, 261174, 252114, 48701, 1, 1, 1], [0, 0, 274859, 0, 328801, 251565, 141353, 0, 0, 416827, 378270, 476877, 251565, 252114, 0, 185848, 401952, 428103, 49488, 0, 0, 286748], [25188, 242572, 0, 0, 0, 200138, 447735, 63252, 241680, 351078, 0, 439442, 369258, 80956, 0, 432601, 87231, 39596, 149669, 318084, 0, 0]]
Begin: Training
_________________________________________________________________
Layer (type)                 Output Shape              Param #   
=================================================================
input_1 (InputLayer)         (None, 22)                0         
_________________________________________________________________
embedding_1 (Embedding)      (None, 22, 100)           50000200  
_________________________________________________________________
bidirectional_1 (Bidirection (None, 22, 256)           234496    
_________________________________________________________________
dense_1 (Dense)              (None, 22, 64)            16448     
_________________________________________________________________
dropout_1 (Dropout)          (None, 22, 64)            0         
_________________________________________________________________
dense_2 (Dense)              (None, 22, 32)            2080      
_________________________________________________________________
dropout_2 (Dropout)          (None, 22, 32)            0         
_________________________________________________________________
flatten_1 (Flatten)          (None, 704)               0         
_________________________________________________________________
dense_3 (Dense)              (None, 2)                 1410      
=================================================================
Total params: 50,254,634
Trainable params: 254,434
Non-trainable params: 50,000,200
_________________________________________________________________
Epoch 1/30

  32/3957 [..............................] - ETA: 56s - loss: 0.9127 - acc: 0.5938
 128/3957 [..............................] - ETA: 15s - loss: 0.8318 - acc: 0.7109
…
