…
[[68, 25, 50, 625, 1424, 226, 106, 19, 47, 519, 91, 44845, 4354, 33106, 0, 13294, 0, 1, 1, 1, 1, 1], [57, 19, 47, 4, 76, 2541, 189, 26, 73, 776, 6535, 6, 3991, 282, 10, 1566, 8, 1, 1, 1, 1, 1], [55946, 5431, 4, 0, 2375, 11, 11, 55946, 22, 23, 323, 405, 3004, 78, 14115, 173, 64, 3414, 14, 6653, 5544, 9781], [464, 432, 10319, 156, 226, 10, 213, 223, 15, 85, 133, 85, 54, 7, 962, 41, 3708, 128, 1418, 11181, 15, 24], [8, 1898, 3987, 545, 4, 1108, 37, 12, 4, 27750, 5190, 14, 59, 21, 816, 3964, 14, 691, 0, 452, 65, 1]]
Begin: Training
_________________________________________________________________
Layer (type)                 Output Shape              Param #   
=================================================================
input_1 (InputLayer)         (None, 22)                0         
_________________________________________________________________
embedding_1 (Embedding)      (None, 22, 100)           50000200  
_________________________________________________________________
bidirectional_1 (Bidirection (None, 22, 256)           234496    
_________________________________________________________________
dense_1 (Dense)              (None, 22, 64)            16448     
_________________________________________________________________
dropout_1 (Dropout)          (None, 22, 64)            0         
_________________________________________________________________
dense_2 (Dense)              (None, 22, 32)            2080      
_________________________________________________________________
dropout_2 (Dropout)          (None, 22, 32)            0         
_________________________________________________________________
flatten_1 (Flatten)          (None, 704)               0         
_________________________________________________________________
dense_3 (Dense)              (None, 2)                 1410      
=================================================================
Total params: 50,254,634
Trainable params: 254,434
Non-trainable params: 50,000,200
_________________________________________________________________
Epoch 1/30

  32/3957 [..............................] - ETA: 54s - loss: 0.8537 - acc: 0.6250
 128/3957 [..............................] - ETA: 15s - loss: 0.8209 - acc: 0.6562
…
