…
[[8, 19, 373, 15445, 4, 371, 28, 13, 538, 401, 317, 1503, 41, 380, 152, 40, 4278, 26, 10319, 58, 22, 4], [1363, 5274, 9, 5362, 6977, 53, 16434, 10, 8598, 8451, 17, 69982, 586, 18779, 53, 44, 823, 18, 19375, 38885, 20, 6014], [8, 8, 629, 4, 356, 106, 19, 517, 52264, 9, 13519, 10, 4, 76840, 24, 289, 32, 2112, 4, 610, 10, 259], [8, 426, 12, 1767, 121, 1776, 1114, 22, 343, 23, 165, 25, 1427, 519, 9, 385, 4, 926, 1106, 128, 4, 1427], [106, 13, 517, 10, 4, 74, 1746, 2183, 816, 176, 86, 397, 1255, 4, 636, 965, 35, 231, 14, 1, 1, 1]]
Begin: Training
_________________________________________________________________
Layer (type)                 Output Shape              Param #   
=================================================================
input_1 (InputLayer)         (None, 22)                0         
_________________________________________________________________
embedding_1 (Embedding)      (None, 22, 100)           50000200  
_________________________________________________________________
bidirectional_1 (Bidirection (None, 22, 256)           234496    
_________________________________________________________________
dense_1 (Dense)              (None, 22, 64)            16448     
_________________________________________________________________
dropout_1 (Dropout)          (None, 22, 64)            0         
_________________________________________________________________
dense_2 (Dense)              (None, 22, 32)            2080      
_________________________________________________________________
dropout_2 (Dropout)          (None, 22, 32)            0         
_________________________________________________________________
flatten_1 (Flatten)          (None, 704)               0         
_________________________________________________________________
dense_3 (Dense)              (None, 3)                 2115      
=================================================================
Total params: 50,255,339
Trainable params: 255,139
Non-trainable params: 50,000,200
_________________________________________________________________
Epoch 1/30

  32/5999 [..............................] - ETA: 1:25 - loss: 1.2867 - acc: 0.3750
 128/5999 [..............................] - ETA: 23s - loss: 1.2446 - acc: 0.4297 
…
