…
[[8908, 588, 14, 15890, 10, 4, 926, 866, 12, 3321, 3229, 14, 6978, 4, 233, 181, 5300, 1, 1, 1, 1, 1, 1], [24, 22, 2411, 40, 14577, 44, 23, 4, 1902, 10, 1445, 9, 265360, 159, 275, 6, 3179, 281, 20, 357, 3209, 0, 1], [1404, 19010, 20, 16, 83652, 176, 86, 15, 9, 40, 85, 12, 2454, 15, 8, 765, 563, 24, 14, 618, 393, 546, 874], [6014, 7535, 8, 6253, 1893, 17, 4, 343, 423, 15, 517, 67, 1222, 885, 165, 931, 213, 26, 0, 1, 1, 1, 1], [34055, 156, 485, 619, 46, 668, 1306, 10, 1977, 14, 1792, 4, 1050, 7070, 0, 25375, 14, 1, 1, 1, 1, 1, 1]]
Begin: Training
_________________________________________________________________
Layer (type)                 Output Shape              Param #   
=================================================================
input_1 (InputLayer)         (None, 23)                0         
_________________________________________________________________
embedding_1 (Embedding)      (None, 23, 100)           50000200  
_________________________________________________________________
bidirectional_1 (Bidirection (None, 23, 256)           234496    
_________________________________________________________________
dense_1 (Dense)              (None, 23, 64)            16448     
_________________________________________________________________
dropout_1 (Dropout)          (None, 23, 64)            0         
_________________________________________________________________
dense_2 (Dense)              (None, 23, 32)            2080      
_________________________________________________________________
dropout_2 (Dropout)          (None, 23, 32)            0         
_________________________________________________________________
flatten_1 (Flatten)          (None, 736)               0         
_________________________________________________________________
dense_3 (Dense)              (None, 2)                 1474      
=================================================================
Total params: 50,254,698
Trainable params: 254,498
Non-trainable params: 50,000,200
_________________________________________________________________
Epoch 1/30

  32/5872 [..............................] - ETA: 1:30 - loss: 0.8685 - acc: 0.5625
 128/5872 [..............................] - ETA: 24s - loss: 0.8576 - acc: 0.5547 
…
