…
, 415961, 45972, 183011, 0, 34910, 443525, 0, 0, 0], [378941, 0, 149008, 197522, 325455, 443525, 145678, 496803, 89174, 496803, 460259, 22818, 0, 0, 475053, 0, 163076, 41202, 117852, 119461, 41202, 202248, 113059], [145678, 496803, 460259, 22818, 0, 0, 0, 0, 70308, 200917, 215137, 145678, 83895, 444223, 68253, 237591, 246681, 0, 0, 443525, 0, 319214, 0]]
Begin: Training
_________________________________________________________________
Layer (type)                 Output Shape              Param #   
=================================================================
input_1 (InputLayer)         (None, 23)                0         
_________________________________________________________________
embedding_1 (Embedding)      (None, 23, 100)           50000200  
_________________________________________________________________
bidirectional_1 (Bidirection (None, 23, 256)           234496    
_________________________________________________________________
dense_1 (Dense)              (None, 23, 64)            16448     
_________________________________________________________________
dropout_1 (Dropout)          (None, 23, 64)            0         
_________________________________________________________________
dense_2 (Dense)              (None, 23, 32)            2080      
_________________________________________________________________
dropout_2 (Dropout)          (None, 23, 32)            0         
_________________________________________________________________
flatten_1 (Flatten)          (None, 736)               0         
_________________________________________________________________
dense_3 (Dense)              (None, 2)                 1474      
=================================================================
Total params: 50,254,698
Trainable params: 254,498
Non-trainable params: 50,000,200
_________________________________________________________________
Epoch 1/30

  32/5872 [..............................] - ETA: 1:25 - loss: 0.9160 - acc: 0.5312
 128/5872 [..............................] - ETA: 23s - loss: 0.8849 - acc: 0.4609 
…
