…
, 148424, 149211, 459963, 0, 70331, 0, 1, 1, 1, 1], [181010, 181010, 248864, 459963, 88861, 0, 216152, 70331, 271053, 83897, 69207, 290665, 216152, 426737, 113494, 235665, 0, 321094, 216152, 203109, 0, 148911], [258108, 0, 467817, 385792, 458115, 243739, 235665, 417073, 216152, 459963, 270901, 56524, 0, 17282, 125770, 104127, 0, 0, 0, 182351, 0, 235665]]
Begin: Training
_________________________________________________________________
Layer (type)                 Output Shape              Param #   
=================================================================
input_1 (InputLayer)         (None, 22)                0         
_________________________________________________________________
embedding_1 (Embedding)      (None, 22, 100)           50000200  
_________________________________________________________________
bidirectional_1 (Bidirection (None, 22, 256)           234496    
_________________________________________________________________
dense_1 (Dense)              (None, 22, 64)            16448     
_________________________________________________________________
dropout_1 (Dropout)          (None, 22, 64)            0         
_________________________________________________________________
dense_2 (Dense)              (None, 22, 32)            2080      
_________________________________________________________________
dropout_2 (Dropout)          (None, 22, 32)            0         
_________________________________________________________________
flatten_1 (Flatten)          (None, 704)               0         
_________________________________________________________________
dense_3 (Dense)              (None, 3)                 2115      
=================================================================
Total params: 50,255,339
Trainable params: 255,139
Non-trainable params: 50,000,200
_________________________________________________________________
Epoch 1/30

  32/5999 [..............................] - ETA: 1:24 - loss: 1.3530 - acc: 0.3125
 128/5999 [..............................] - ETA: 23s - loss: 1.2565 - acc: 0.4375 
…
