…
End: Loading evaluation corpus
Begin: Loading embeddings
End: Loading embeddings
[[1923, 89, 9315, 0, 9, 0, 26, 967, 19, 967, 26, 10154, 39], [105343, 707, 60, 530, 359, 12626, 15, 7710, 7710, 1, 1, 1, 1], [3, 993, 343, 343, 1, 1, 1, 1, 1, 1, 1, 1, 1], [3, 881, 1, 1, 1, 1, 1, 1, 1, 1, 1, 1, 1], [18, 42, 0, 29, 4318, 13, 188, 386, 2365, 20, 63, 160651, 203]]
Begin: Training
_________________________________________________________________
Layer (type)                 Output Shape              Param #   
=================================================================
input_1 (InputLayer)         (None, 13)                0         
_________________________________________________________________
embedding_1 (Embedding)      (None, 13, 100)           41277800  
_________________________________________________________________
bidirectional_1 (Bidirection (None, 13, 256)           234496    
_________________________________________________________________
dense_1 (Dense)              (None, 13, 64)            16448     
_________________________________________________________________
dropout_1 (Dropout)          (None, 13, 64)            0         
_________________________________________________________________
dense_2 (Dense)              (None, 13, 32)            2080      
_________________________________________________________________
dropout_2 (Dropout)          (None, 13, 32)            0         
_________________________________________________________________
flatten_1 (Flatten)          (None, 416)               0         
_________________________________________________________________
dense_3 (Dense)              (None, 2)                 834       
=================================================================
Total params: 41,531,658
Trainable params: 253,858
Non-trainable params: 41,277,800
_________________________________________________________________
Epoch 1/50

  16/1764 [..............................] - ETA: 35s - loss: 0.7699 - acc: 0.7500
 112/1764 [>.............................] - ETA: 5s - loss: 0.8710 - acc: 0.6071 
…
