…
End: Loading embeddings
[[1923, 89, 9315, 0, 9, 0, 26, 967, 19, 967, 26, 10154, 39, 33], [105343, 707, 60, 530, 359, 12626, 15, 7710, 7710, 1, 1, 1, 1, 1], [273719, 335, 243, 37, 9, 5131, 27, 2370, 111, 197474, 969, 9, 14152, 5131], [2227, 16098, 9, 38, 0, 271688, 11196, 25, 72, 2648, 10, 10, 9, 0], [140686, 1801, 0, 5421, 0, 0, 383553, 35781, 75, 459, 32, 331, 1, 1]]
Begin: Training
_________________________________________________________________
Layer (type)                 Output Shape              Param #   
=================================================================
input_1 (InputLayer)         (None, 14)                0         
_________________________________________________________________
embedding_1 (Embedding)      (None, 14, 100)           41277800  
_________________________________________________________________
bidirectional_1 (Bidirection (None, 14, 256)           234496    
_________________________________________________________________
dense_1 (Dense)              (None, 14, 64)            16448     
_________________________________________________________________
dropout_1 (Dropout)          (None, 14, 64)            0         
_________________________________________________________________
dense_2 (Dense)              (None, 14, 32)            2080      
_________________________________________________________________
dropout_2 (Dropout)          (None, 14, 32)            0         
_________________________________________________________________
flatten_1 (Flatten)          (None, 448)               0         
_________________________________________________________________
dense_3 (Dense)              (None, 3)                 1347      
=================================================================
Total params: 41,532,171
Trainable params: 254,371
Non-trainable params: 41,277,800
_________________________________________________________________
Epoch 1/45

  16/4687 [..............................] - ETA: 1:34 - loss: 1.3152 - acc: 0.4375
 112/4687 [..............................] - ETA: 15s - loss: 1.2338 - acc: 0.4375 
…
