…
[[0, 4375, 2895, 28, 993, 345, 213, 15, 50, 221, 136, 160, 511, 969, 84, 1229, 8, 75361, 18796, 1, 1, 1], [16078, 91, 4, 263, 7523, 263, 12, 2770, 751, 91, 7, 40129, 12, 2006, 0, 5932, 19, 373, 47, 903, 174, 171], [6014, 7535, 22, 464, 32, 10, 412, 17, 7, 379, 78, 5713, 185, 213, 78, 13, 217, 7, 35140, 14008, 699, 6], [1596, 2777, 1707, 14, 8, 91, 10, 1554, 19, 1027, 519, 8573, 24, 14, 373, 13, 2883, 19, 7, 314, 4563, 34532], [25558, 4375, 11, 57, 19, 239, 261, 166, 6, 2785, 391, 23, 4, 2147, 15, 13, 3781, 24, 6, 2785, 23, 4]]
Begin: Training
_________________________________________________________________
Layer (type)                 Output Shape              Param #   
=================================================================
input_1 (InputLayer)         (None, 22)                0         
_________________________________________________________________
embedding_1 (Embedding)      (None, 22, 100)           50000200  
_________________________________________________________________
bidirectional_1 (Bidirection (None, 22, 256)           234496    
_________________________________________________________________
dense_1 (Dense)              (None, 22, 64)            16448     
_________________________________________________________________
dropout_1 (Dropout)          (None, 22, 64)            0         
_________________________________________________________________
dense_2 (Dense)              (None, 22, 32)            2080      
_________________________________________________________________
dropout_2 (Dropout)          (None, 22, 32)            0         
_________________________________________________________________
flatten_1 (Flatten)          (None, 704)               0         
_________________________________________________________________
dense_3 (Dense)              (None, 2)                 1410      
=================================================================
Total params: 50,254,634
Trainable params: 254,434
Non-trainable params: 50,000,200
_________________________________________________________________
Epoch 1/30

  32/3957 [..............................] - ETA: 39s - loss: 0.8522 - acc: 0.7500
 128/3957 [..............................] - ETA: 11s - loss: 0.8233 - acc: 0.6875
…
