…
[[87, 19, 47, 6, 432, 139, 12, 9034, 33, 4, 74, 288, 131, 93, 19, 310, 448, 4, 1447, 74, 84, 1], [13, 37, 12, 1137, 0, 0, 3604, 56, 676, 35, 55946, 18, 0, 14, 8539, 15, 0, 15, 19, 93, 993, 51991], [89649, 23, 733, 15, 89, 48, 4, 433, 11, 11, 78780, 1, 1, 1, 1, 1, 1, 1, 1, 1, 1, 1], [8, 8, 13, 249, 54, 5199, 14, 89649, 134, 31, 1717, 0, 15, 30, 31632, 22, 845, 85, 760, 131, 1447, 46428], [8, 17, 4, 1447, 43, 1527, 166, 6, 3187, 5246, 11970, 304, 1, 1, 1, 1, 1, 1, 1, 1, 1, 1]]
Begin: Training
_________________________________________________________________
Layer (type)                 Output Shape              Param #   
=================================================================
input_1 (InputLayer)         (None, 22)                0         
_________________________________________________________________
embedding_1 (Embedding)      (None, 22, 100)           50000200  
_________________________________________________________________
bidirectional_1 (Bidirection (None, 22, 256)           234496    
_________________________________________________________________
dense_1 (Dense)              (None, 22, 64)            16448     
_________________________________________________________________
dropout_1 (Dropout)          (None, 22, 64)            0         
_________________________________________________________________
dense_2 (Dense)              (None, 22, 32)            2080      
_________________________________________________________________
dropout_2 (Dropout)          (None, 22, 32)            0         
_________________________________________________________________
flatten_1 (Flatten)          (None, 704)               0         
_________________________________________________________________
dense_3 (Dense)              (None, 3)                 2115      
=================================================================
Total params: 50,255,339
Trainable params: 255,139
Non-trainable params: 50,000,200
_________________________________________________________________
Epoch 1/30

  32/5999 [..............................] - ETA: 1:00 - loss: 1.3236 - acc: 0.3438
 128/5999 [..............................] - ETA: 17s - loss: 1.2754 - acc: 0.4453 
…
