…
[[13, 1073, 16, 652, 13, 373, 1444, 17, 6014, 7535, 21, 3475, 78, 755, 1328, 952, 29, 4, 4632, 4574, 304, 74253], [149046, 91, 3683, 263, 77, 24, 1537, 263, 23, 14405, 91, 1142, 13405, 14, 4887, 149046, 538, 775, 170, 142630, 20, 2797], [31, 48, 104, 28, 6, 80, 1934, 2108, 69949, 5193, 429, 485, 1022, 231, 14, 61, 6, 3781, 84, 11, 0, 1], [8, 4, 489, 22, 37, 10, 52385, 9, 268, 829, 4286, 10, 11170, 14, 27, 460, 10, 0, 14, 3525, 419, 759], [8, 2365, 15, 63, 693, 19, 10, 1566, 18, 67432, 10, 453, 11, 44, 19, 85, 284, 6, 379, 29, 85, 13]]
Begin: Training
_________________________________________________________________
Layer (type)                 Output Shape              Param #   
=================================================================
input_1 (InputLayer)         (None, 22)                0         
_________________________________________________________________
embedding_1 (Embedding)      (None, 22, 100)           50000200  
_________________________________________________________________
bidirectional_1 (Bidirection (None, 22, 256)           234496    
_________________________________________________________________
dense_1 (Dense)              (None, 22, 64)            16448     
_________________________________________________________________
dropout_1 (Dropout)          (None, 22, 64)            0         
_________________________________________________________________
dense_2 (Dense)              (None, 22, 32)            2080      
_________________________________________________________________
dropout_2 (Dropout)          (None, 22, 32)            0         
_________________________________________________________________
flatten_1 (Flatten)          (None, 704)               0         
_________________________________________________________________
dense_3 (Dense)              (None, 2)                 1410      
=================================================================
Total params: 50,254,634
Trainable params: 254,434
Non-trainable params: 50,000,200
_________________________________________________________________
Epoch 1/30

  32/3957 [..............................] - ETA: 40s - loss: 0.8586 - acc: 0.6250
 128/3957 [..............................] - ETA: 11s - loss: 0.7875 - acc: 0.7812
…
