…
[[82, 7070, 82, 82, 82, 0, 7296, 0, 90, 7070, 0, 170, 66950, 90, 35, 4908, 7070, 0, 848, 7070, 0, 7070, 0], [30, 27, 1321, 10, 15792, 321, 9, 24, 63830, 1613, 4027, 421, 14, 9, 6, 160, 283, 4327, 388, 882, 18, 114, 14], [332, 172, 4, 7676, 33, 4, 586, 1420, 12, 10560, 6, 4, 926, 84, 332, 84, 1, 1, 1, 1, 1, 1, 1], [4618, 249, 927, 32, 4334, 17, 38, 4, 91377, 57, 1424, 4, 1746, 2183, 945, 38, 174, 226, 17, 4, 2369, 43, 14], [552, 1881, 36947, 26, 95546, 58375, 26, 24, 36, 145, 202, 203, 4, 586, 1, 1, 1, 1, 1, 1, 1, 1, 1]]
Begin: Training
_________________________________________________________________
Layer (type)                 Output Shape              Param #   
=================================================================
input_1 (InputLayer)         (None, 23)                0         
_________________________________________________________________
embedding_1 (Embedding)      (None, 23, 100)           50000200  
_________________________________________________________________
bidirectional_1 (Bidirection (None, 23, 256)           234496    
_________________________________________________________________
dense_1 (Dense)              (None, 23, 64)            16448     
_________________________________________________________________
dropout_1 (Dropout)          (None, 23, 64)            0         
_________________________________________________________________
dense_2 (Dense)              (None, 23, 32)            2080      
_________________________________________________________________
dropout_2 (Dropout)          (None, 23, 32)            0         
_________________________________________________________________
flatten_1 (Flatten)          (None, 736)               0         
_________________________________________________________________
dense_3 (Dense)              (None, 2)                 1474      
=================================================================
Total params: 50,254,698
Trainable params: 254,498
Non-trainable params: 50,000,200
_________________________________________________________________
Epoch 1/30

  32/5872 [..............................] - ETA: 1:00 - loss: 0.8822 - acc: 0.5625
 128/5872 [..............................] - ETA: 17s - loss: 0.8755 - acc: 0.5625 
…
