…
[[38, 13, 204, 17, 16, 96, 231, 22, 6, 80, 79, 10319, 156, 226, 14, 385, 1328, 4, 149, 356, 13, 204, 14], [13, 540, 32, 161, 208, 1157, 15, 13, 142, 4777, 1782, 254, 302, 16, 26339, 17, 2222, 13, 868, 204, 6, 4152, 6], [5808, 91, 0, 91, 3187, 0, 860, 53, 900, 2868, 244, 140, 489, 22, 4286, 59, 2382, 10798, 1500, 65, 21, 22, 4], [8, 8, 13, 781, 6, 13496, 8916, 11107, 17, 2547, 4384, 20, 4, 956, 12, 4, 242, 613, 4, 926, 694, 23, 224], [6605, 239, 91, 82, 54, 7, 2127, 21, 482, 1513, 1971, 28, 20, 19754, 157, 313, 14, 268, 514, 515, 452, 14, 82]]
Begin: Training
_________________________________________________________________
Layer (type)                 Output Shape              Param #   
=================================================================
input_1 (InputLayer)         (None, 23)                0         
_________________________________________________________________
embedding_1 (Embedding)      (None, 23, 100)           50000200  
_________________________________________________________________
bidirectional_1 (Bidirection (None, 23, 256)           234496    
_________________________________________________________________
dense_1 (Dense)              (None, 23, 64)            16448     
_________________________________________________________________
dropout_1 (Dropout)          (None, 23, 64)            0         
_________________________________________________________________
dense_2 (Dense)              (None, 23, 32)            2080      
_________________________________________________________________
dropout_2 (Dropout)          (None, 23, 32)            0         
_________________________________________________________________
flatten_1 (Flatten)          (None, 736)               0         
_________________________________________________________________
dense_3 (Dense)              (None, 2)                 1474      
=================================================================
Total params: 50,254,698
Trainable params: 254,498
Non-trainable params: 50,000,200
_________________________________________________________________
Epoch 1/30

  32/5872 [..............................] - ETA: 59s - loss: 0.9521 - acc: 0.4688
 128/5872 [..............................] - ETA: 17s - loss: 0.8905 - acc: 0.5156
…
