…
[[13, 1073, 16, 652, 63, 166, 6, 79, 29198, 23, 733, 15, 9, 170, 1249, 29, 7, 9539, 1767, 170, 159, 80], [2479, 1212, 15, 15879, 11827, 11523, 64, 7, 6491, 23, 4, 6491, 485, 10, 5490, 2982, 18, 4, 1668, 2639, 0, 1], [755, 58216, 11, 84, 40, 2142, 586, 357, 6, 410, 9325, 9, 438, 46, 4, 17208, 1, 1, 1, 1, 1, 1], [2560, 0, 22, 192, 113193, 33, 75, 6, 493, 13055, 309, 3924, 23, 251, 1, 1, 1, 1, 1, 1, 1, 1], [8, 894, 842, 50, 54, 3446, 545, 14, 19, 159, 80, 38, 10, 23, 4, 586, 1303, 14, 16517, 175, 40, 7979]]
Begin: Training
_________________________________________________________________
Layer (type)                 Output Shape              Param #   
=================================================================
input_1 (InputLayer)         (None, 22)                0         
_________________________________________________________________
embedding_1 (Embedding)      (None, 22, 100)           50000200  
_________________________________________________________________
bidirectional_1 (Bidirection (None, 22, 256)           234496    
_________________________________________________________________
dense_1 (Dense)              (None, 22, 64)            16448     
_________________________________________________________________
dropout_1 (Dropout)          (None, 22, 64)            0         
_________________________________________________________________
dense_2 (Dense)              (None, 22, 32)            2080      
_________________________________________________________________
dropout_2 (Dropout)          (None, 22, 32)            0         
_________________________________________________________________
flatten_1 (Flatten)          (None, 704)               0         
_________________________________________________________________
dense_3 (Dense)              (None, 3)                 2115      
=================================================================
Total params: 50,255,339
Trainable params: 255,139
Non-trainable params: 50,000,200
_________________________________________________________________
Epoch 1/30

  32/5999 [..............................] - ETA: 1:00 - loss: 1.2886 - acc: 0.4375
 128/5999 [..............................] - ETA: 17s - loss: 1.2698 - acc: 0.4141 
…
