…
[[353, 373, 32, 4, 697, 2350, 380, 7070, 0, 176, 152, 12685, 7070, 0, 28, 1, 1, 1, 1, 1, 1, 1, 1], [26781, 55361, 5124, 22525, 1378, 3833, 3692, 10, 4, 409, 8451, 1135, 14, 0, 112, 14990, 3043, 35, 1062, 84, 20283, 868, 141960], [266, 59, 66370, 65, 53, 26781, 3683, 538, 23, 626, 170, 289, 73, 2208, 11027, 5463, 15644, 3382, 171, 26, 0, 1, 1], [8, 437, 44, 67, 158, 931, 15, 63, 8809, 14, 63, 161, 24, 231, 15, 4375, 2895, 22, 7, 98, 356, 14, 1], [269, 54, 1511, 3201, 9, 257, 31, 1476, 12104, 88167, 263, 38, 13, 204, 17, 123, 263, 26, 1458, 84, 1, 1, 1]]
Begin: Training
_________________________________________________________________
Layer (type)                 Output Shape              Param #   
=================================================================
input_1 (InputLayer)         (None, 23)                0         
_________________________________________________________________
embedding_1 (Embedding)      (None, 23, 100)           50000200  
_________________________________________________________________
bidirectional_1 (Bidirection (None, 23, 256)           234496    
_________________________________________________________________
dense_1 (Dense)              (None, 23, 64)            16448     
_________________________________________________________________
dropout_1 (Dropout)          (None, 23, 64)            0         
_________________________________________________________________
dense_2 (Dense)              (None, 23, 32)            2080      
_________________________________________________________________
dropout_2 (Dropout)          (None, 23, 32)            0         
_________________________________________________________________
flatten_1 (Flatten)          (None, 736)               0         
_________________________________________________________________
dense_3 (Dense)              (None, 2)                 1474      
=================================================================
Total params: 50,254,698
Trainable params: 254,498
Non-trainable params: 50,000,200
_________________________________________________________________
End: Training
Begin: Loading embeddings
End: Loading embeddings
[[8, 91473, 4430, 112, 7493, 0, 259, 31562, 27449, 4430, 7937, 32006, 114038, 259, 0, 9587, 4885, 225647, 1, 1, 1
…
