…
[[63, 166, 6, 12245, 432, 27750, 231, 51, 14, 729, 587, 6, 352, 29, 84, 8, 8, 8, 8, 1, 1, 1, 1], [611, 86, 259, 70844, 21, 251, 22, 11827, 3557, 51, 73, 6, 4, 7284, 0, 9, 16, 4697, 108, 108, 32, 26, 0], [5758, 202028, 538, 12318, 22, 4, 760, 76, 11575, 9216, 33, 21, 11575, 423, 48515, 9382, 19277, 22, 69, 8341, 8, 8, 1], [30, 284, 17, 4, 5635, 6633, 231, 15, 13, 217, 7, 1217, 1065, 2769, 16817, 1538, 10, 16, 107, 14, 9, 1386, 0], [8, 6544, 59, 2051, 65, 22, 430, 6381, 59, 131, 166, 6, 3580, 65, 11827, 59, 714, 65, 17, 268, 56561, 12675, 1115]]
Begin: Training
_________________________________________________________________
Layer (type)                 Output Shape              Param #   
=================================================================
input_1 (InputLayer)         (None, 23)                0         
_________________________________________________________________
embedding_1 (Embedding)      (None, 23, 100)           50000200  
_________________________________________________________________
bidirectional_1 (Bidirection (None, 23, 256)           234496    
_________________________________________________________________
dense_1 (Dense)              (None, 23, 64)            16448     
_________________________________________________________________
dropout_1 (Dropout)          (None, 23, 64)            0         
_________________________________________________________________
dense_2 (Dense)              (None, 23, 32)            2080      
_________________________________________________________________
dropout_2 (Dropout)          (None, 23, 32)            0         
_________________________________________________________________
flatten_1 (Flatten)          (None, 736)               0         
_________________________________________________________________
dense_3 (Dense)              (None, 2)                 1474      
=================================================================
Total params: 50,254,698
Trainable params: 254,498
Non-trainable params: 50,000,200
_________________________________________________________________
End: Training
Begin: Loading embeddings
End: Loading embeddings
[[0, 263, 0, 263, 15, 24078, 14, 0, 1734, 0, 6255, 263, 221395, 263, 1695, 183757, 1218, 90587, 263, 0, 263, 7, 1
…
