…
[[262, 125, 4633, 22, 65920, 57, 2859, 3049, 108, 32, 2514, 18, 4, 4866, 32304, 144, 10, 504, 21, 213, 14, 1, 1], [225, 5596, 12, 4, 5627, 707, 8, 22, 280, 75, 298, 13, 31, 1666, 18, 114, 448, 158, 606, 14, 1, 1, 1], [231, 22, 917, 1423, 51, 18, 4, 22401, 139, 11, 120, 219, 8, 996, 8, 152, 4, 139, 0, 1, 1, 1, 1], [10671, 16, 586, 2769, 189, 9, 63, 30, 9194, 26, 729, 125, 229, 13, 93, 60, 24, 6649, 4968, 6291, 929, 1, 1], [31, 2587, 4, 24302, 33498, 1315, 14, 396475, 15310, 1395, 17, 4, 586, 43, 9, 40, 36, 48, 12, 4, 65762, 314334, 1]]
Begin: Training
_________________________________________________________________
Layer (type)                 Output Shape              Param #   
=================================================================
input_1 (InputLayer)         (None, 23)                0         
_________________________________________________________________
embedding_1 (Embedding)      (None, 23, 100)           50000200  
_________________________________________________________________
bidirectional_1 (Bidirection (None, 23, 256)           234496    
_________________________________________________________________
dense_1 (Dense)              (None, 23, 64)            16448     
_________________________________________________________________
dropout_1 (Dropout)          (None, 23, 64)            0         
_________________________________________________________________
dense_2 (Dense)              (None, 23, 32)            2080      
_________________________________________________________________
dropout_2 (Dropout)          (None, 23, 32)            0         
_________________________________________________________________
flatten_1 (Flatten)          (None, 736)               0         
_________________________________________________________________
dense_3 (Dense)              (None, 2)                 1474      
=================================================================
Total params: 50,254,698
Trainable params: 254,498
Non-trainable params: 50,000,200
_________________________________________________________________
End: Training
Begin: Loading embeddings
End: Loading embeddings
[[0, 263, 0, 263, 15, 24078, 14, 0, 1734, 0, 6255, 263, 221395, 263, 1695, 183757, 1218, 90587, 263, 0, 263, 7, 1
…
