…
[[5769, 91, 106, 257, 189, 29385, 41, 611, 15, 1646, 7, 2903, 3767, 86, 11, 4375, 373, 1586, 24, 179, 14, 0, 0], [43761, 3277, 2663, 134, 31, 1086, 6, 4, 776, 21656, 67, 7022, 16360, 53, 228, 13287, 4, 2839, 6567, 91, 0, 1, 1], [322, 54, 16, 96, 23, 452, 93, 546, 1038, 29, 67, 12, 40, 10319, 58, 16700, 1739, 144, 5865, 241, 15, 149, 476], [13, 120, 4046, 20, 9473, 78984, 37, 13344, 17, 4, 1146, 0, 78179, 22, 33835, 9, 21, 25, 156, 1136, 22, 7, 34202], [209, 39498, 2521, 12, 2382, 43624, 263, 317, 19, 32, 687, 263, 6, 8542, 5026, 626, 105, 11, 4299, 0, 1, 1, 1]]
Begin: Training
_________________________________________________________________
Layer (type)                 Output Shape              Param #   
=================================================================
input_1 (InputLayer)         (None, 23)                0         
_________________________________________________________________
embedding_1 (Embedding)      (None, 23, 100)           50000200  
_________________________________________________________________
bidirectional_1 (Bidirection (None, 23, 256)           234496    
_________________________________________________________________
dense_1 (Dense)              (None, 23, 64)            16448     
_________________________________________________________________
dropout_1 (Dropout)          (None, 23, 64)            0         
_________________________________________________________________
dense_2 (Dense)              (None, 23, 32)            2080      
_________________________________________________________________
dropout_2 (Dropout)          (None, 23, 32)            0         
_________________________________________________________________
flatten_1 (Flatten)          (None, 736)               0         
_________________________________________________________________
dense_3 (Dense)              (None, 2)                 1474      
=================================================================
Total params: 50,254,698
Trainable params: 254,498
Non-trainable params: 50,000,200
_________________________________________________________________
End: Training
Begin: Loading embeddings
End: Loading embeddings
[[0, 263, 0, 263, 15, 24078, 14, 0, 1734, 0, 6255, 263, 221395, 263, 1695, 183757, 1218, 90587, 263, 0, 263, 7, 1
…
