…
[[265360, 4735, 14577, 6, 1968, 7, 3739, 12, 1209, 4656, 10, 1445, 14, 170, 86, 373, 23442, 4, 6576, 14, 0, 0, 1], [30, 284, 17, 4, 5635, 6633, 231, 15, 13, 217, 7, 1217, 1065, 2769, 16817, 1538, 10, 16, 107, 14, 9, 1386, 0], [8, 24, 22, 26020, 40, 4, 569, 1172, 9, 4, 7600, 139, 108, 32, 7095, 21, 2275, 452, 121, 1050, 11, 11, 11], [82, 152, 4301, 129, 62, 148, 15, 42, 4, 12344, 22, 505, 6, 443, 129, 10074, 1989, 10, 1072, 35, 69382, 129, 16345], [75, 7070, 0, 4860, 36, 4, 1188, 22106, 9, 34139, 36, 4, 497, 1679, 14, 24, 373, 68, 3292, 176, 26, 0, 0]]
Begin: Training
_________________________________________________________________
Layer (type)                 Output Shape              Param #   
=================================================================
input_1 (InputLayer)         (None, 23)                0         
_________________________________________________________________
embedding_1 (Embedding)      (None, 23, 100)           50000200  
_________________________________________________________________
bidirectional_1 (Bidirection (None, 23, 256)           234496    
_________________________________________________________________
dense_1 (Dense)              (None, 23, 64)            16448     
_________________________________________________________________
dropout_1 (Dropout)          (None, 23, 64)            0         
_________________________________________________________________
dense_2 (Dense)              (None, 23, 32)            2080      
_________________________________________________________________
dropout_2 (Dropout)          (None, 23, 32)            0         
_________________________________________________________________
flatten_1 (Flatten)          (None, 736)               0         
_________________________________________________________________
dense_3 (Dense)              (None, 2)                 1474      
=================================================================
Total params: 50,254,698
Trainable params: 254,498
Non-trainable params: 50,000,200
_________________________________________________________________
End: Training
Begin: Loading embeddings
End: Loading embeddings
[[8, 91473, 4430, 112, 7493, 0, 259, 31562, 27449, 4430, 7937, 32006, 114038, 259, 0, 9587, 4885, 225647, 1, 1, 1
…
