…
[[8, 297, 6, 379, 19, 23, 2402, 11, 1032, 4375, 1234, 6737, 19, 373, 217, 15, 270, 72, 503, 11, 1, 1, 1], [3264, 168, 36, 40, 48, 43, 170, 679, 1146, 9, 0, 679, 586, 14, 426, 7070, 0, 44974, 0, 14, 6872, 14, 1], [448, 213, 152, 185, 23, 43187, 3500, 26, 264, 371, 912, 1265, 22, 0, 37, 14, 27, 38, 125, 61, 24, 210, 959], [8, 221, 4, 242, 3173, 1632, 84, 221, 136, 993, 83, 15, 13055, 15, 15575, 9, 5064, 2859, 84, 115, 95, 40, 17], [848, 172, 23, 4, 534, 18572, 33, 9544, 775, 14, 33, 7, 298, 73, 53, 53, 149, 47, 4, 2769, 110, 738, 91]]
Begin: Training
_________________________________________________________________
Layer (type)                 Output Shape              Param #   
=================================================================
input_1 (InputLayer)         (None, 23)                0         
_________________________________________________________________
embedding_1 (Embedding)      (None, 23, 100)           50000200  
_________________________________________________________________
bidirectional_1 (Bidirection (None, 23, 256)           234496    
_________________________________________________________________
dense_1 (Dense)              (None, 23, 64)            16448     
_________________________________________________________________
dropout_1 (Dropout)          (None, 23, 64)            0         
_________________________________________________________________
dense_2 (Dense)              (None, 23, 32)            2080      
_________________________________________________________________
dropout_2 (Dropout)          (None, 23, 32)            0         
_________________________________________________________________
flatten_1 (Flatten)          (None, 736)               0         
_________________________________________________________________
dense_3 (Dense)              (None, 2)                 1474      
=================================================================
Total params: 50,254,698
Trainable params: 254,498
Non-trainable params: 50,000,200
_________________________________________________________________
End: Training
Begin: Loading embeddings
End: Loading embeddings
[[8, 91473, 4430, 112, 7493, 0, 259, 31562, 27449, 4430, 7937, 32006, 114038, 259, 0, 9587, 4885, 225647, 1, 1, 1
…
