…
[[42, 22, 82, 33106, 775, 11, 82, 24, 524, 1523, 6, 32, 4375, 2895, 28, 26, 60, 6, 24, 91, 0, 1, 1], [448, 4, 12594, 38737, 5614, 298, 346, 1044, 1078, 9, 405553, 7749, 560, 1860, 14, 56, 224, 12, 1044, 124, 14, 1, 1], [6987, 191, 12, 1870, 39500, 7, 1169, 4389, 7, 74, 17, 89649, 23, 224, 91, 136, 715, 18, 114, 23, 4, 685, 28], [1870, 3134, 1613, 102, 7430, 12042, 15588, 23, 213, 85, 170, 4334, 6, 1432, 7, 2195, 2093, 1850, 17, 26, 0, 1, 1], [13, 47, 7, 225, 981, 19270, 17, 1345, 35681, 14, 13, 210, 87, 14, 332, 4536, 7070, 0, 170, 10, 8268, 11, 93]]
Begin: Training
_________________________________________________________________
Layer (type)                 Output Shape              Param #   
=================================================================
input_1 (InputLayer)         (None, 23)                0         
_________________________________________________________________
embedding_1 (Embedding)      (None, 23, 100)           50000200  
_________________________________________________________________
bidirectional_1 (Bidirection (None, 23, 256)           234496    
_________________________________________________________________
dense_1 (Dense)              (None, 23, 64)            16448     
_________________________________________________________________
dropout_1 (Dropout)          (None, 23, 64)            0         
_________________________________________________________________
dense_2 (Dense)              (None, 23, 32)            2080      
_________________________________________________________________
dropout_2 (Dropout)          (None, 23, 32)            0         
_________________________________________________________________
flatten_1 (Flatten)          (None, 736)               0         
_________________________________________________________________
dense_3 (Dense)              (None, 2)                 1474      
=================================================================
Total params: 50,254,698
Trainable params: 254,498
Non-trainable params: 50,000,200
_________________________________________________________________
End: Training
[[82, 1345, 16623, 134, 178, 116, 0, 14, 57, 13, 586, 682, 422, 10, 3672, 6083, 15, 170, 32993, 33542, 37, 3335, 17335], [716, 19406, 108, 1487, 16, 150, 22950, 18
…
