…
[[8, 35861, 373, 6301, 24, 14, 50, 149, 106, 24, 1523, 864, 7, 12344, 1688, 152, 4860, 9, 11170, 44, 1094, 14, 1], [873, 4118, 642, 191, 436, 1218, 4, 51, 1821, 23359, 3436, 675, 29, 23, 4, 32152, 23, 7, 3232, 1455, 14, 0, 1], [8, 30480, 13, 217, 6, 60, 73, 10, 6, 27750, 11, 221, 288, 181, 360, 31, 826, 12, 1613, 14, 90001, 15, 638], [8, 22, 231, 4, 23585, 17, 11569, 10, 1509, 83, 84, 223, 74592, 22, 346, 7, 23585, 231, 63, 1005, 242826, 30, 6213], [89, 37, 6, 4, 8976, 1723, 144, 231, 14, 5088, 32, 7, 1557, 28, 30, 21, 22, 4, 324, 398, 17, 19, 14]]
Begin: Training
_________________________________________________________________
Layer (type)                 Output Shape              Param #   
=================================================================
input_1 (InputLayer)         (None, 23)                0         
_________________________________________________________________
embedding_1 (Embedding)      (None, 23, 100)           50000200  
_________________________________________________________________
bidirectional_1 (Bidirection (None, 23, 256)           234496    
_________________________________________________________________
dense_1 (Dense)              (None, 23, 64)            16448     
_________________________________________________________________
dropout_1 (Dropout)          (None, 23, 64)            0         
_________________________________________________________________
dense_2 (Dense)              (None, 23, 32)            2080      
_________________________________________________________________
dropout_2 (Dropout)          (None, 23, 32)            0         
_________________________________________________________________
flatten_1 (Flatten)          (None, 736)               0         
_________________________________________________________________
dense_3 (Dense)              (None, 2)                 1474      
=================================================================
Total params: 50,254,698
Trainable params: 254,498
Non-trainable params: 50,000,200
_________________________________________________________________
End: Training
[[7070, 82, 8, 91, 192451, 428, 0, 11320, 0, 0, 0, 7070, 82, 0, 26, 0, 1, 1, 1, 1, 1, 1, 1], [0, 1218, 8, 8, 0, 1, 1, 1, 1, 1, 1, 1, 1, 1, 1, 1, 1, 1, 1, 1, 1, 1, 
…
