…
[[216, 22, 3561, 21, 775, 14, 6, 32, 10, 4, 3556, 17, 4, 929, 432, 15, 662, 41, 8853, 17, 4, 26, 0], [82, 7070, 82, 82, 82, 1746, 5290, 22, 1530, 48, 5275, 9, 166, 6, 3004, 7, 390639, 860, 20, 3819, 23, 4, 5476], [263, 2804, 1616, 10986, 175, 35, 4, 1916, 12, 4, 176842, 23, 4, 1406, 12, 4, 2769, 2903, 57, 1297, 919, 8461, 263], [8, 8, 8, 8, 2649, 275, 6, 79, 19, 46, 72, 14, 13, 108, 32, 18, 4, 1061, 23, 489, 1, 1, 1], [2382, 10798, 36, 2793, 23, 4, 1500, 12, 0, 4, 3971, 3194, 62, 213, 11, 14, 0, 1, 1, 1, 1, 1, 1]]
Begin: Training
_________________________________________________________________
Layer (type)                 Output Shape              Param #   
=================================================================
input_1 (InputLayer)         (None, 23)                0         
_________________________________________________________________
embedding_1 (Embedding)      (None, 23, 100)           50000200  
_________________________________________________________________
bidirectional_1 (Bidirection (None, 23, 256)           234496    
_________________________________________________________________
dense_1 (Dense)              (None, 23, 64)            16448     
_________________________________________________________________
dropout_1 (Dropout)          (None, 23, 64)            0         
_________________________________________________________________
dense_2 (Dense)              (None, 23, 32)            2080      
_________________________________________________________________
dropout_2 (Dropout)          (None, 23, 32)            0         
_________________________________________________________________
flatten_1 (Flatten)          (None, 736)               0         
_________________________________________________________________
dense_3 (Dense)              (None, 2)                 1474      
=================================================================
Total params: 50,254,698
Trainable params: 254,498
Non-trainable params: 50,000,200
_________________________________________________________________
End: Training
Begin: Loading embeddings
End: Loading embeddings
[[0, 263, 0, 263, 15, 24078, 14, 0, 1734, 0, 6255, 263, 221395, 263, 1695, 183757, 1218, 90587, 263, 0, 263, 7, 1
…
