…
[[1874, 798, 36, 18, 16, 141, 17, 36380, 498, 231, 14, 3391, 12, 4, 28, 33, 48, 91, 82, 106, 19, 79, 4], [18923, 16053, 373, 47, 7, 158, 3402, 15, 50, 170, 14825, 11307, 46, 61, 170, 959, 57, 170, 7950, 15, 618, 2845, 40], [459, 8, 115, 95, 1511, 2695, 4905, 3394, 12, 552, 1881, 36947, 84, 84, 11627, 4032, 204, 6, 79, 67, 1495, 9, 1956], [61, 7, 55, 28, 17, 156, 2948, 91, 64666, 77, 165, 2574, 1065, 15, 55946, 19272, 2008, 3560, 112, 543, 9, 13, 3275], [270, 284, 6, 1167, 95, 15466, 54522, 33, 8, 231, 11, 352, 90, 0, 9236, 5857, 0, 1, 1, 1, 1, 1, 1]]
Begin: Training
_________________________________________________________________
Layer (type)                 Output Shape              Param #   
=================================================================
input_1 (InputLayer)         (None, 23)                0         
_________________________________________________________________
embedding_1 (Embedding)      (None, 23, 100)           50000200  
_________________________________________________________________
bidirectional_1 (Bidirection (None, 23, 256)           234496    
_________________________________________________________________
dense_1 (Dense)              (None, 23, 64)            16448     
_________________________________________________________________
dropout_1 (Dropout)          (None, 23, 64)            0         
_________________________________________________________________
dense_2 (Dense)              (None, 23, 32)            2080      
_________________________________________________________________
dropout_2 (Dropout)          (None, 23, 32)            0         
_________________________________________________________________
flatten_1 (Flatten)          (None, 736)               0         
_________________________________________________________________
dense_3 (Dense)              (None, 2)                 1474      
=================================================================
Total params: 50,254,698
Trainable params: 254,498
Non-trainable params: 50,000,200
_________________________________________________________________
End: Training
[[8, 91473, 4430, 112, 7493, 0, 259, 31562, 27449, 4430, 7937, 32006, 114038, 259, 0, 9587, 4885, 225647, 1, 1, 1, 1, 1], [8, 499, 4682, 31402, 778, 20090, 1734, 1
…
