…
[[8, 111, 11170, 11, 593, 7, 1771, 231, 10, 4, 25, 9773, 4299, 1, 1, 1, 1, 1, 1, 1, 1, 1, 1], [1216, 13876, 22, 1233, 2348, 10, 23, 4, 926, 1675, 12, 76, 135822, 59, 437, 7484, 152, 29198, 9, 51653, 65, 26, 1], [4321, 3788, 91, 27750, 305, 84930, 520, 14, 166, 208, 4, 2432, 12, 4, 1904, 14, 0, 1, 1, 1, 1, 1, 1], [2052, 38, 19, 195379, 11, 534, 174, 6, 4, 314, 917, 1423, 3557, 649, 42, 15, 873, 3260, 15, 33, 26, 0, 1], [8, 8, 8, 22, 479, 1746, 2183, 689, 10, 1128, 106, 19, 322, 44, 3082, 503, 1, 1, 1, 1, 1, 1, 1]]
Begin: Training
_________________________________________________________________
Layer (type)                 Output Shape              Param #   
=================================================================
input_1 (InputLayer)         (None, 23)                0         
_________________________________________________________________
embedding_1 (Embedding)      (None, 23, 100)           50000200  
_________________________________________________________________
bidirectional_1 (Bidirection (None, 23, 256)           234496    
_________________________________________________________________
dense_1 (Dense)              (None, 23, 64)            16448     
_________________________________________________________________
dropout_1 (Dropout)          (None, 23, 64)            0         
_________________________________________________________________
dense_2 (Dense)              (None, 23, 32)            2080      
_________________________________________________________________
dropout_2 (Dropout)          (None, 23, 32)            0         
_________________________________________________________________
flatten_1 (Flatten)          (None, 736)               0         
_________________________________________________________________
dense_3 (Dense)              (None, 2)                 1474      
=================================================================
Total params: 50,254,698
Trainable params: 254,498
Non-trainable params: 50,000,200
_________________________________________________________________
End: Training
Begin: Loading embeddings
End: Loading embeddings
[[8, 91473, 4430, 112, 7493, 0, 259, 31562, 27449, 4430, 7937, 32006, 114038, 259, 0, 9587, 4885, 225647, 1, 1, 1
…
