…
[[82, 7070, 82, 82, 82, 8, 91, 30, 19, 204, 157, 64, 5136, 41951, 78, 6006, 84205, 6, 47, 4349, 14, 565, 7070], [829, 166, 6, 5014, 231, 1, 1, 1, 1, 1, 1, 1, 1, 1, 1, 1, 1, 1, 1, 1, 1, 1, 1], [8, 2925, 13, 31, 781, 6, 160, 12689, 421, 16, 1165, 22, 1418, 10336, 223, 928, 9, 63, 1297, 64, 7, 1146, 4580], [8, 8, 5160, 19, 12, 411961, 3937, 0, 16827, 84, 60, 128, 41, 147, 2002, 26, 1, 1, 1, 1, 1, 1, 1], [2307, 6, 38384, 91, 1821, 6483, 373, 32, 41, 211, 15, 50, 170, 22, 68, 176, 15, 9, 755, 5744, 68, 100584, 14]]
Begin: Training
_________________________________________________________________
Layer (type)                 Output Shape              Param #   
=================================================================
input_1 (InputLayer)         (None, 23)                0         
_________________________________________________________________
embedding_1 (Embedding)      (None, 23, 100)           50000200  
_________________________________________________________________
bidirectional_1 (Bidirection (None, 23, 256)           234496    
_________________________________________________________________
dense_1 (Dense)              (None, 23, 64)            16448     
_________________________________________________________________
dropout_1 (Dropout)          (None, 23, 64)            0         
_________________________________________________________________
dense_2 (Dense)              (None, 23, 32)            2080      
_________________________________________________________________
dropout_2 (Dropout)          (None, 23, 32)            0         
_________________________________________________________________
flatten_1 (Flatten)          (None, 736)               0         
_________________________________________________________________
dense_3 (Dense)              (None, 2)                 1474      
=================================================================
Total params: 50,254,698
Trainable params: 254,498
Non-trainable params: 50,000,200
_________________________________________________________________
End: Training
[[0, 263, 0, 263, 15, 24078, 14, 0, 1734, 0, 6255, 263, 221395, 263, 1695, 183757, 1218, 90587, 263, 0, 263, 7, 14724], [141854, 0, 207694, 259, 0, 778, 11320, 115
…
