…
[[401, 959, 7070, 0, 19, 7070, 0, 6, 403, 9290, 203, 57, 2996, 2032, 60, 116830, 231, 14, 13, 7070, 0, 474, 1], [4, 5997, 12, 1776, 12480, 23, 4, 438, 12, 10319, 156, 547, 29, 45, 15, 228, 106, 13, 654, 24, 145, 73, 10], [64, 2376, 464, 537, 4, 489, 106, 136, 239, 9743, 22, 891, 1821, 23359, 9, 136, 193, 7, 913, 107, 84, 1, 1], [379, 4, 187, 3635, 118, 517, 263, 139, 12, 9034, 263, 23, 4, 5972, 2108, 10, 0, 3701, 231, 1, 1, 1, 1], [112, 145, 6, 15142, 4, 3544, 9, 118699, 9, 2880, 9, 357, 52878, 12, 451, 40, 0, 756, 17521, 1, 1, 1, 1]]
Begin: Training
_________________________________________________________________
Layer (type)                 Output Shape              Param #   
=================================================================
input_1 (InputLayer)         (None, 23)                0         
_________________________________________________________________
embedding_1 (Embedding)      (None, 23, 100)           50000200  
_________________________________________________________________
bidirectional_1 (Bidirection (None, 23, 256)           234496    
_________________________________________________________________
dense_1 (Dense)              (None, 23, 64)            16448     
_________________________________________________________________
dropout_1 (Dropout)          (None, 23, 64)            0         
_________________________________________________________________
dense_2 (Dense)              (None, 23, 32)            2080      
_________________________________________________________________
dropout_2 (Dropout)          (None, 23, 32)            0         
_________________________________________________________________
flatten_1 (Flatten)          (None, 736)               0         
_________________________________________________________________
dense_3 (Dense)              (None, 2)                 1474      
=================================================================
Total params: 50,254,698
Trainable params: 254,498
Non-trainable params: 50,000,200
_________________________________________________________________
End: Training
Begin: Loading embeddings
End: Loading embeddings
[[7070, 82, 8, 91, 192451, 428, 0, 11320, 0, 0, 0, 7070, 82, 0, 26, 0, 1, 1, 1, 1, 1, 1, 1], [0, 102369, 0, 0, 57
…
