…
[[332, 172, 4, 7676, 33, 4, 586, 1420, 12, 10560, 6, 4, 926, 84, 332, 84, 1, 1, 1, 1, 1, 1, 1], [7183, 139, 23, 2998, 1305, 613, 4, 28, 11, 729, 753, 80, 84, 12434, 206, 1529, 2033, 0, 1, 1, 1, 1, 1], [3019, 46, 18, 4, 3027, 5464, 12, 4534, 6, 1347, 41, 1840, 17, 132, 2673, 96, 9, 280, 7, 195, 18, 5014, 22], [19943, 1299, 38, 95, 0, 11842, 398, 23, 4, 2574, 14, 0, 0, 1, 1, 1, 1, 1, 1, 1, 1, 1, 1], [82, 8, 19, 322, 2019, 40, 62376, 22, 21, 224, 15, 176, 84, 84, 332, 674, 4, 1802, 47, 149, 295, 7406, 176]]
Begin: Training
_________________________________________________________________
Layer (type)                 Output Shape              Param #   
=================================================================
input_1 (InputLayer)         (None, 23)                0         
_________________________________________________________________
embedding_1 (Embedding)      (None, 23, 100)           50000200  
_________________________________________________________________
bidirectional_1 (Bidirection (None, 23, 256)           234496    
_________________________________________________________________
dense_1 (Dense)              (None, 23, 64)            16448     
_________________________________________________________________
dropout_1 (Dropout)          (None, 23, 64)            0         
_________________________________________________________________
dense_2 (Dense)              (None, 23, 32)            2080      
_________________________________________________________________
dropout_2 (Dropout)          (None, 23, 32)            0         
_________________________________________________________________
flatten_1 (Flatten)          (None, 736)               0         
_________________________________________________________________
dense_3 (Dense)              (None, 2)                 1474      
=================================================================
Total params: 50,254,698
Trainable params: 254,498
Non-trainable params: 50,000,200
_________________________________________________________________
End: Training
Begin: Loading embeddings
End: Loading embeddings
[[50304, 134, 1321, 503, 1, 1, 1, 1, 1, 1, 1, 1, 1, 1, 1, 1, 1, 1, 1, 1, 1, 1, 1], [8, 23464, 37048, 331385, 7, 3
…
