…
[[82, 99748, 373, 377, 7, 4324, 10, 409, 671, 5386, 15, 50, 136, 47, 2383, 4719, 10, 4, 1623, 12, 2100, 14], [729, 874, 179, 17, 5014, 20, 10385, 9, 13, 231, 84, 1, 1, 1, 1, 1, 1, 1, 1, 1, 1, 1], [10, 39500, 7, 231, 15, 15894, 588, 89649, 22, 4, 1257, 37, 139, 14, 629, 34, 22731, 3725, 11, 53, 0, 0], [4, 8553, 44, 280, 7, 2334, 144, 6, 4, 917, 1423, 23, 213, 14, 1, 1, 1, 1, 1, 1, 1, 1], [13, 289, 829, 32, 1559, 20, 3991, 282, 480, 20351, 18, 1104, 198, 311, 231, 51, 14, 0, 1, 1, 1, 1]]
Begin: Training
_________________________________________________________________
Layer (type)                 Output Shape              Param #   
=================================================================
input_1 (InputLayer)         (None, 22)                0         
_________________________________________________________________
embedding_1 (Embedding)      (None, 22, 100)           50000200  
_________________________________________________________________
bidirectional_1 (Bidirection (None, 22, 256)           234496    
_________________________________________________________________
dense_1 (Dense)              (None, 22, 64)            16448     
_________________________________________________________________
dropout_1 (Dropout)          (None, 22, 64)            0         
_________________________________________________________________
dense_2 (Dense)              (None, 22, 32)            2080      
_________________________________________________________________
dropout_2 (Dropout)          (None, 22, 32)            0         
_________________________________________________________________
flatten_1 (Flatten)          (None, 704)               0         
_________________________________________________________________
dense_3 (Dense)              (None, 3)                 2115      
=================================================================
Total params: 50,255,339
Trainable params: 255,139
Non-trainable params: 50,000,200
_________________________________________________________________
End: Training
[[50304, 134, 1321, 503, 1, 1, 1, 1, 1, 1, 1, 1, 1, 1, 1, 1, 1, 1, 1, 1, 1, 1], [8, 23464, 37048, 331385, 7, 312, 6415, 22424, 197, 49781, 15, 107267, 4430, 112, 7
…
