…
[[19294, 53, 16048, 489, 10, 41, 586, 141, 249, 95, 411961, 55, 144, 12, 3778, 1, 1, 1, 1, 1, 1, 1], [128, 6, 4, 1964, 57, 210, 13, 31, 204, 6, 160, 1415, 15, 2913, 5238, 78, 87, 7958, 38, 28, 6, 4], [12104, 13848, 22, 891, 4, 926, 38230, 1856, 12, 38, 43, 1, 1, 1, 1, 1, 1, 1, 1, 1, 1, 1], [79, 19, 18, 38138, 2651, 23, 626, 1511, 4118, 33, 1880, 6, 6318, 0, 1, 1, 1, 1, 1, 1, 1, 1], [8, 663, 5401, 15, 0, 30163, 19, 229, 23, 21341, 1491, 21169, 23, 7, 3069, 51, 15, 13, 39, 4, 144, 9]]
Begin: Training
_________________________________________________________________
Layer (type)                 Output Shape              Param #   
=================================================================
input_1 (InputLayer)         (None, 22)                0         
_________________________________________________________________
embedding_1 (Embedding)      (None, 22, 100)           50000200  
_________________________________________________________________
bidirectional_1 (Bidirection (None, 22, 256)           234496    
_________________________________________________________________
dense_1 (Dense)              (None, 22, 64)            16448     
_________________________________________________________________
dropout_1 (Dropout)          (None, 22, 64)            0         
_________________________________________________________________
dense_2 (Dense)              (None, 22, 32)            2080      
_________________________________________________________________
dropout_2 (Dropout)          (None, 22, 32)            0         
_________________________________________________________________
flatten_1 (Flatten)          (None, 704)               0         
_________________________________________________________________
dense_3 (Dense)              (None, 2)                 1410      
=================================================================
Total params: 50,254,634
Trainable params: 254,434
Non-trainable params: 50,000,200
_________________________________________________________________
End: Training
[[7070, 82, 8, 91, 192451, 428, 0, 11320, 0, 0, 0, 7070, 82, 0, 26, 0, 1, 1, 1, 1, 1, 1], [0, 102369, 0, 0, 5771, 0, 0, 0, 93969, 259, 0, 15, 0, 1218, 8, 8, 0, 1, 1, 1, 1, 1], [7070, 82, 8, 91, 192451, 428, 0, 11320, 0, 0, 0, 7070, 82, 8072, 8, 0, 1, 1, 1, 1, 1, 1], [8, 0, 23650, 259, 0, 0, 0, 119898, 23650, 33661, 0, 0, 5938, 9370, 17335, 7, 0, 26, 93536, 268155, 305, 18163], [8, 2955, 0, 0, 59315, 13, 0, 1695, 0, 4400, 0, 8, 8, 0, 1, 1, 1, 1, 1, 1, 1, 1]]
…
