…
[[337, 60, 1615, 21, 1482, 733, 20, 171, 14, 344, 14, 171, 14, 59, 5978, 140, 797, 65, 35, 0, 0, 7054], [448, 83533, 231, 31, 223, 18923, 16053, 9, 65394, 63138, 44, 4, 4509, 14, 1, 1, 1, 1, 1, 1, 1, 1], [8, 765, 249, 6766, 1688, 1701, 23209, 108, 368, 15, 23209, 27300, 40, 170, 1205, 443, 53, 21409, 85, 7, 1292, 9994], [210, 284, 95, 929, 9693, 7734, 20, 38533, 53, 30, 98, 11, 4, 25, 3862, 20, 7, 25, 17250, 2452, 53, 442], [257, 31, 1795, 4, 25, 21454, 2227, 0, 14, 54, 68, 225, 56, 14, 31, 959, 82, 19, 93, 80, 41, 600]]
Begin: Training
_________________________________________________________________
Layer (type)                 Output Shape              Param #   
=================================================================
input_1 (InputLayer)         (None, 22)                0         
_________________________________________________________________
embedding_1 (Embedding)      (None, 22, 100)           50000200  
_________________________________________________________________
bidirectional_1 (Bidirection (None, 22, 256)           234496    
_________________________________________________________________
dense_1 (Dense)              (None, 22, 64)            16448     
_________________________________________________________________
dropout_1 (Dropout)          (None, 22, 64)            0         
_________________________________________________________________
dense_2 (Dense)              (None, 22, 32)            2080      
_________________________________________________________________
dropout_2 (Dropout)          (None, 22, 32)            0         
_________________________________________________________________
flatten_1 (Flatten)          (None, 704)               0         
_________________________________________________________________
dense_3 (Dense)              (None, 3)                 2115      
=================================================================
Total params: 50,255,339
Trainable params: 255,139
Non-trainable params: 50,000,200
_________________________________________________________________
End: Training
[[7070, 82, 8, 91, 192451, 428, 0, 11320, 0, 0, 0, 7070, 82, 0, 26, 0, 1, 1, 1, 1, 1, 1], [0, 102369, 0, 0, 5771, 0, 0, 0, 93969, 259, 0, 15, 0, 1218, 8, 8, 0, 1, 
…
