…
[[136, 47, 2770, 751, 332, 289, 136, 204, 21, 637, 144, 14, 0, 1, 1, 1, 1, 1, 1, 1, 1, 1], [373, 4, 1285, 493, 19, 16517, 9, 49626, 1418, 39, 26, 112, 145, 40, 3559, 22, 3062, 131, 17, 1214, 1375, 1], [453, 11, 11, 487, 117954, 698, 4, 215, 12, 4, 56, 263, 3322, 917, 1423, 18, 4, 10748, 453, 23, 251, 15], [906, 30, 1109, 63, 448, 15, 17, 4, 586, 43, 15, 4, 586, 1812, 12, 4, 586, 288, 12, 27750, 9, 276], [8, 10, 4, 1170, 12, 1411, 91, 181, 14, 156, 12, 231, 129, 14, 1498, 2396, 91, 14006, 525, 198, 14, 11900]]
Begin: Training
_________________________________________________________________
Layer (type)                 Output Shape              Param #   
=================================================================
input_1 (InputLayer)         (None, 22)                0         
_________________________________________________________________
embedding_1 (Embedding)      (None, 22, 100)           50000200  
_________________________________________________________________
bidirectional_1 (Bidirection (None, 22, 256)           234496    
_________________________________________________________________
dense_1 (Dense)              (None, 22, 64)            16448     
_________________________________________________________________
dropout_1 (Dropout)          (None, 22, 64)            0         
_________________________________________________________________
dense_2 (Dense)              (None, 22, 32)            2080      
_________________________________________________________________
dropout_2 (Dropout)          (None, 22, 32)            0         
_________________________________________________________________
flatten_1 (Flatten)          (None, 704)               0         
_________________________________________________________________
dense_3 (Dense)              (None, 2)                 1410      
=================================================================
Total params: 50,254,634
Trainable params: 254,434
Non-trainable params: 50,000,200
_________________________________________________________________
End: Training
Begin: Loading embeddings
End: Loading embeddings
[[0, 263, 0, 263, 15, 24078, 14, 0, 1734, 0, 6255, 263, 221395, 263, 1695, 183757, 1218, 90587, 263, 0, 263, 7], 
…
