…
[[110, 91, 0, 91, 10305, 1566, 932, 91, 13, 10788, 46, 16, 2769, 62, 51, 9, 4, 39069, 23, 4, 2903, 47, 26], [13, 7070, 0, 1292, 114, 23, 7, 251, 51, 448, 4632, 141, 20, 16, 1407, 14, 0, 30624, 1, 1, 1, 1, 1], [26781, 3683, 373, 47, 77, 2873, 208, 7, 746, 12, 7, 2813, 14, 4, 5463, 8645, 15, 118, 108, 10138, 23, 4, 74], [13, 249, 4, 1193, 1489, 185, 6, 27834, 540, 517, 23, 7, 18923, 16053, 562, 5230, 30, 27, 93, 79, 1889, 680, 226], [1701, 23209, 17, 0, 84, 210, 84, 170, 373, 32, 7, 297, 392, 15, 50, 4, 244, 22, 7, 134840, 14, 1, 1]]
Begin: Training
_________________________________________________________________
Layer (type)                 Output Shape              Param #   
=================================================================
input_1 (InputLayer)         (None, 23)                0         
_________________________________________________________________
embedding_1 (Embedding)      (None, 23, 100)           50000200  
_________________________________________________________________
bidirectional_1 (Bidirection (None, 23, 256)           234496    
_________________________________________________________________
dense_1 (Dense)              (None, 23, 64)            16448     
_________________________________________________________________
dropout_1 (Dropout)          (None, 23, 64)            0         
_________________________________________________________________
dense_2 (Dense)              (None, 23, 32)            2080      
_________________________________________________________________
dropout_2 (Dropout)          (None, 23, 32)            0         
_________________________________________________________________
flatten_1 (Flatten)          (None, 736)               0         
_________________________________________________________________
dense_3 (Dense)              (None, 2)                 1474      
=================================================================
Total params: 50,254,698
Trainable params: 254,498
Non-trainable params: 50,000,200
_________________________________________________________________
End: Training
[[50304, 134, 1321, 503, 1, 1, 1, 1, 1, 1, 1, 1, 1, 1, 1, 1, 1, 1, 1, 1, 1, 1, 1], [8, 23464, 37048, 331385, 7, 312, 6415, 22424, 197, 49781, 15, 107267, 4430, 112
…
