…
[[58263, 0, 0, 91, 13, 400, 17422, 4843, 56453, 10, 4, 692, 6, 6544, 23, 132, 96, 26, 45, 213, 11, 1, 1], [45219, 217, 7, 25, 3818, 471, 50, 159, 393, 4, 176, 48, 9, 21, 3405, 8993, 159, 172, 933, 815, 13, 47, 4], [16517, 373, 68, 32, 4, 76, 254, 392, 15, 50, 170, 21574, 6, 1728, 40, 529, 1995, 442, 1, 1, 1, 1, 1], [228, 34, 939, 461, 10, 90469, 2637, 7070, 0, 204, 6, 87, 1032, 42, 7070, 0, 30, 24, 2158, 4, 6105, 14, 2277], [118, 38, 4210, 20, 7025, 75, 84, 84, 1, 1, 1, 1, 1, 1, 1, 1, 1, 1, 1, 1, 1, 1, 1]]
Begin: Training
_________________________________________________________________
Layer (type)                 Output Shape              Param #   
=================================================================
input_1 (InputLayer)         (None, 23)                0         
_________________________________________________________________
embedding_1 (Embedding)      (None, 23, 100)           50000200  
_________________________________________________________________
bidirectional_1 (Bidirection (None, 23, 256)           234496    
_________________________________________________________________
dense_1 (Dense)              (None, 23, 64)            16448     
_________________________________________________________________
dropout_1 (Dropout)          (None, 23, 64)            0         
_________________________________________________________________
dense_2 (Dense)              (None, 23, 32)            2080      
_________________________________________________________________
dropout_2 (Dropout)          (None, 23, 32)            0         
_________________________________________________________________
flatten_1 (Flatten)          (None, 736)               0         
_________________________________________________________________
dense_3 (Dense)              (None, 2)                 1474      
=================================================================
Total params: 50,254,698
Trainable params: 254,498
Non-trainable params: 50,000,200
_________________________________________________________________
End: Training
Begin: Loading embeddings
End: Loading embeddings
[[0, 263, 0, 263, 15, 24078, 14, 0, 1734, 0, 6255, 263, 221395, 263, 1695, 183757, 1218, 90587, 263, 0, 263, 7, 1
…
