…
[[254, 937, 6, 205, 18, 4088, 231, 17, 4, 13634, 554, 9, 366, 1131, 140, 10922, 1, 1, 1, 1, 1, 1], [63, 2137, 442, 231, 24, 36, 7, 212, 28, 18, 4088, 2506, 37, 13, 47, 7, 33909, 1, 1, 1, 1, 1], [8, 2036, 24, 46, 86, 15, 464, 236, 432, 16, 10319, 58, 9643, 3218, 385, 1489, 168, 38, 1900, 17, 174, 7], [24, 22, 460, 129, 6524, 10, 4, 105, 15, 13, 47, 119, 231, 9, 16, 4121, 22, 1783, 12104, 13848, 18, 4], [82, 79, 246, 933, 12, 419, 5503, 4875, 15, 4, 1281, 12, 6544, 9, 16517, 15, 82, 53, 55152, 350, 0, 1]]
Begin: Training
_________________________________________________________________
Layer (type)                 Output Shape              Param #   
=================================================================
input_1 (InputLayer)         (None, 22)                0         
_________________________________________________________________
embedding_1 (Embedding)      (None, 22, 100)           50000200  
_________________________________________________________________
bidirectional_1 (Bidirection (None, 22, 256)           234496    
_________________________________________________________________
dense_1 (Dense)              (None, 22, 64)            16448     
_________________________________________________________________
dropout_1 (Dropout)          (None, 22, 64)            0         
_________________________________________________________________
dense_2 (Dense)              (None, 22, 32)            2080      
_________________________________________________________________
dropout_2 (Dropout)          (None, 22, 32)            0         
_________________________________________________________________
flatten_1 (Flatten)          (None, 704)               0         
_________________________________________________________________
dense_3 (Dense)              (None, 3)                 2115      
=================================================================
Total params: 50,255,339
Trainable params: 255,139
Non-trainable params: 50,000,200
_________________________________________________________________
End: Training
Begin: Loading embeddings
End: Loading embeddings
[[0, 263, 0, 263, 15, 24078, 14, 0, 1734, 0, 6255, 263, 221395, 263, 1695, 183757, 1218, 90587, 263, 0, 263, 7], 
…
