…
[[397, 32, 18, 4, 3382, 1429, 3137, 185, 452, 18, 4, 39675, 14, 1, 1, 1, 1, 1, 1, 1, 1, 1, 1], [8, 31, 6331, 1889, 27834, 588, 18923, 16053, 23, 1145, 837, 15, 149, 106, 136, 317, 60, 34753, 33498, 588, 39944, 49197, 23], [82, 2418, 14, 13, 375, 64, 3410, 9055, 394, 147383, 1264, 394, 26, 318, 850, 15, 416, 7400, 637, 78, 5305, 13496, 4], [8, 12104, 13848, 53, 4563, 4, 3841, 1060, 24, 9, 4, 926, 268, 1421, 22, 267, 14778, 14, 1, 1, 1, 1, 1], [8, 31, 679, 0, 21276, 15, 916, 11, 31, 916, 11, 19, 77, 7, 507, 17, 355, 198, 678, 84, 4375, 22, 1612]]
Begin: Training
_________________________________________________________________
Layer (type)                 Output Shape              Param #   
=================================================================
input_1 (InputLayer)         (None, 23)                0         
_________________________________________________________________
embedding_1 (Embedding)      (None, 23, 100)           50000200  
_________________________________________________________________
bidirectional_1 (Bidirection (None, 23, 256)           234496    
_________________________________________________________________
dense_1 (Dense)              (None, 23, 64)            16448     
_________________________________________________________________
dropout_1 (Dropout)          (None, 23, 64)            0         
_________________________________________________________________
dense_2 (Dense)              (None, 23, 32)            2080      
_________________________________________________________________
dropout_2 (Dropout)          (None, 23, 32)            0         
_________________________________________________________________
flatten_1 (Flatten)          (None, 736)               0         
_________________________________________________________________
dense_3 (Dense)              (None, 2)                 1474      
=================================================================
Total params: 50,254,698
Trainable params: 254,498
Non-trainable params: 50,000,200
_________________________________________________________________
End: Training
[[8, 91473, 4430, 112, 7493, 0, 259, 31562, 27449, 4430, 7937, 32006, 114038, 259, 0, 9587, 4885, 225647, 1, 1, 1, 1, 1], [8, 499, 4682, 31402, 778, 20090, 1734, 1
…
