…
[[6118, 393443, 10475, 18, 89649, 20, 7, 461, 6, 7525, 64, 6986, 0, 15, 30520, 2390, 2576, 0, 3899, 12195, 0, 1], [5845, 248, 373, 68, 32, 34, 185, 13515, 15, 50, 7990, 12, 3765, 170, 6723, 10, 4, 366, 141, 131, 68, 15], [448, 10319, 58, 17, 4, 74, 43, 11, 11, 45, 251, 11, 1, 1, 1, 1, 1, 1, 1, 1, 1, 1], [166, 6, 4, 18923, 16053, 588, 1889, 27834, 6889, 1395, 23, 1145, 837, 15, 118, 1343, 6, 80, 84, 84, 1, 1], [8, 2691, 22, 69, 7917, 14, 27750, 22, 7, 193, 1222, 6825, 144, 14, 24, 31, 679, 388, 1146, 288, 14, 1]]
Begin: Training
_________________________________________________________________
Layer (type)                 Output Shape              Param #   
=================================================================
input_1 (InputLayer)         (None, 22)                0         
_________________________________________________________________
embedding_1 (Embedding)      (None, 22, 100)           50000200  
_________________________________________________________________
bidirectional_1 (Bidirection (None, 22, 256)           234496    
_________________________________________________________________
dense_1 (Dense)              (None, 22, 64)            16448     
_________________________________________________________________
dropout_1 (Dropout)          (None, 22, 64)            0         
_________________________________________________________________
dense_2 (Dense)              (None, 22, 32)            2080      
_________________________________________________________________
dropout_2 (Dropout)          (None, 22, 32)            0         
_________________________________________________________________
flatten_1 (Flatten)          (None, 704)               0         
_________________________________________________________________
dense_3 (Dense)              (None, 3)                 2115      
=================================================================
Total params: 50,255,339
Trainable params: 255,139
Non-trainable params: 50,000,200
_________________________________________________________________
End: Training
[[0, 263, 0, 263, 15, 24078, 14, 0, 1734, 0, 6255, 263, 221395, 263, 1695, 183757, 1218, 90587, 263, 0, 263, 7], [141854, 0, 207694, 259, 0, 778, 11320, 115958, 36
…
