…
[[4633, 209896, 8, 0, 4, 610, 4966, 170, 4194, 520, 650, 436, 14, 68, 48, 25, 1979, 10, 3833, 543, 1090, 14, 1], [712, 419, 35, 11827, 36, 112, 14, 198, 10, 4, 6495, 1427, 16022, 23, 668, 1566, 18164, 1, 1, 1, 1, 1, 1], [312, 255, 53, 53, 18923, 16053, 36, 10, 2342, 3004, 213, 613, 4, 80, 158, 2014, 1000, 14, 4, 44446, 45090, 370, 26], [4375, 2895, 22, 1328, 7, 3183, 26, 13, 4093, 7, 611, 62, 452, 78, 24, 167, 989, 72, 14, 87, 202, 8, 1], [9752, 6, 6395, 40, 24, 7070, 0, 1146, 103, 14, 662, 23, 16, 27875, 28, 1, 1, 1, 1, 1, 1, 1, 1]]
Begin: Training
_________________________________________________________________
Layer (type)                 Output Shape              Param #   
=================================================================
input_1 (InputLayer)         (None, 23)                0         
_________________________________________________________________
embedding_1 (Embedding)      (None, 23, 100)           50000200  
_________________________________________________________________
bidirectional_1 (Bidirection (None, 23, 256)           234496    
_________________________________________________________________
dense_1 (Dense)              (None, 23, 64)            16448     
_________________________________________________________________
dropout_1 (Dropout)          (None, 23, 64)            0         
_________________________________________________________________
dense_2 (Dense)              (None, 23, 32)            2080      
_________________________________________________________________
dropout_2 (Dropout)          (None, 23, 32)            0         
_________________________________________________________________
flatten_1 (Flatten)          (None, 736)               0         
_________________________________________________________________
dense_3 (Dense)              (None, 2)                 1474      
=================================================================
Total params: 50,254,698
Trainable params: 254,498
Non-trainable params: 50,000,200
_________________________________________________________________
End: Training
[[0, 263, 0, 263, 15, 24078, 14, 0, 1734, 0, 6255, 263, 221395, 263, 1695, 183757, 1218, 90587, 263, 0, 263, 7, 14724], [141854, 0, 207694, 259, 0, 778, 11320, 115
…
