…
[[12594, 88686, 2588, 1427, 108, 32, 4109, 1128, 520, 2632, 906, 499, 13, 93, 4319, 24, 1, 1, 1, 1, 1, 1], [3991, 282, 317, 60, 24, 42, 15, 231, 131, 228, 321, 1, 1, 1, 1, 1, 1, 1, 1, 1, 1, 1], [0, 385283, 10, 3580, 17, 3389, 20, 6209, 4887, 149046, 10, 25, 16433, 14990, 14, 165, 1429, 81701, 221, 3834, 17, 4800], [19, 373, 249, 261, 280, 4, 2350, 28, 12, 41, 107, 9, 401, 317, 32, 4327, 15, 50, 18, 1104, 261, 68], [8, 437, 44, 67, 158, 931, 15, 63, 8809, 14, 63, 161, 24, 231, 15, 4375, 2895, 22, 7, 98, 356, 14]]
Begin: Training
_________________________________________________________________
Layer (type)                 Output Shape              Param #   
=================================================================
input_1 (InputLayer)         (None, 22)                0         
_________________________________________________________________
embedding_1 (Embedding)      (None, 22, 100)           50000200  
_________________________________________________________________
bidirectional_1 (Bidirection (None, 22, 256)           234496    
_________________________________________________________________
dense_1 (Dense)              (None, 22, 64)            16448     
_________________________________________________________________
dropout_1 (Dropout)          (None, 22, 64)            0         
_________________________________________________________________
dense_2 (Dense)              (None, 22, 32)            2080      
_________________________________________________________________
dropout_2 (Dropout)          (None, 22, 32)            0         
_________________________________________________________________
flatten_1 (Flatten)          (None, 704)               0         
_________________________________________________________________
dense_3 (Dense)              (None, 3)                 2115      
=================================================================
Total params: 50,255,339
Trainable params: 255,139
Non-trainable params: 50,000,200
_________________________________________________________________
End: Training
[[8, 91473, 4430, 112, 7493, 0, 259, 31562, 27449, 4430, 7937, 32006, 114038, 259, 0, 9587, 4885, 225647, 1, 1, 1, 1], [8, 499, 4682, 31402, 778, 20090, 1734, 1250
…
