…
[[633, 118, 373, 32, 2162, 4, 835, 13, 4194, 84, 894, 15, 3991, 282, 14, 31, 77, 363, 7400, 6, 422, 78], [109, 1979, 91, 1776, 16472, 77, 6, 4, 586, 13311, 5953, 35, 1049, 4887, 149046, 14, 1, 1, 1, 1, 1, 1], [54, 4, 74, 555, 213, 12, 4, 103, 14, 40, 1171, 180, 283, 91, 112, 104, 20560, 9, 4, 1902, 6, 4088], [8, 1506, 19, 10477, 5429, 19, 77, 104, 203, 7, 12475, 6891, 9, 19, 373, 47, 116, 7, 8976, 50, 86, 19], [3382, 1429, 373, 47, 4, 3466, 17, 5249, 14405, 21549, 15, 106, 27, 44, 6, 5762, 31214, 13507, 33, 38, 118, 44]]
Begin: Training
_________________________________________________________________
Layer (type)                 Output Shape              Param #   
=================================================================
input_1 (InputLayer)         (None, 22)                0         
_________________________________________________________________
embedding_1 (Embedding)      (None, 22, 100)           50000200  
_________________________________________________________________
bidirectional_1 (Bidirection (None, 22, 256)           234496    
_________________________________________________________________
dense_1 (Dense)              (None, 22, 64)            16448     
_________________________________________________________________
dropout_1 (Dropout)          (None, 22, 64)            0         
_________________________________________________________________
dense_2 (Dense)              (None, 22, 32)            2080      
_________________________________________________________________
dropout_2 (Dropout)          (None, 22, 32)            0         
_________________________________________________________________
flatten_1 (Flatten)          (None, 704)               0         
_________________________________________________________________
dense_3 (Dense)              (None, 2)                 1410      
=================================================================
Total params: 50,254,634
Trainable params: 254,434
Non-trainable params: 50,000,200
_________________________________________________________________
End: Training
Begin: Loading embeddings
End: Loading embeddings
[[8, 91473, 4430, 112, 7493, 0, 259, 31562, 27449, 4430, 7937, 32006, 114038, 259, 0, 9587, 4885, 225647, 1, 1, 1
…
