…
[[63, 30, 556, 270, 348, 21, 14, 63, 30, 556, 270, 348, 24, 23, 251, 192, 14, 2955, 14, 27750, 989, 1530], [4, 21771, 195, 373, 32, 679, 106, 345, 6961, 44, 3019, 46, 6, 4, 2411, 12, 115, 3382, 1429, 3258, 26, 0], [31, 57, 19, 696, 4, 1971, 28, 893, 36, 174, 26, 12615, 11, 42, 302, 213, 149, 11, 0, 1, 1, 1], [548, 20, 4, 2869, 15, 112, 127, 15, 928, 28, 15, 9, 4, 25, 2769, 5237, 121, 231, 3258, 32, 7, 56], [66654, 41, 7193, 22, 193, 23, 4375, 11, 149, 3784, 12244, 406, 231, 0, 19, 757, 11, 0, 0, 1, 1, 1]]
Begin: Training
_________________________________________________________________
Layer (type)                 Output Shape              Param #   
=================================================================
input_1 (InputLayer)         (None, 22)                0         
_________________________________________________________________
embedding_1 (Embedding)      (None, 22, 100)           50000200  
_________________________________________________________________
bidirectional_1 (Bidirection (None, 22, 256)           234496    
_________________________________________________________________
dense_1 (Dense)              (None, 22, 64)            16448     
_________________________________________________________________
dropout_1 (Dropout)          (None, 22, 64)            0         
_________________________________________________________________
dense_2 (Dense)              (None, 22, 32)            2080      
_________________________________________________________________
dropout_2 (Dropout)          (None, 22, 32)            0         
_________________________________________________________________
flatten_1 (Flatten)          (None, 704)               0         
_________________________________________________________________
dense_3 (Dense)              (None, 2)                 1410      
=================================================================
Total params: 50,254,634
Trainable params: 254,434
Non-trainable params: 50,000,200
_________________________________________________________________
End: Training
[[8, 91473, 4430, 112, 7493, 0, 259, 31562, 27449, 4430, 7937, 32006, 114038, 259, 0, 9587, 4885, 225647, 1, 1, 1, 1], [8, 499, 4682, 31402, 778, 20090, 1734, 1250
…
