…
[[82, 13, 217, 6, 80, 6, 1035, 86, 223, 13, 47, 6, 60, 46, 409, 231, 105, 82, 13, 239, 85, 13], [11254, 28982, 21, 373, 32, 4, 62, 158, 2769, 2078, 53, 20, 8, 0, 1229, 8, 71126, 1, 1, 1, 1, 1], [1377, 4, 114, 3241, 17, 19624, 9216, 23401, 137178, 15, 170, 31, 4510, 165, 1146, 3595, 12, 4, 28, 6, 1776, 1114], [8, 149, 20, 4640, 15143, 39, 586, 157, 64, 6014, 7535, 78, 1701, 23209, 93, 779, 510, 7935, 17480, 12, 39, 937], [2318, 798, 7431, 11170, 91, 11170, 15, 531, 12, 127, 91, 131558, 598, 343, 148, 1060, 4, 531, 12, 452, 6, 7011]]
Begin: Training
_________________________________________________________________
Layer (type)                 Output Shape              Param #   
=================================================================
input_1 (InputLayer)         (None, 22)                0         
_________________________________________________________________
embedding_1 (Embedding)      (None, 22, 100)           50000200  
_________________________________________________________________
bidirectional_1 (Bidirection (None, 22, 256)           234496    
_________________________________________________________________
dense_1 (Dense)              (None, 22, 64)            16448     
_________________________________________________________________
dropout_1 (Dropout)          (None, 22, 64)            0         
_________________________________________________________________
dense_2 (Dense)              (None, 22, 32)            2080      
_________________________________________________________________
dropout_2 (Dropout)          (None, 22, 32)            0         
_________________________________________________________________
flatten_1 (Flatten)          (None, 704)               0         
_________________________________________________________________
dense_3 (Dense)              (None, 3)                 2115      
=================================================================
Total params: 50,255,339
Trainable params: 255,139
Non-trainable params: 50,000,200
_________________________________________________________________
End: Training
Begin: Loading embeddings
End: Loading embeddings
[[7070, 82, 8, 91, 192451, 428, 0, 11320, 0, 0, 0, 7070, 82, 0, 26, 0, 1, 1, 1, 1, 1, 1], [0, 102369, 0, 0, 5771,
…
