…
[[17, 437, 12, 90, 118, 2041, 1971, 28, 15, 42, 36, 167, 7, 733, 15, 50, 17, 4, 956, 12, 19, 6538], [106, 4375, 2895, 28, 22, 82, 202, 203, 345, 213, 82, 360, 63, 166, 6, 1035, 10, 11, 540, 47, 116, 1249], [2770, 22, 0, 388, 4304, 25555, 1060, 2770, 751, 9, 1738, 15, 9, 371, 3648, 373, 32, 23, 4, 145, 14, 0], [3019, 46, 6, 917, 1423, 480, 4938, 4, 141, 14, 45, 213, 4434, 14, 1, 1, 1, 1, 1, 1, 1, 1], [13, 4104, 6, 80, 302, 4, 1665, 124, 15, 2261, 1971, 28, 15, 9, 733, 15, 580, 581, 511, 0, 3610, 14]]
Begin: Training
_________________________________________________________________
Layer (type)                 Output Shape              Param #   
=================================================================
input_1 (InputLayer)         (None, 22)                0         
_________________________________________________________________
embedding_1 (Embedding)      (None, 22, 100)           50000200  
_________________________________________________________________
bidirectional_1 (Bidirection (None, 22, 256)           234496    
_________________________________________________________________
dense_1 (Dense)              (None, 22, 64)            16448     
_________________________________________________________________
dropout_1 (Dropout)          (None, 22, 64)            0         
_________________________________________________________________
dense_2 (Dense)              (None, 22, 32)            2080      
_________________________________________________________________
dropout_2 (Dropout)          (None, 22, 32)            0         
_________________________________________________________________
flatten_1 (Flatten)          (None, 704)               0         
_________________________________________________________________
dense_3 (Dense)              (None, 2)                 1410      
=================================================================
Total params: 50,254,634
Trainable params: 254,434
Non-trainable params: 50,000,200
_________________________________________________________________
End: Training
[[0, 263, 0, 263, 15, 24078, 14, 0, 1734, 0, 6255, 263, 221395, 263, 1695, 183757, 1218, 90587, 263, 0, 263, 7], [141854, 0, 207694, 259, 0, 778, 11320, 115958, 36
…
