…
[[1776, 1114, 22, 464, 32, 18, 4, 139, 185, 224, 38, 22, 56, 1, 1, 1, 1, 1, 1, 1, 1, 1], [10545, 11, 9398, 11, 49181, 11, 60, 1029, 6, 552, 1881, 36947, 18, 4, 8, 21, 626, 18, 41380, 329, 0, 1], [72, 19, 80, 8, 91, 61, 6, 3781, 33, 43761, 158, 398, 0, 2108, 2108, 5730, 128, 4, 2745, 20, 198694, 14], [8, 56, 23, 1821, 6483, 170, 134, 2818, 7, 2596, 12, 3439, 9, 212, 373, 24, 2384, 21, 22, 7, 1187, 1877], [8976, 4929, 23, 4, 586, 14273, 658, 14, 56, 79, 33, 4, 4002, 1, 1, 1, 1, 1, 1, 1, 1, 1]]
Begin: Training
_________________________________________________________________
Layer (type)                 Output Shape              Param #   
=================================================================
input_1 (InputLayer)         (None, 22)                0         
_________________________________________________________________
embedding_1 (Embedding)      (None, 22, 100)           50000200  
_________________________________________________________________
bidirectional_1 (Bidirection (None, 22, 256)           234496    
_________________________________________________________________
dense_1 (Dense)              (None, 22, 64)            16448     
_________________________________________________________________
dropout_1 (Dropout)          (None, 22, 64)            0         
_________________________________________________________________
dense_2 (Dense)              (None, 22, 32)            2080      
_________________________________________________________________
dropout_2 (Dropout)          (None, 22, 32)            0         
_________________________________________________________________
flatten_1 (Flatten)          (None, 704)               0         
_________________________________________________________________
dense_3 (Dense)              (None, 2)                 1410      
=================================================================
Total params: 50,254,634
Trainable params: 254,434
Non-trainable params: 50,000,200
_________________________________________________________________
End: Training
[[50304, 134, 1321, 503, 1, 1, 1, 1, 1, 1, 1, 1, 1, 1, 1, 1, 1, 1, 1, 1, 1, 1], [8, 23464, 37048, 331385, 7, 312, 6415, 22424, 197, 49781, 15, 107267, 4430, 112, 7
…
