…
[[8, 8, 57, 13, 1262, 95, 9908, 0, 6756, 13, 696, 14, 367, 13, 10004, 795, 106, 183, 5072, 586, 1688, 12], [4, 696, 12, 4, 19815, 18, 67432, 231, 22, 346, 29, 6978, 1, 1, 1, 1, 1, 1, 1, 1, 1, 1], [8, 87, 68, 432, 4, 12594, 38737, 0, 14, 31, 120, 14, 1593, 2920, 15, 4, 15201, 12, 52526, 21764, 15, 0], [4, 11998, 230, 23, 4, 21341, 2457, 91, 297, 3100, 50, 133, 6, 7525, 413, 10719, 0, 1229, 8, 1, 1, 1], [10, 4, 1123, 1596, 5236, 4704, 1707, 1596, 0, 1707, 35, 917, 1423, 59, 6609, 15, 26186, 53, 9333, 15, 15246, 26]]
Begin: Training
_________________________________________________________________
Layer (type)                 Output Shape              Param #   
=================================================================
input_1 (InputLayer)         (None, 22)                0         
_________________________________________________________________
embedding_1 (Embedding)      (None, 22, 100)           50000200  
_________________________________________________________________
bidirectional_1 (Bidirection (None, 22, 256)           234496    
_________________________________________________________________
dense_1 (Dense)              (None, 22, 64)            16448     
_________________________________________________________________
dropout_1 (Dropout)          (None, 22, 64)            0         
_________________________________________________________________
dense_2 (Dense)              (None, 22, 32)            2080      
_________________________________________________________________
dropout_2 (Dropout)          (None, 22, 32)            0         
_________________________________________________________________
flatten_1 (Flatten)          (None, 704)               0         
_________________________________________________________________
dense_3 (Dense)              (None, 3)                 2115      
=================================================================
Total params: 50,255,339
Trainable params: 255,139
Non-trainable params: 50,000,200
_________________________________________________________________
End: Training
Begin: Loading embeddings
End: Loading embeddings
[[50304, 134, 1321, 503, 1, 1, 1, 1, 1, 1, 1, 1, 1, 1, 1, 1, 1, 1, 1, 1, 1, 1], [8, 23464, 37048, 331385, 7, 312,
…
