…
[[8, 4, 1165, 108, 32, 192, 2911, 9, 63198, 9, 6499, 6, 26541, 853, 14, 8, 373, 1914, 24, 64, 8, 134], [397, 32, 193, 6284, 4, 1346, 3858, 1451, 1229, 8, 21, 251, 51, 18, 4088, 152, 8, 2323, 4, 3858, 226, 14], [4887, 0, 5640, 1213, 529, 64, 7, 11531, 4832, 8676, 927, 853, 85, 7, 942, 23, 4, 2599, 12, 873, 14, 0], [13, 39, 4, 917, 1423, 14, 13, 87, 68, 39, 6211, 14, 31, 346, 367, 19, 38, 125, 21, 14, 0, 1], [42, 8, 15797, 15, 20, 8461, 17, 11842, 9, 11443, 16963, 10, 4, 90, 9, 6495, 15, 72, 22, 61, 19, 217]]
Begin: Training
_________________________________________________________________
Layer (type)                 Output Shape              Param #   
=================================================================
input_1 (InputLayer)         (None, 22)                0         
_________________________________________________________________
embedding_1 (Embedding)      (None, 22, 100)           50000200  
_________________________________________________________________
bidirectional_1 (Bidirection (None, 22, 256)           234496    
_________________________________________________________________
dense_1 (Dense)              (None, 22, 64)            16448     
_________________________________________________________________
dropout_1 (Dropout)          (None, 22, 64)            0         
_________________________________________________________________
dense_2 (Dense)              (None, 22, 32)            2080      
_________________________________________________________________
dropout_2 (Dropout)          (None, 22, 32)            0         
_________________________________________________________________
flatten_1 (Flatten)          (None, 704)               0         
_________________________________________________________________
dense_3 (Dense)              (None, 2)                 1410      
=================================================================
Total params: 50,254,634
Trainable params: 254,434
Non-trainable params: 50,000,200
_________________________________________________________________
End: Training
Begin: Loading embeddings
End: Loading embeddings
[[50304, 134, 1321, 503, 1, 1, 1, 1, 1, 1, 1, 1, 1, 1, 1, 1, 1, 1, 1, 1, 1, 1], [8, 23464, 37048, 331385, 7, 312,
…
