…
[[8, 87, 19, 47, 3965, 74, 356, 23, 452, 20, 11170, 84, 1, 1, 1, 1, 1, 1, 1, 1, 1, 1], [50, 459, 15, 106, 261, 1498, 18, 9325, 15, 80, 6, 4, 139, 231, 9, 573, 422, 115, 19, 375, 17, 38], [9958, 428, 1126, 11, 8539, 929, 15, 9028, 391, 56, 6, 49470, 95, 9, 3249, 16, 946, 17, 1, 1, 1, 1], [4, 149, 356, 40, 13, 142, 3397, 12, 106, 6014, 7535, 22, 1688, 170, 373, 1545, 10, 592, 1, 1, 1, 1], [7427, 115, 19, 438, 37, 41, 774, 1673, 11, 4541, 1730, 1192, 12, 1746, 2183, 22, 7, 350891, 0, 1, 1, 1]]
Begin: Training
_________________________________________________________________
Layer (type)                 Output Shape              Param #   
=================================================================
input_1 (InputLayer)         (None, 22)                0         
_________________________________________________________________
embedding_1 (Embedding)      (None, 22, 100)           50000200  
_________________________________________________________________
bidirectional_1 (Bidirection (None, 22, 256)           234496    
_________________________________________________________________
dense_1 (Dense)              (None, 22, 64)            16448     
_________________________________________________________________
dropout_1 (Dropout)          (None, 22, 64)            0         
_________________________________________________________________
dense_2 (Dense)              (None, 22, 32)            2080      
_________________________________________________________________
dropout_2 (Dropout)          (None, 22, 32)            0         
_________________________________________________________________
flatten_1 (Flatten)          (None, 704)               0         
_________________________________________________________________
dense_3 (Dense)              (None, 3)                 2115      
=================================================================
Total params: 50,255,339
Trainable params: 255,139
Non-trainable params: 50,000,200
_________________________________________________________________
End: Training
Begin: Loading embeddings
End: Loading embeddings
[[8, 91473, 4430, 112, 7493, 0, 259, 31562, 27449, 4430, 7937, 32006, 114038, 259, 0, 9587, 4885, 225647, 1, 1, 1
…
