…
[[106, 9631, 22, 56, 676, 17, 12104, 13848, 15, 24, 373, 32, 56, 676, 17, 19, 14, 476, 1226, 1234, 10149, 0, 0], [156, 1908, 198, 134, 116, 166, 23, 10, 16, 141, 421, 452, 14, 115, 212, 87, 92, 283, 3041, 62, 84, 1, 1], [57, 91714, 5814, 16, 3512, 10, 1904, 5494, 9, 1331, 6, 4904, 64, 24, 6183, 7070, 0, 422, 2108, 2108, 8547, 19, 93], [82, 8, 15, 13, 120, 375, 4, 9290, 156, 1237, 6514, 1229, 22393, 15, 142, 13, 4, 149, 48, 84, 989, 24, 9290], [8, 8, 8, 82, 62452, 999, 48388, 7, 2711, 95, 4, 18685, 12, 7, 1701, 23209, 368, 82, 15, 760, 179, 7552, 84]]
Begin: Training
_________________________________________________________________
Layer (type)                 Output Shape              Param #   
=================================================================
input_1 (InputLayer)         (None, 23)                0         
_________________________________________________________________
embedding_1 (Embedding)      (None, 23, 100)           50000200  
_________________________________________________________________
bidirectional_1 (Bidirection (None, 23, 256)           234496    
_________________________________________________________________
dense_1 (Dense)              (None, 23, 64)            16448     
_________________________________________________________________
dropout_1 (Dropout)          (None, 23, 64)            0         
_________________________________________________________________
dense_2 (Dense)              (None, 23, 32)            2080      
_________________________________________________________________
dropout_2 (Dropout)          (None, 23, 32)            0         
_________________________________________________________________
flatten_1 (Flatten)          (None, 736)               0         
_________________________________________________________________
dense_3 (Dense)              (None, 2)                 1474      
=================================================================
Total params: 50,254,698
Trainable params: 254,498
Non-trainable params: 50,000,200
_________________________________________________________________
End: Training
[[7070, 82, 8, 91, 192451, 428, 0, 11320, 0, 0, 0, 7070, 82, 0, 26, 0, 1, 1, 1, 1, 1, 1, 1], [0, 102369, 0, 0, 5771, 0, 0, 0, 93969, 259, 0, 15, 0, 1218, 8, 8, 0, 
…
