…
91, 0, 416630, 18049, 361934, 301591, 0, 77102, 207923], [375248, 390434, 0, 132817, 32672, 206150, 416630, 176106, 104178, 13478, 52696, 244358, 277516, 473556, 348377, 0, 24764, 0, 301591, 0, 1, 1], [207923, 286332, 188467, 131741, 379908, 0, 0, 117491, 218876, 13478, 333249, 109144, 277516, 246150, 0, 379908, 229067, 425579, 383967, 0, 299243, 90034]]
Begin: Training
_________________________________________________________________
Layer (type)                 Output Shape              Param #   
=================================================================
input_1 (InputLayer)         (None, 22)                0         
_________________________________________________________________
embedding_1 (Embedding)      (None, 22, 100)           50000200  
_________________________________________________________________
bidirectional_1 (Bidirection (None, 22, 256)           234496    
_________________________________________________________________
dense_1 (Dense)              (None, 22, 64)            16448     
_________________________________________________________________
dropout_1 (Dropout)          (None, 22, 64)            0         
_________________________________________________________________
dense_2 (Dense)              (None, 22, 32)            2080      
_________________________________________________________________
dropout_2 (Dropout)          (None, 22, 32)            0         
_________________________________________________________________
flatten_1 (Flatten)          (None, 704)               0         
_________________________________________________________________
dense_3 (Dense)              (None, 2)                 1410      
=================================================================
Total params: 50,254,634
Trainable params: 254,434
Non-trainable params: 50,000,200
_________________________________________________________________
End: Training
Begin: Loading embeddings
End: Loading embeddings
[[396074, 330801, 478928, 218876, 1, 1, 1, 1, 1, 1, 1, 1, 1, 1, 1, 1, 1, 1, 1, 1, 1, 1], [207923, 246711, 411271,
…
