…
[[28313, 4, 318, 10516, 10523, 53, 9908, 78179, 0, 1, 1, 1, 1, 1, 1, 1, 1, 1, 1, 1, 1, 1], [900, 14, 69870, 1448, 4, 0, 2147, 7330, 2089, 243, 600, 2770, 2109, 14, 0, 0, 1, 1, 1, 1, 1, 1], [40, 522, 13, 1021, 6, 60, 57, 13, 25, 13, 36, 166, 6, 940, 4, 185, 28, 22, 115, 13, 375, 95], [0, 2108, 6544, 53, 4, 5736, 18, 4330, 932, 8064, 175, 10, 779, 536, 2143, 82, 528, 10, 39, 82, 20, 26], [233, 69, 2250, 191, 194, 8976, 8526, 6, 16, 606, 9, 647, 10, 2247, 149, 48, 10, 4, 156, 760, 3164, 26]]
Begin: Training
_________________________________________________________________
Layer (type)                 Output Shape              Param #   
=================================================================
input_1 (InputLayer)         (None, 22)                0         
_________________________________________________________________
embedding_1 (Embedding)      (None, 22, 100)           50000200  
_________________________________________________________________
bidirectional_1 (Bidirection (None, 22, 256)           234496    
_________________________________________________________________
dense_1 (Dense)              (None, 22, 64)            16448     
_________________________________________________________________
dropout_1 (Dropout)          (None, 22, 64)            0         
_________________________________________________________________
dense_2 (Dense)              (None, 22, 32)            2080      
_________________________________________________________________
dropout_2 (Dropout)          (None, 22, 32)            0         
_________________________________________________________________
flatten_1 (Flatten)          (None, 704)               0         
_________________________________________________________________
dense_3 (Dense)              (None, 3)                 2115      
=================================================================
Total params: 50,255,339
Trainable params: 255,139
Non-trainable params: 50,000,200
_________________________________________________________________
End: Training
Begin: Loading embeddings
End: Loading embeddings
[[50304, 134, 1321, 503, 1, 1, 1, 1, 1, 1, 1, 1, 1, 1, 1, 1, 1, 1, 1, 1, 1, 1], [8, 23464, 37048, 331385, 7, 312,
…
