…
[[12662, 133466, 26097, 265360, 20, 0, 14, 82, 106, 265360, 1943, 20, 165, 48173, 78, 21105, 15, 27, 373, 47, 6, 1902], [112, 949, 12, 163379, 10, 4, 944, 89649, 0, 14, 59, 1146, 4328, 7728, 65, 0, 1, 1, 1, 1, 1, 1], [168, 36, 137, 48, 88, 0, 267, 435, 40, 69306, 95, 1138, 170, 36, 1821, 23359, 23, 264, 224, 2031, 242, 13], [293, 7, 56, 28, 10, 34701, 11, 12172, 15, 1746, 2183, 463, 15, 925, 9, 330, 5945, 503, 34701, 12082, 357, 28], [16, 1896, 8, 1489, 179, 20, 122410, 176, 992, 244, 23, 7, 1873, 10, 4, 83, 14, 63, 71035, 263, 17, 18373]]
Begin: Training
_________________________________________________________________
Layer (type)                 Output Shape              Param #   
=================================================================
input_1 (InputLayer)         (None, 22)                0         
_________________________________________________________________
embedding_1 (Embedding)      (None, 22, 100)           50000200  
_________________________________________________________________
bidirectional_1 (Bidirection (None, 22, 256)           234496    
_________________________________________________________________
dense_1 (Dense)              (None, 22, 64)            16448     
_________________________________________________________________
dropout_1 (Dropout)          (None, 22, 64)            0         
_________________________________________________________________
dense_2 (Dense)              (None, 22, 32)            2080      
_________________________________________________________________
dropout_2 (Dropout)          (None, 22, 32)            0         
_________________________________________________________________
flatten_1 (Flatten)          (None, 704)               0         
_________________________________________________________________
dense_3 (Dense)              (None, 3)                 2115      
=================================================================
Total params: 50,255,339
Trainable params: 255,139
Non-trainable params: 50,000,200
_________________________________________________________________
End: Training
Begin: Loading embeddings
End: Loading embeddings
[[50304, 134, 1321, 503, 1, 1, 1, 1, 1, 1, 1, 1, 1, 1, 1, 1, 1, 1, 1, 1, 1, 1], [8, 23464, 37048, 331385, 7, 312,
…
