…
58, 0, 386458, 0, 0, 132817, 0, 1, 1, 1, 1, 1, 1], [207923, 207923, 281685, 257659, 0, 40130, 344470, 430479, 244358, 443367, 117491, 0, 333249, 194916, 0, 107080, 489574, 137860, 327243, 293354, 404561, 117491, 1], [207923, 90034, 13478, 333249, 0, 444222, 0, 0, 358518, 40130, 393542, 156930, 0, 117491, 0, 0, 78243, 151632, 34485, 0, 117491, 218876, 1]]
Begin: Training
_________________________________________________________________
Layer (type)                 Output Shape              Param #   
=================================================================
input_1 (InputLayer)         (None, 23)                0         
_________________________________________________________________
embedding_1 (Embedding)      (None, 23, 100)           50000200  
_________________________________________________________________
bidirectional_1 (Bidirection (None, 23, 256)           234496    
_________________________________________________________________
dense_1 (Dense)              (None, 23, 64)            16448     
_________________________________________________________________
dropout_1 (Dropout)          (None, 23, 64)            0         
_________________________________________________________________
dense_2 (Dense)              (None, 23, 32)            2080      
_________________________________________________________________
dropout_2 (Dropout)          (None, 23, 32)            0         
_________________________________________________________________
flatten_1 (Flatten)          (None, 736)               0         
_________________________________________________________________
dense_3 (Dense)              (None, 2)                 1474      
=================================================================
Total params: 50,254,698
Trainable params: 254,498
Non-trainable params: 50,000,200
_________________________________________________________________
End: Training
Begin: Loading embeddings
End: Loading embeddings
[[0, 497032, 0, 497032, 257659, 5560, 117491, 0, 0, 0, 273679, 497032, 266233, 497032, 347187, 311058, 224028, 48
…
