…
[[112, 3779, 15, 50, 0, 22, 40, 13, 1262, 10319, 58, 10, 1146, 1675, 9, 36, 104449, 2549, 20, 13531, 14, 1], [3991, 282, 213, 51, 20, 16, 1156, 8, 0, 197484, 0, 1, 1, 1, 1, 1, 1, 1, 1, 1, 1, 1], [8, 93, 19, 267, 458, 487, 29, 20, 4, 838, 12, 4, 2382, 10798, 1303, 5493, 38192, 1421, 23, 224, 84, 159], [529, 64, 63, 166, 73, 10, 43, 231, 26, 10319, 58, 811, 26, 1, 1, 1, 1, 1, 1, 1, 1, 1], [8, 13, 167, 47, 16, 1384, 207705, 26339, 14, 1109, 397, 662, 24, 6, 4, 139, 23, 452, 14, 1, 1, 1]]
Begin: Training
_________________________________________________________________
Layer (type)                 Output Shape              Param #   
=================================================================
input_1 (InputLayer)         (None, 22)                0         
_________________________________________________________________
embedding_1 (Embedding)      (None, 22, 100)           50000200  
_________________________________________________________________
bidirectional_1 (Bidirection (None, 22, 256)           234496    
_________________________________________________________________
dense_1 (Dense)              (None, 22, 64)            16448     
_________________________________________________________________
dropout_1 (Dropout)          (None, 22, 64)            0         
_________________________________________________________________
dense_2 (Dense)              (None, 22, 32)            2080      
_________________________________________________________________
dropout_2 (Dropout)          (None, 22, 32)            0         
_________________________________________________________________
flatten_1 (Flatten)          (None, 704)               0         
_________________________________________________________________
dense_3 (Dense)              (None, 2)                 1410      
=================================================================
Total params: 50,254,634
Trainable params: 254,434
Non-trainable params: 50,000,200
_________________________________________________________________
End: Training
Begin: Loading embeddings
End: Loading embeddings
[[50304, 134, 1321, 503, 1, 1, 1, 1, 1, 1, 1, 1, 1, 1, 1, 1, 1, 1, 1, 1, 1, 1], [8, 23464, 37048, 331385, 7, 312,
…
