…
17491, 364195, 151632, 90114, 420744, 156930, 43577, 117491, 179196], [0, 109144, 277516, 196841, 303295, 0, 115305, 425579, 418101, 57858, 247718, 0, 348377, 207923, 207923, 207923, 207923, 207923, 348377, 1, 1, 1], [0, 0, 364195, 13050, 473255, 497274, 153370, 396464, 0, 156213, 375766, 0, 109144, 188467, 196476, 24764, 348377, 0, 257659, 0, 37480, 0]]
Begin: Training
_________________________________________________________________
Layer (type)                 Output Shape              Param #   
=================================================================
input_1 (InputLayer)         (None, 22)                0         
_________________________________________________________________
embedding_1 (Embedding)      (None, 22, 100)           50000200  
_________________________________________________________________
bidirectional_1 (Bidirection (None, 22, 256)           234496    
_________________________________________________________________
dense_1 (Dense)              (None, 22, 64)            16448     
_________________________________________________________________
dropout_1 (Dropout)          (None, 22, 64)            0         
_________________________________________________________________
dense_2 (Dense)              (None, 22, 32)            2080      
_________________________________________________________________
dropout_2 (Dropout)          (None, 22, 32)            0         
_________________________________________________________________
flatten_1 (Flatten)          (None, 704)               0         
_________________________________________________________________
dense_3 (Dense)              (None, 3)                 2115      
=================================================================
Total params: 50,255,339
Trainable params: 255,139
Non-trainable params: 50,000,200
_________________________________________________________________
End: Training
Begin: Loading embeddings
End: Loading embeddings
[[396074, 330801, 478928, 218876, 1, 1, 1, 1, 1, 1, 1, 1, 1, 1, 1, 1, 1, 1, 1, 1, 1, 1], [207923, 246711, 411271,
…
