…
[[55946, 22, 95, 6, 32, 363, 20, 165, 1976, 10, 4, 610, 43, 4, 1447, 438, 12, 4, 21590, 588, 14, 0], [21, 22, 17, 19, 19595, 12239, 40, 249, 2382, 43624, 96, 22, 23, 39209, 0, 1, 1, 1, 1, 1, 1, 1], [4375, 2895, 18847, 91, 55, 106, 19, 1136, 10457, 12, 975, 15, 224, 3432, 15, 114, 6661, 20, 86, 14, 2895, 285], [63, 367, 165, 1281, 2131, 6544, 78, 289, 204, 29, 6, 573, 132, 34918, 95, 4, 649, 14, 0, 1, 1, 1], [149046, 15, 425020, 10138, 23, 562, 4, 2522, 53, 224, 23, 562, 4, 2522, 23, 6324, 15, 13405, 14, 4887, 149046, 4764]]
Begin: Training
_________________________________________________________________
Layer (type)                 Output Shape              Param #   
=================================================================
input_1 (InputLayer)         (None, 22)                0         
_________________________________________________________________
embedding_1 (Embedding)      (None, 22, 100)           50000200  
_________________________________________________________________
bidirectional_1 (Bidirection (None, 22, 256)           234496    
_________________________________________________________________
dense_1 (Dense)              (None, 22, 64)            16448     
_________________________________________________________________
dropout_1 (Dropout)          (None, 22, 64)            0         
_________________________________________________________________
dense_2 (Dense)              (None, 22, 32)            2080      
_________________________________________________________________
dropout_2 (Dropout)          (None, 22, 32)            0         
_________________________________________________________________
flatten_1 (Flatten)          (None, 704)               0         
_________________________________________________________________
dense_3 (Dense)              (None, 2)                 1410      
=================================================================
Total params: 50,254,634
Trainable params: 254,434
Non-trainable params: 50,000,200
_________________________________________________________________
End: Training
Begin: Loading embeddings
End: Loading embeddings
[[50304, 134, 1321, 503, 1, 1, 1, 1, 1, 1, 1, 1, 1, 1, 1, 1, 1, 1, 1, 1, 1, 1], [8, 23464, 37048, 331385, 7, 312,
…
