…
[[1408, 60, 41, 314, 7790, 13, 204, 6, 79, 6544, 193, 9, 10222, 11, 8, 0, 1, 1, 1, 1, 1, 1, 1], [8, 21, 22, 4, 308, 18, 3595, 164, 85, 5978, 140, 797, 872, 146, 6, 377, 23, 626, 11, 8, 0, 1, 1], [30, 24, 2506, 37, 4375, 2895, 28, 394, 221, 394, 962, 37, 7, 450, 64, 345, 0, 9, 68, 625, 4, 43, 14], [1346, 6, 239, 95, 4, 158, 29374, 12, 96068, 22, 2182, 0, 1, 1, 1, 1, 1, 1, 1, 1, 1, 1, 1], [8, 34990, 674, 11, 708, 524, 732, 552, 1881, 36947, 64, 520, 311, 738, 15, 30, 19, 373, 31, 47, 6, 32, 41]]
Begin: Training
_________________________________________________________________
Layer (type)                 Output Shape              Param #   
=================================================================
input_1 (InputLayer)         (None, 23)                0         
_________________________________________________________________
embedding_1 (Embedding)      (None, 23, 100)           50000200  
_________________________________________________________________
bidirectional_1 (Bidirection (None, 23, 256)           234496    
_________________________________________________________________
dense_1 (Dense)              (None, 23, 64)            16448     
_________________________________________________________________
dropout_1 (Dropout)          (None, 23, 64)            0         
_________________________________________________________________
dense_2 (Dense)              (None, 23, 32)            2080      
_________________________________________________________________
dropout_2 (Dropout)          (None, 23, 32)            0         
_________________________________________________________________
flatten_1 (Flatten)          (None, 736)               0         
_________________________________________________________________
dense_3 (Dense)              (None, 2)                 1474      
=================================================================
Total params: 50,254,698
Trainable params: 254,498
Non-trainable params: 50,000,200
_________________________________________________________________
End: Training
Begin: Loading embeddings
End: Loading embeddings
[[50304, 134, 1321, 503, 1, 1, 1, 1, 1, 1, 1, 1, 1, 1, 1, 1, 1, 1, 1, 1, 1, 1, 1], [8, 23464, 37048, 331385, 7, 3
…
