…
[[106, 41, 78838, 93, 853, 69, 8993, 202, 203, 19, 93, 360, 21, 717, 373, 269, 32, 9069, 17, 19, 53, 0, 1], [5808, 91, 0, 91, 3187, 0, 860, 53, 900, 2868, 244, 140, 489, 22, 4286, 59, 2382, 10798, 1500, 65, 21, 22, 4], [82, 4, 2769, 16817, 15, 4, 1288, 356, 6, 189, 6193, 421, 4, 2769, 520, 14, 82, 394, 1953, 902, 796, 394, 8], [8, 8, 176, 86, 15, 120, 47, 511, 17, 4, 124, 14, 35, 733, 1053, 6, 5978, 140, 797, 649, 9, 360, 335], [25, 407, 226, 231, 2033, 2560, 173, 64, 21, 50, 5479, 580, 4, 969, 15, 13019, 2440, 15, 1821, 23359, 26, 0, 1]]
Begin: Training
_________________________________________________________________
Layer (type)                 Output Shape              Param #   
=================================================================
input_1 (InputLayer)         (None, 23)                0         
_________________________________________________________________
embedding_1 (Embedding)      (None, 23, 100)           50000200  
_________________________________________________________________
bidirectional_1 (Bidirection (None, 23, 256)           234496    
_________________________________________________________________
dense_1 (Dense)              (None, 23, 64)            16448     
_________________________________________________________________
dropout_1 (Dropout)          (None, 23, 64)            0         
_________________________________________________________________
dense_2 (Dense)              (None, 23, 32)            2080      
_________________________________________________________________
dropout_2 (Dropout)          (None, 23, 32)            0         
_________________________________________________________________
flatten_1 (Flatten)          (None, 736)               0         
_________________________________________________________________
dense_3 (Dense)              (None, 2)                 1474      
=================================================================
Total params: 50,254,698
Trainable params: 254,498
Non-trainable params: 50,000,200
_________________________________________________________________
End: Training
Begin: Loading embeddings
End: Loading embeddings
[[50304, 134, 1321, 503, 1, 1, 1, 1, 1, 1, 1, 1, 1, 1, 1, 1, 1, 1, 1, 1, 1, 1, 1], [8, 23464, 37048, 331385, 7, 3
…
