…
[[863, 1566, 134, 1321, 15, 814, 1171, 43761, 25, 2769, 22, 86, 31, 531, 425, 33, 3219, 69, 944, 356, 14, 0], [2573, 775, 11, 6138, 15, 54, 152, 1971, 28, 9, 2366, 22, 167, 1263, 366, 11, 0, 1, 1, 1, 1, 1], [8, 8, 10264, 53, 726, 10319, 58, 14, 254, 86, 26, 79, 19, 231, 11, 11, 1, 1, 1, 1, 1, 1], [90, 357, 91, 55946, 15, 0, 9, 0, 2159, 208, 185, 866, 91, 55946, 14515, 0, 17, 4, 2369, 43, 6, 26], [28505, 7, 1058, 14, 106, 19, 108, 432, 4, 926, 694, 12, 34752, 588, 276007, 174, 15894, 588, 89649, 1976, 3, 5816]]
Begin: Training
_________________________________________________________________
Layer (type)                 Output Shape              Param #   
=================================================================
input_1 (InputLayer)         (None, 22)                0         
_________________________________________________________________
embedding_1 (Embedding)      (None, 22, 100)           50000200  
_________________________________________________________________
bidirectional_1 (Bidirection (None, 22, 256)           234496    
_________________________________________________________________
dense_1 (Dense)              (None, 22, 64)            16448     
_________________________________________________________________
dropout_1 (Dropout)          (None, 22, 64)            0         
_________________________________________________________________
dense_2 (Dense)              (None, 22, 32)            2080      
_________________________________________________________________
dropout_2 (Dropout)          (None, 22, 32)            0         
_________________________________________________________________
flatten_1 (Flatten)          (None, 704)               0         
_________________________________________________________________
dense_3 (Dense)              (None, 3)                 2115      
=================================================================
Total params: 50,255,339
Trainable params: 255,139
Non-trainable params: 50,000,200
_________________________________________________________________
End: Training
Begin: Loading embeddings
End: Loading embeddings
[[50304, 134, 1321, 503, 1, 1, 1, 1, 1, 1, 1, 1, 1, 1, 1, 1, 1, 1, 1, 1, 1, 1], [8, 23464, 37048, 331385, 7, 312,
…
