…
[[16, 449, 31, 538, 183, 3543, 7070, 0, 64, 2283, 6296, 14, 13, 633, 13, 7070, 0, 32, 1389, 37, 231, 14, 1], [263, 1874, 263, 373, 1185, 64, 7, 39, 835, 15, 50, 54, 210, 95, 40981, 9, 424406, 14, 54, 95, 331, 205, 10], [701, 57, 139, 12, 9034, 36, 23, 1739, 10, 9318, 4, 610, 43, 85, 10, 779, 84, 803, 4, 18753, 27, 247, 7], [54, 4375, 2895, 28, 1297, 4, 13282, 40134, 513, 15, 54, 7, 25, 85, 56, 85, 161, 3659, 23, 7, 345, 213, 11], [36380, 3598, 86, 12484, 17, 4, 760, 43, 14, 4382, 8784, 9, 429, 6, 7, 699, 40, 134, 0, 0, 1, 1, 1]]
Begin: Training
_________________________________________________________________
Layer (type)                 Output Shape              Param #   
=================================================================
input_1 (InputLayer)         (None, 23)                0         
_________________________________________________________________
embedding_1 (Embedding)      (None, 23, 100)           50000200  
_________________________________________________________________
bidirectional_1 (Bidirection (None, 23, 256)           234496    
_________________________________________________________________
dense_1 (Dense)              (None, 23, 64)            16448     
_________________________________________________________________
dropout_1 (Dropout)          (None, 23, 64)            0         
_________________________________________________________________
dense_2 (Dense)              (None, 23, 32)            2080      
_________________________________________________________________
dropout_2 (Dropout)          (None, 23, 32)            0         
_________________________________________________________________
flatten_1 (Flatten)          (None, 736)               0         
_________________________________________________________________
dense_3 (Dense)              (None, 2)                 1474      
=================================================================
Total params: 50,254,698
Trainable params: 254,498
Non-trainable params: 50,000,200
_________________________________________________________________
End: Training
Begin: Loading embeddings
End: Loading embeddings
[[50304, 134, 1321, 503, 1, 1, 1, 1, 1, 1, 1, 1, 1, 1, 1, 1, 1, 1, 1, 1, 1, 1, 1], [8, 23464, 37048, 331385, 7, 3
…
