…
[[122522, 0, 401509, 0, 81917, 186589, 333249, 244358, 204404, 194916, 344687, 13478, 186589, 277516, 0, 290681, 325046, 338154, 0, 0, 1, 1, 1], [207923, 489993, 348887, 0, 117491, 0, 0, 0, 268989, 244358, 43681, 0, 0, 0, 69558, 425579, 20057, 284535, 0, 0, 62133, 0, 0], [232879, 0, 61609, 462356, 470630, 0, 188467, 244358, 425804, 0, 0, 0, 1, 1, 1, 1, 1, 1, 1, 1, 1, 1, 1], [18049, 0, 0, 430028, 277516, 194916, 151632, 436969, 417803, 57856, 261644, 0, 0, 206150, 207923, 207923, 0, 149576, 1, 1, 1, 1, 1], [84145, 377686, 395415, 357994, 57856, 251841, 141386, 132817, 394714, 151632, 0, 0, 497274, 0, 141386, 369367, 0, 86305, 129479, 0, 1, 1, 1]]
Begin: Training
_________________________________________________________________
Layer (type)                 Output Shape              Param #   
=================================================================
input_1 (InputLayer)         (None, 23)                0         
_________________________________________________________________
embedding_1 (Embedding)      (None, 23, 100)           50000200  
_________________________________________________________________
bidirectional_1 (Bidirection (None, 23, 256)           234496    
_________________________________________________________________
dense_1 (Dense)              (None, 23, 64)            16448     
_________________________________________________________________
dropout_1 (Dropout)          (None, 23, 64)            0         
_________________________________________________________________
dense_2 (Dense)              (None, 23, 32)            2080      
_________________________________________________________________
dropout_2 (Dropout)          (None, 23, 32)            0         
_________________________________________________________________
flatten_1 (Flatten)          (None, 736)               0         
_________________________________________________________________
dense_3 (Dense)              (None, 2)                 1474      
=================================================================
Total params: 50,254,698
Trainable params: 254,498
Non-trainable params: 50,000,200
_________________________________________________________________
End: Training
Begin: Loading embeddings
End: Loading embeddings
[[207923, 182888, 230437, 283892, 496992, 0, 344363, 203292, 181836, 230437, 0, 112066, 318596, 344363, 112414, 2
…
