…
1170, 364195, 346522, 0, 0, 1, 1, 1, 1, 1, 1], [1659, 13478, 404982, 151632, 189131, 0, 133401, 0, 344687, 375718, 0, 0, 0, 0, 0, 251389, 151632, 0, 348887, 0, 34126, 2524, 0], [278310, 82328, 364195, 228243, 473287, 293354, 143379, 277516, 483450, 114385, 425579, 400399, 0, 325046, 341149, 483319, 497032, 474222, 117491, 370311, 316521, 362541, 307881]]
Begin: Training
_________________________________________________________________
Layer (type)                 Output Shape              Param #   
=================================================================
input_1 (InputLayer)         (None, 23)                0         
_________________________________________________________________
embedding_1 (Embedding)      (None, 23, 100)           50000200  
_________________________________________________________________
bidirectional_1 (Bidirection (None, 23, 256)           234496    
_________________________________________________________________
dense_1 (Dense)              (None, 23, 64)            16448     
_________________________________________________________________
dropout_1 (Dropout)          (None, 23, 64)            0         
_________________________________________________________________
dense_2 (Dense)              (None, 23, 32)            2080      
_________________________________________________________________
dropout_2 (Dropout)          (None, 23, 32)            0         
_________________________________________________________________
flatten_1 (Flatten)          (None, 736)               0         
_________________________________________________________________
dense_3 (Dense)              (None, 2)                 1474      
=================================================================
Total params: 50,254,698
Trainable params: 254,498
Non-trainable params: 50,000,200
_________________________________________________________________
End: Training
Begin: Loading embeddings
End: Loading embeddings
[[396074, 330801, 478928, 218876, 1, 1, 1, 1, 1, 1, 1, 1, 1, 1, 1, 1, 1, 1, 1, 1, 1, 1, 1], [207923, 246711, 4112
…
