…
[[216, 22, 3561, 21, 775, 14, 6, 32, 10, 4, 3556, 17, 4, 929, 432, 15, 662, 41, 8853, 17, 4, 26], [2041, 321, 360, 4, 1776, 1114, 649, 15, 2041, 226, 42, 9, 77, 7, 351, 28, 231, 15, 192, 26, 867, 146], [106, 5845, 3223, 1688, 15, 6538, 40, 4194, 128, 4, 8777, 140, 34730, 33088, 10, 170, 9, 122410, 215, 140, 15574, 85], [106, 19, 64, 194, 119, 11827, 19, 373, 64, 21, 0, 0, 1, 1, 1, 1, 1, 1, 1, 1, 1, 1], [449, 175, 29, 915, 17, 4, 28, 128, 231, 815, 183, 81, 4262, 6, 172, 90, 6, 940, 50, 86, 270, 68]]
Begin: Training
_________________________________________________________________
Layer (type)                 Output Shape              Param #   
=================================================================
input_1 (InputLayer)         (None, 22)                0         
_________________________________________________________________
embedding_1 (Embedding)      (None, 22, 100)           50000200  
_________________________________________________________________
bidirectional_1 (Bidirection (None, 22, 256)           234496    
_________________________________________________________________
dense_1 (Dense)              (None, 22, 64)            16448     
_________________________________________________________________
dropout_1 (Dropout)          (None, 22, 64)            0         
_________________________________________________________________
dense_2 (Dense)              (None, 22, 32)            2080      
_________________________________________________________________
dropout_2 (Dropout)          (None, 22, 32)            0         
_________________________________________________________________
flatten_1 (Flatten)          (None, 704)               0         
_________________________________________________________________
dense_3 (Dense)              (None, 2)                 1410      
=================================================================
Total params: 50,254,634
Trainable params: 254,434
Non-trainable params: 50,000,200
_________________________________________________________________
End: Training
Begin: Loading embeddings
End: Loading embeddings
[[50304, 134, 1321, 503, 1, 1, 1, 1, 1, 1, 1, 1, 1, 1, 1, 1, 1, 1, 1, 1, 1, 1], [8, 23464, 37048, 331385, 7, 312,
…
