…
, 0, 275871, 0, 1, 1, 1, 1, 1, 1, 1, 1, 1, 1, 1, 1], [338277, 148424, 0, 189494, 205487, 0, 0, 144338, 14055, 315882, 41060, 261412, 0, 248864, 440220, 461353, 0, 196799, 0, 14055, 181010, 1, 1], [269890, 275871, 242040, 14055, 110640, 74835, 0, 270901, 118908, 87672, 0, 396718, 485687, 592, 0, 231637, 139778, 270901, 87010, 14055, 14055, 14055, 127067]]
Begin: Training
_________________________________________________________________
Layer (type)                 Output Shape              Param #   
=================================================================
input_1 (InputLayer)         (None, 23)                0         
_________________________________________________________________
embedding_1 (Embedding)      (None, 23, 100)           50000200  
_________________________________________________________________
bidirectional_1 (Bidirection (None, 23, 256)           234496    
_________________________________________________________________
dense_1 (Dense)              (None, 23, 64)            16448     
_________________________________________________________________
dropout_1 (Dropout)          (None, 23, 64)            0         
_________________________________________________________________
dense_2 (Dense)              (None, 23, 32)            2080      
_________________________________________________________________
dropout_2 (Dropout)          (None, 23, 32)            0         
_________________________________________________________________
flatten_1 (Flatten)          (None, 736)               0         
_________________________________________________________________
dense_3 (Dense)              (None, 2)                 1474      
=================================================================
Total params: 50,254,698
Trainable params: 254,498
Non-trainable params: 50,000,200
_________________________________________________________________
Epoch 1/30

  32/5872 [..............................] - ETA: 1:22 - loss: 0.9905 - acc: 0.3125
 128/5872 [..............................] - ETA: 23s - loss: 0.8828 - acc: 0.4922 
…
