…
, 0, 0, 26557, 0, 0, 0, 309969, 363939, 1573, 198609, 333699, 294738], [176411, 101623, 40492, 369258, 101623, 252114, 0, 0, 257759, 0, 48701, 469410, 309969, 198609, 0, 416827, 0, 0, 182128, 0, 75943, 1, 1], [401952, 193602, 0, 115128, 101623, 429922, 0, 204167, 292991, 48701, 116578, 351078, 265368, 0, 37602, 354596, 286563, 109971, 0, 32782, 1, 1, 1]]
Begin: Training
_________________________________________________________________
Layer (type)                 Output Shape              Param #   
=================================================================
input_1 (InputLayer)         (None, 23)                0         
_________________________________________________________________
embedding_1 (Embedding)      (None, 23, 100)           50000200  
_________________________________________________________________
bidirectional_1 (Bidirection (None, 23, 256)           234496    
_________________________________________________________________
dense_1 (Dense)              (None, 23, 64)            16448     
_________________________________________________________________
dropout_1 (Dropout)          (None, 23, 64)            0         
_________________________________________________________________
dense_2 (Dense)              (None, 23, 32)            2080      
_________________________________________________________________
dropout_2 (Dropout)          (None, 23, 32)            0         
_________________________________________________________________
flatten_1 (Flatten)          (None, 736)               0         
_________________________________________________________________
dense_3 (Dense)              (None, 2)                 1474      
=================================================================
Total params: 50,254,698
Trainable params: 254,498
Non-trainable params: 50,000,200
_________________________________________________________________
Epoch 1/30

  32/5872 [..............................] - ETA: 1:44 - loss: 0.9150 - acc: 0.5000
 128/5872 [..............................] - ETA: 28s - loss: 0.8854 - acc: 0.4531 
…
