…
, 306987, 80393, 252114, 7785, 473986, 0, 1, 1], [401952, 100679, 0, 63252, 0, 252114, 444199, 429922, 166627, 0, 176337, 49488, 0, 378052, 47519, 213171, 323908, 252114, 0, 227016, 287540, 198609], [181976, 428103, 49488, 93584, 63252, 335139, 252114, 339051, 492702, 363939, 287540, 349741, 0, 21970, 218276, 363939, 0, 42352, 251565, 0, 416827, 285169]]
Begin: Training
_________________________________________________________________
Layer (type)                 Output Shape              Param #   
=================================================================
input_1 (InputLayer)         (None, 22)                0         
_________________________________________________________________
embedding_1 (Embedding)      (None, 22, 100)           50000200  
_________________________________________________________________
bidirectional_1 (Bidirection (None, 22, 256)           234496    
_________________________________________________________________
dense_1 (Dense)              (None, 22, 64)            16448     
_________________________________________________________________
dropout_1 (Dropout)          (None, 22, 64)            0         
_________________________________________________________________
dense_2 (Dense)              (None, 22, 32)            2080      
_________________________________________________________________
dropout_2 (Dropout)          (None, 22, 32)            0         
_________________________________________________________________
flatten_1 (Flatten)          (None, 704)               0         
_________________________________________________________________
dense_3 (Dense)              (None, 2)                 1410      
=================================================================
Total params: 50,254,634
Trainable params: 254,434
Non-trainable params: 50,000,200
_________________________________________________________________
Epoch 1/30

  32/3957 [..............................] - ETA: 55s - loss: 0.8811 - acc: 0.6250
 128/3957 [..............................] - ETA: 15s - loss: 0.8052 - acc: 0.7969
…
