…
[[1377, 4, 114, 3241, 17, 19624, 9216, 23401, 137178, 15, 170, 31, 4510, 165, 1146, 3595, 12, 4, 28, 6, 1776, 1114], [117, 19, 6, 38, 4, 1451, 118, 6156, 168, 17, 531, 10, 4, 653, 474, 17, 90, 15, 19, 247, 7, 1200], [8, 3386, 106, 12104, 13848, 204, 6, 377, 67, 4660, 20, 90, 10, 383, 152, 1894, 14, 339781, 69, 631, 7, 485], [4, 149, 699, 118, 317, 517, 21, 451, 73, 424, 78, 79390, 24, 85, 7, 80624, 135, 22, 3382, 1429, 0, 1], [10059, 15, 2998, 2861, 18, 1880, 11, 34, 25, 965, 63059, 11, 3399, 128, 20, 10319, 58, 751, 152, 195, 0, 0]]
Begin: Training
_________________________________________________________________
Layer (type)                 Output Shape              Param #   
=================================================================
input_1 (InputLayer)         (None, 22)                0         
_________________________________________________________________
embedding_1 (Embedding)      (None, 22, 100)           50000200  
_________________________________________________________________
bidirectional_1 (Bidirection (None, 22, 256)           234496    
_________________________________________________________________
dense_1 (Dense)              (None, 22, 64)            16448     
_________________________________________________________________
dropout_1 (Dropout)          (None, 22, 64)            0         
_________________________________________________________________
dense_2 (Dense)              (None, 22, 32)            2080      
_________________________________________________________________
dropout_2 (Dropout)          (None, 22, 32)            0         
_________________________________________________________________
flatten_1 (Flatten)          (None, 704)               0         
_________________________________________________________________
dense_3 (Dense)              (None, 3)                 2115      
=================================================================
Total params: 50,255,339
Trainable params: 255,139
Non-trainable params: 50,000,200
_________________________________________________________________
Epoch 1/30

  32/5999 [..............................] - ETA: 1:37 - loss: 1.3481 - acc: 0.2500
 128/5999 [..............................] - ETA: 27s - loss: 1.2623 - acc: 0.3750 
…
