…
0, 109906, 293595, 317829, 483699, 0, 486270, 0, 396035, 0, 0, 0, 1, 1, 1], [341924, 0, 154649, 227495, 0, 154649, 0, 40209, 292232, 0, 85144, 109906, 261016, 85144, 0, 420266, 0, 1, 1, 1, 1, 1, 1], [483337, 0, 463341, 95224, 199400, 140366, 462814, 0, 435696, 0, 142576, 366220, 229058, 154649, 314574, 455628, 56056, 0, 418823, 415015, 65374, 0, 183684]]
Begin: Training
_________________________________________________________________
Layer (type)                 Output Shape              Param #   
=================================================================
input_1 (InputLayer)         (None, 23)                0         
_________________________________________________________________
embedding_1 (Embedding)      (None, 23, 100)           50000200  
_________________________________________________________________
bidirectional_1 (Bidirection (None, 23, 256)           234496    
_________________________________________________________________
dense_1 (Dense)              (None, 23, 64)            16448     
_________________________________________________________________
dropout_1 (Dropout)          (None, 23, 64)            0         
_________________________________________________________________
dense_2 (Dense)              (None, 23, 32)            2080      
_________________________________________________________________
dropout_2 (Dropout)          (None, 23, 32)            0         
_________________________________________________________________
flatten_1 (Flatten)          (None, 736)               0         
_________________________________________________________________
dense_3 (Dense)              (None, 2)                 1474      
=================================================================
Total params: 50,254,698
Trainable params: 254,498
Non-trainable params: 50,000,200
_________________________________________________________________
Epoch 1/30

  32/5872 [..............................] - ETA: 1:28 - loss: 0.9769 - acc: 0.5312
 128/5872 [..............................] - ETA: 24s - loss: 0.8956 - acc: 0.4922 
…
