…
[[38, 4, 1277, 23281, 775, 1163, 23, 2769, 9, 8993, 11, 0, 473227, 1, 1, 1, 1, 1, 1, 1, 1, 1], [0, 8, 458, 458, 183, 14115, 47, 511, 371, 145, 6, 80, 67432, 9, 79, 19, 8, 8539, 132, 0, 22, 4], [63, 146, 17, 626, 9, 3991, 282, 20, 8, 1, 1, 1, 1, 1, 1, 1, 1, 1, 1, 1, 1, 1], [373, 14293, 59, 87651, 65, 65344, 0, 13068, 14, 170, 22, 4434, 7, 2716, 12, 4, 331461, 14, 373, 170, 9850, 2111], [8, 8, 654, 41, 350, 1218, 31, 2737, 19, 67, 6111, 1229, 4375, 40, 540, 32, 6953, 626, 14, 416, 46, 41]]
Begin: Training
_________________________________________________________________
Layer (type)                 Output Shape              Param #   
=================================================================
input_1 (InputLayer)         (None, 22)                0         
_________________________________________________________________
embedding_1 (Embedding)      (None, 22, 100)           50000200  
_________________________________________________________________
bidirectional_1 (Bidirection (None, 22, 256)           234496    
_________________________________________________________________
dense_1 (Dense)              (None, 22, 64)            16448     
_________________________________________________________________
dropout_1 (Dropout)          (None, 22, 64)            0         
_________________________________________________________________
dense_2 (Dense)              (None, 22, 32)            2080      
_________________________________________________________________
dropout_2 (Dropout)          (None, 22, 32)            0         
_________________________________________________________________
flatten_1 (Flatten)          (None, 704)               0         
_________________________________________________________________
dense_3 (Dense)              (None, 2)                 1410      
=================================================================
Total params: 50,254,634
Trainable params: 254,434
Non-trainable params: 50,000,200
_________________________________________________________________
Epoch 1/30

  32/3957 [..............................] - ETA: 1:01 - loss: 0.8787 - acc: 0.6250
 128/3957 [..............................] - ETA: 16s - loss: 0.8056 - acc: 0.7188 
…
