…
[[6371, 17, 5457, 22, 31, 313, 4, 1342, 53, 6, 32, 6603, 185, 775, 4232, 2051, 18, 8, 0, 0, 1, 1], [524, 8, 872, 208, 376, 12149, 11, 224, 751, 452, 63, 166, 46, 6, 27750, 6, 79, 132, 59, 9, 9403, 371], [634, 7, 639, 72, 15, 4, 1146, 1335, 33, 4, 776, 15, 1263, 7, 23732, 9, 212, 366, 1095, 26, 17, 5978], [373, 4, 2862, 5302, 19, 15, 9, 10301, 803, 19, 14, 53, 11827, 15, 88, 681, 133018, 1, 1, 1, 1, 1], [13, 204, 6, 80, 6, 21454, 2227, 30, 411, 10, 1062, 1, 1, 1, 1, 1, 1, 1, 1, 1, 1, 1]]
Begin: Training
_________________________________________________________________
Layer (type)                 Output Shape              Param #   
=================================================================
input_1 (InputLayer)         (None, 22)                0         
_________________________________________________________________
embedding_1 (Embedding)      (None, 22, 100)           50000200  
_________________________________________________________________
bidirectional_1 (Bidirection (None, 22, 256)           234496    
_________________________________________________________________
dense_1 (Dense)              (None, 22, 64)            16448     
_________________________________________________________________
dropout_1 (Dropout)          (None, 22, 64)            0         
_________________________________________________________________
dense_2 (Dense)              (None, 22, 32)            2080      
_________________________________________________________________
dropout_2 (Dropout)          (None, 22, 32)            0         
_________________________________________________________________
flatten_1 (Flatten)          (None, 704)               0         
_________________________________________________________________
dense_3 (Dense)              (None, 2)                 1410      
=================================================================
Total params: 50,254,634
Trainable params: 254,434
Non-trainable params: 50,000,200
_________________________________________________________________
Epoch 1/30

  32/3957 [..............................] - ETA: 1:03 - loss: 0.8257 - acc: 0.7500
 128/3957 [..............................] - ETA: 17s - loss: 0.8305 - acc: 0.6484 
…
