…
[[231, 26, 4613, 619, 21, 788, 4567, 15, 9, 13480, 406, 13, 23627, 37, 38, 4, 106453, 13, 2316, 9, 38, 4, 23458], [4262, 24527, 22, 4, 2240, 12, 391, 1728, 64, 239, 1109, 282, 3876, 17489, 373, 32, 348, 15, 4, 462, 221, 68, 4025], [370, 29, 2780, 31808, 6, 3055, 37, 229, 6, 409, 1444, 10, 585, 14, 40, 2109, 3543, 7070, 0, 239, 61, 19, 217], [13, 204, 5014, 231, 105, 1, 1, 1, 1, 1, 1, 1, 1, 1, 1, 1, 1, 1, 1, 1, 1, 1, 1], [21957, 46, 10, 1157, 448, 4189, 20238, 15, 54, 7, 3864, 452, 152, 38, 14, 1, 1, 1, 1, 1, 1, 1, 1]]
Begin: Training
_________________________________________________________________
Layer (type)                 Output Shape              Param #   
=================================================================
input_1 (InputLayer)         (None, 23)                0         
_________________________________________________________________
embedding_1 (Embedding)      (None, 23, 100)           50000200  
_________________________________________________________________
bidirectional_1 (Bidirection (None, 23, 256)           234496    
_________________________________________________________________
dense_1 (Dense)              (None, 23, 64)            16448     
_________________________________________________________________
dropout_1 (Dropout)          (None, 23, 64)            0         
_________________________________________________________________
dense_2 (Dense)              (None, 23, 32)            2080      
_________________________________________________________________
dropout_2 (Dropout)          (None, 23, 32)            0         
_________________________________________________________________
flatten_1 (Flatten)          (None, 736)               0         
_________________________________________________________________
dense_3 (Dense)              (None, 2)                 1474      
=================================================================
Total params: 50,254,698
Trainable params: 254,498
Non-trainable params: 50,000,200
_________________________________________________________________
Epoch 1/30

  32/5872 [..............................] - ETA: 1:33 - loss: 0.8506 - acc: 0.5312
 128/5872 [..............................] - ETA: 25s - loss: 0.8657 - acc: 0.4766 
…
