…
[[30, 397, 79, 19, 38, 231, 17, 67, 109, 1677, 4680, 10, 2031, 9, 14734, 67, 6898, 11602, 10, 4189, 11, 1], [304, 755, 202, 203, 511, 749, 0, 15, 289, 32, 760, 2135, 18, 13055, 0, 1, 1, 1, 1, 1, 1, 1], [13, 400, 302, 16, 194, 26339, 29725, 9, 13, 167, 1273, 6, 4, 610, 215, 13, 221, 10, 1447, 1675, 121, 3287], [8, 4, 48, 56, 356, 1429, 373, 87, 10, 4, 212, 368, 22, 172, 37, 26781, 3683, 14, 1429, 22, 35372, 26781], [181, 28, 14, 0, 9909, 23, 1971, 28, 1566, 1904, 11, 69, 11842, 1917, 40, 42153, 3817, 157, 20, 47545, 23663, 14]]
Begin: Training
_________________________________________________________________
Layer (type)                 Output Shape              Param #   
=================================================================
input_1 (InputLayer)         (None, 22)                0         
_________________________________________________________________
embedding_1 (Embedding)      (None, 22, 100)           50000200  
_________________________________________________________________
bidirectional_1 (Bidirection (None, 22, 256)           234496    
_________________________________________________________________
dense_1 (Dense)              (None, 22, 64)            16448     
_________________________________________________________________
dropout_1 (Dropout)          (None, 22, 64)            0         
_________________________________________________________________
dense_2 (Dense)              (None, 22, 32)            2080      
_________________________________________________________________
dropout_2 (Dropout)          (None, 22, 32)            0         
_________________________________________________________________
flatten_1 (Flatten)          (None, 704)               0         
_________________________________________________________________
dense_3 (Dense)              (None, 3)                 2115      
=================================================================
Total params: 50,255,339
Trainable params: 255,139
Non-trainable params: 50,000,200
_________________________________________________________________
Epoch 1/30

  32/5999 [..............................] - ETA: 1:41 - loss: 1.2964 - acc: 0.3438
 128/5999 [..............................] - ETA: 28s - loss: 1.2401 - acc: 0.4609 
…
