…
[[1701, 23209, 17, 0, 84, 210, 84, 170, 373, 32, 7, 297, 392, 15, 50, 4, 244, 22, 7, 134840, 14, 1, 1], [37532, 134, 236, 2430, 15, 5845, 22, 10, 165, 697, 7347, 12, 27015, 15, 1898, 1479, 0, 23, 4, 489, 15, 65505, 8980], [115, 22, 4, 14100, 7070, 0, 31177, 7070, 0, 78, 19522, 6540, 7324, 1665, 35681, 143, 919, 203, 511, 14100, 40, 1345, 373], [8, 0, 15, 36152, 9, 373, 44, 38, 308887, 31, 64, 9325, 14, 0, 839, 76270, 9, 6348, 12, 2086, 14, 242002, 17], [373, 14293, 59, 87651, 65, 65344, 0, 13068, 14, 170, 22, 4434, 7, 2716, 12, 4, 331461, 14, 373, 170, 9850, 2111, 4]]
Begin: Training
_________________________________________________________________
Layer (type)                 Output Shape              Param #   
=================================================================
input_1 (InputLayer)         (None, 23)                0         
_________________________________________________________________
embedding_1 (Embedding)      (None, 23, 100)           50000200  
_________________________________________________________________
bidirectional_1 (Bidirection (None, 23, 256)           234496    
_________________________________________________________________
dense_1 (Dense)              (None, 23, 64)            16448     
_________________________________________________________________
dropout_1 (Dropout)          (None, 23, 64)            0         
_________________________________________________________________
dense_2 (Dense)              (None, 23, 32)            2080      
_________________________________________________________________
dropout_2 (Dropout)          (None, 23, 32)            0         
_________________________________________________________________
flatten_1 (Flatten)          (None, 736)               0         
_________________________________________________________________
dense_3 (Dense)              (None, 2)                 1474      
=================================================================
Total params: 50,254,698
Trainable params: 254,498
Non-trainable params: 50,000,200
_________________________________________________________________
Epoch 1/30

  32/5872 [..............................] - ETA: 59s - loss: 0.8789 - acc: 0.4375
 128/5872 [..............................] - ETA: 17s - loss: 0.8583 - acc: 0.5234
…
