…
[[181010, 202051, 88150, 0, 0, 487450, 0, 77766, 490142, 115990, 0, 14055, 14055, 14055, 1, 1, 1, 1, 1, 1, 1, 1], [342164, 0, 0, 182351, 212861, 0, 0, 200254, 27927, 95388, 363137, 456128, 459963, 0, 226286, 353105, 0, 235665, 133895, 0, 194534, 0], [449929, 234309, 0, 181010, 145795, 30102, 359401, 0, 451976, 347699, 431361, 30102, 0, 0, 292171, 200254, 297868, 0, 0, 0, 210557, 181010], [0, 0, 473473, 360979, 0, 235665, 0, 227368, 0, 0, 126277, 14055, 0, 329095, 17282, 136346, 235665, 301886, 273609, 0, 0, 497175], [181010, 459963, 0, 0, 0, 200254, 0, 469375, 0, 0, 62111, 0, 93032, 0, 235665, 0, 30102, 0, 321865, 384083, 0, 0]]
Begin: Training
_________________________________________________________________
Layer (type)                 Output Shape              Param #   
=================================================================
input_1 (InputLayer)         (None, 22)                0         
_________________________________________________________________
embedding_1 (Embedding)      (None, 22, 100)           50000200  
_________________________________________________________________
bidirectional_1 (Bidirection (None, 22, 256)           234496    
_________________________________________________________________
dense_1 (Dense)              (None, 22, 64)            16448     
_________________________________________________________________
dropout_1 (Dropout)          (None, 22, 64)            0         
_________________________________________________________________
dense_2 (Dense)              (None, 22, 32)            2080      
_________________________________________________________________
dropout_2 (Dropout)          (None, 22, 32)            0         
_________________________________________________________________
flatten_1 (Flatten)          (None, 704)               0         
_________________________________________________________________
dense_3 (Dense)              (None, 3)                 2115      
=================================================================
Total params: 50,255,339
Trainable params: 255,139
Non-trainable params: 50,000,200
_________________________________________________________________
Epoch 1/30

  32/5999 [..............................] - ETA: 1:37 - loss: 1.3783 - acc: 0.3750
 128/5999 [..............................] - ETA: 27s - loss: 1.2487 - acc: 0.4766 
…
