…
[[36, 2446, 21, 289, 115226, 6, 32, 391, 64, 15908, 588, 16517, 50, 19003, 77, 0, 10, 4, 926, 866, 304, 1], [30, 26, 63, 1489, 280, 7, 640, 235, 10, 8, 20, 8, 26, 9, 1821, 23359, 920, 10, 26, 1, 1, 1], [867, 161, 7, 25, 1165, 231, 14, 1138, 95, 161, 4, 3820, 2307, 295, 1, 1, 1, 1, 1, 1, 1, 1], [8, 8, 3187, 22, 7, 56, 392, 176, 18, 4, 310, 14, 56, 322, 137, 443, 10, 4, 365, 14, 3187, 15], [1404, 284, 17, 4, 929, 398, 231, 14, 1462, 17, 25, 929, 432, 3537, 85, 397, 32, 505, 68, 6, 60, 4]]
Begin: Training
_________________________________________________________________
Layer (type)                 Output Shape              Param #   
=================================================================
input_1 (InputLayer)         (None, 22)                0         
_________________________________________________________________
embedding_1 (Embedding)      (None, 22, 100)           50000200  
_________________________________________________________________
bidirectional_1 (Bidirection (None, 22, 256)           234496    
_________________________________________________________________
dense_1 (Dense)              (None, 22, 64)            16448     
_________________________________________________________________
dropout_1 (Dropout)          (None, 22, 64)            0         
_________________________________________________________________
dense_2 (Dense)              (None, 22, 32)            2080      
_________________________________________________________________
dropout_2 (Dropout)          (None, 22, 32)            0         
_________________________________________________________________
flatten_1 (Flatten)          (None, 704)               0         
_________________________________________________________________
dense_3 (Dense)              (None, 3)                 2115      
=================================================================
Total params: 50,255,339
Trainable params: 255,139
Non-trainable params: 50,000,200
_________________________________________________________________
Epoch 1/30

  32/5999 [..............................] - ETA: 1:06 - loss: 1.2373 - acc: 0.5625
 128/5999 [..............................] - ETA: 19s - loss: 1.2549 - acc: 0.4844 
…
