…
[[21454, 2227, 22, 4032, 61, 452, 12363, 44, 38, 95, 14, 13, 524, 204, 6, 32, 1967, 20, 9276, 18206, 26, 1], [13, 204, 6, 80, 6, 21454, 2227, 30, 411, 10, 1062, 1, 1, 1, 1, 1, 1, 1, 1, 1, 1, 1], [6544, 4813, 204, 4, 4860, 11163, 6, 160, 132, 96, 7, 273, 380, 11, 0, 1, 1, 1, 1, 1, 1, 1], [3953, 263, 1777, 11, 11, 11, 24003, 29198, 20, 7, 15366, 547, 24, 4, 1447, 12, 4, 139, 24003, 15949, 107698, 1], [3833, 1168, 22076, 91, 17181, 30908, 20, 3343, 1297, 18484, 10641, 11946, 2391, 14, 0, 0, 1, 1, 1, 1, 1, 1]]
Begin: Training
_________________________________________________________________
Layer (type)                 Output Shape              Param #   
=================================================================
input_1 (InputLayer)         (None, 22)                0         
_________________________________________________________________
embedding_1 (Embedding)      (None, 22, 100)           50000200  
_________________________________________________________________
bidirectional_1 (Bidirection (None, 22, 256)           234496    
_________________________________________________________________
dense_1 (Dense)              (None, 22, 64)            16448     
_________________________________________________________________
dropout_1 (Dropout)          (None, 22, 64)            0         
_________________________________________________________________
dense_2 (Dense)              (None, 22, 32)            2080      
_________________________________________________________________
dropout_2 (Dropout)          (None, 22, 32)            0         
_________________________________________________________________
flatten_1 (Flatten)          (None, 704)               0         
_________________________________________________________________
dense_3 (Dense)              (None, 2)                 1410      
=================================================================
Total params: 50,254,634
Trainable params: 254,434
Non-trainable params: 50,000,200
_________________________________________________________________
Epoch 1/30

  32/3957 [..............................] - ETA: 57s - loss: 0.8552 - acc: 0.6562
 128/3957 [..............................] - ETA: 15s - loss: 0.8051 - acc: 0.7266
…
