…
[[3736, 3874, 40, 8993, 108, 32, 2558, 613, 4, 71126, 231, 14, 0, 1, 1, 1, 1, 1, 1, 1, 1, 1], [39, 38, 12, 19, 15, 111, 19, 322, 17, 1182, 29, 7, 25, 27750, 11, 53, 0, 0, 1, 1, 1, 1], [9325, 15, 19, 373, 68, 249, 28932, 146, 15, 50, 50613, 174, 41, 534, 14, 1, 1, 1, 1, 1, 1, 1], [1363, 5274, 9, 5362, 6977, 53, 16434, 10, 8598, 8451, 17, 69982, 586, 18779, 53, 44, 823, 18, 19375, 38885, 20, 6014], [11248, 6703, 75, 3991, 282, 231, 135, 1125, 251, 52232, 16806, 224, 54, 166, 6, 32, 7, 56, 124, 11, 11, 11]]
Begin: Training
_________________________________________________________________
Layer (type)                 Output Shape              Param #   
=================================================================
input_1 (InputLayer)         (None, 22)                0         
_________________________________________________________________
embedding_1 (Embedding)      (None, 22, 100)           50000200  
_________________________________________________________________
bidirectional_1 (Bidirection (None, 22, 256)           234496    
_________________________________________________________________
dense_1 (Dense)              (None, 22, 64)            16448     
_________________________________________________________________
dropout_1 (Dropout)          (None, 22, 64)            0         
_________________________________________________________________
dense_2 (Dense)              (None, 22, 32)            2080      
_________________________________________________________________
dropout_2 (Dropout)          (None, 22, 32)            0         
_________________________________________________________________
flatten_1 (Flatten)          (None, 704)               0         
_________________________________________________________________
dense_3 (Dense)              (None, 3)                 2115      
=================================================================
Total params: 50,255,339
Trainable params: 255,139
Non-trainable params: 50,000,200
_________________________________________________________________
Epoch 1/30

  32/5999 [..............................] - ETA: 1:25 - loss: 1.3009 - acc: 0.3750
 128/5999 [..............................] - ETA: 23s - loss: 1.2430 - acc: 0.3906 
…
