…
272303, 200917, 0, 295259, 319214, 41202, 261669], [145678, 222045, 315614, 288703, 313173, 119461, 352133, 359630, 0, 145678, 165313, 104038, 465382, 442526, 112205, 0, 140330, 396567, 119461, 381812, 156126, 1], [0, 0, 253373, 443525, 307568, 318173, 0, 119461, 41202, 466702, 281504, 0, 0, 216078, 1197, 116404, 253758, 368239, 37732, 406476, 95740, 0]]
Begin: Training
_________________________________________________________________
Layer (type)                 Output Shape              Param #   
=================================================================
input_1 (InputLayer)         (None, 22)                0         
_________________________________________________________________
embedding_1 (Embedding)      (None, 22, 100)           50000200  
_________________________________________________________________
bidirectional_1 (Bidirection (None, 22, 256)           234496    
_________________________________________________________________
dense_1 (Dense)              (None, 22, 64)            16448     
_________________________________________________________________
dropout_1 (Dropout)          (None, 22, 64)            0         
_________________________________________________________________
dense_2 (Dense)              (None, 22, 32)            2080      
_________________________________________________________________
dropout_2 (Dropout)          (None, 22, 32)            0         
_________________________________________________________________
flatten_1 (Flatten)          (None, 704)               0         
_________________________________________________________________
dense_3 (Dense)              (None, 2)                 1410      
=================================================================
Total params: 50,254,634
Trainable params: 254,434
Non-trainable params: 50,000,200
_________________________________________________________________
Epoch 1/30

  32/3957 [..............................] - ETA: 56s - loss: 0.8899 - acc: 0.6875
 128/3957 [..............................] - ETA: 15s - loss: 0.8157 - acc: 0.7891
…
