…
[[12104, 13848, 22, 891, 4, 926, 38230, 1856, 12, 38, 43, 1, 1, 1, 1, 1, 1, 1, 1, 1, 1, 1, 1], [8, 8, 8, 22, 479, 1746, 2183, 689, 10, 1128, 106, 19, 322, 44, 3082, 503, 1, 1, 1, 1, 1, 1, 1], [10319, 156, 22, 240, 73, 6, 8423, 21, 213, 14, 13, 868, 217, 6, 79, 24, 226, 1, 1, 1, 1, 1, 1], [2738, 32, 23, 4, 7275, 5429, 26, 27, 167, 4485, 1255, 912, 1381, 74, 5849, 26, 298, 1232, 242, 32, 9227, 17, 4], [3570, 56360, 373, 47, 67, 826, 12, 3244, 3708, 7579, 14, 708, 171461, 9, 24570, 268, 12, 4, 43, 14, 0, 1, 1]]
Begin: Training
_________________________________________________________________
Layer (type)                 Output Shape              Param #   
=================================================================
input_1 (InputLayer)         (None, 23)                0         
_________________________________________________________________
embedding_1 (Embedding)      (None, 23, 100)           50000200  
_________________________________________________________________
bidirectional_1 (Bidirection (None, 23, 256)           234496    
_________________________________________________________________
dense_1 (Dense)              (None, 23, 64)            16448     
_________________________________________________________________
dropout_1 (Dropout)          (None, 23, 64)            0         
_________________________________________________________________
dense_2 (Dense)              (None, 23, 32)            2080      
_________________________________________________________________
dropout_2 (Dropout)          (None, 23, 32)            0         
_________________________________________________________________
flatten_1 (Flatten)          (None, 736)               0         
_________________________________________________________________
dense_3 (Dense)              (None, 2)                 1474      
=================================================================
Total params: 50,254,698
Trainable params: 254,498
Non-trainable params: 50,000,200
_________________________________________________________________
Epoch 1/30

  32/5872 [..............................] - ETA: 1:24 - loss: 0.9006 - acc: 0.5312
 128/5872 [..............................] - ETA: 23s - loss: 0.8733 - acc: 0.5000 
…
