…
101101, 0, 0, 126937, 328801, 287540, 0, 55549, 128333, 190646, 47519], [469410, 0, 252114, 131060, 0, 0, 286748, 26557, 42352, 279714, 369258, 367494, 0, 434007, 63252, 134474, 42352, 47933, 131060, 0, 0, 251565], [203816, 63252, 0, 252114, 369151, 0, 256835, 157720, 323318, 0, 0, 366372, 228814, 198609, 215702, 0, 416827, 227016, 0, 0, 102431, 286748]]
Begin: Training
_________________________________________________________________
Layer (type)                 Output Shape              Param #   
=================================================================
input_1 (InputLayer)         (None, 22)                0         
_________________________________________________________________
embedding_1 (Embedding)      (None, 22, 100)           50000200  
_________________________________________________________________
bidirectional_1 (Bidirection (None, 22, 256)           234496    
_________________________________________________________________
dense_1 (Dense)              (None, 22, 64)            16448     
_________________________________________________________________
dropout_1 (Dropout)          (None, 22, 64)            0         
_________________________________________________________________
dense_2 (Dense)              (None, 22, 32)            2080      
_________________________________________________________________
dropout_2 (Dropout)          (None, 22, 32)            0         
_________________________________________________________________
flatten_1 (Flatten)          (None, 704)               0         
_________________________________________________________________
dense_3 (Dense)              (None, 3)                 2115      
=================================================================
Total params: 50,255,339
Trainable params: 255,139
Non-trainable params: 50,000,200
_________________________________________________________________
Epoch 1/30

  32/5999 [..............................] - ETA: 1:25 - loss: 1.3065 - acc: 0.3438
 128/5999 [..............................] - ETA: 23s - loss: 1.2739 - acc: 0.3594 
…
