…
08, 460899, 113768, 94391, 55461, 460899, 127779, 0, 282261, 0, 26079, 0, 348503, 484694, 336638, 0, 0, 1, 1, 1], [8549, 72487, 0, 0, 0, 85998, 0, 267208, 0, 158833, 0, 0, 55461, 484694, 0, 1, 1, 1, 1, 1, 1, 1], [369563, 194042, 0, 0, 408004, 22521, 0, 0, 413858, 0, 415003, 143598, 32230, 413858, 357153, 472766, 313953, 229789, 0, 466413, 349775, 88396]]
Begin: Training
_________________________________________________________________
Layer (type)                 Output Shape              Param #   
=================================================================
input_1 (InputLayer)         (None, 22)                0         
_________________________________________________________________
embedding_1 (Embedding)      (None, 22, 100)           50000200  
_________________________________________________________________
bidirectional_1 (Bidirection (None, 22, 256)           234496    
_________________________________________________________________
dense_1 (Dense)              (None, 22, 64)            16448     
_________________________________________________________________
dropout_1 (Dropout)          (None, 22, 64)            0         
_________________________________________________________________
dense_2 (Dense)              (None, 22, 32)            2080      
_________________________________________________________________
dropout_2 (Dropout)          (None, 22, 32)            0         
_________________________________________________________________
flatten_1 (Flatten)          (None, 704)               0         
_________________________________________________________________
dense_3 (Dense)              (None, 3)                 2115      
=================================================================
Total params: 50,255,339
Trainable params: 255,139
Non-trainable params: 50,000,200
_________________________________________________________________
Epoch 1/30

  32/5999 [..............................] - ETA: 1:35 - loss: 1.3198 - acc: 0.3750
  96/5999 [..............................] - ETA: 35s - loss: 1.2865 - acc: 0.4062 
…
