…
[[77, 4, 25, 2698, 46, 9, 680, 11, 4189, 529, 4110, 11, 11, 1339, 32, 7312, 24, 231, 11, 79, 19, 18], [929, 8993, 1531, 8993, 1531, 345, 20, 59, 70272, 65, 15, 183860, 53, 345, 13148, 24798, 0, 0, 1, 1, 1, 1], [21, 22, 23, 4375, 2895, 11, 159, 275, 6, 79, 24, 231, 11, 0, 1, 1, 1, 1, 1, 1, 1, 1], [1113, 254, 937, 6, 4, 25, 965, 12, 14185, 631, 23, 4, 21341, 23, 4, 2551, 84, 1, 1, 1, 1, 1], [476, 181, 1013, 10965, 18, 5014, 231, 14, 118, 1343, 6, 60, 4026, 20, 29, 84, 1, 1, 1, 1, 1, 1]]
Begin: Training
_________________________________________________________________
Layer (type)                 Output Shape              Param #   
=================================================================
input_1 (InputLayer)         (None, 22)                0         
_________________________________________________________________
embedding_1 (Embedding)      (None, 22, 100)           50000200  
_________________________________________________________________
bidirectional_1 (Bidirection (None, 22, 256)           234496    
_________________________________________________________________
dense_1 (Dense)              (None, 22, 64)            16448     
_________________________________________________________________
dropout_1 (Dropout)          (None, 22, 64)            0         
_________________________________________________________________
dense_2 (Dense)              (None, 22, 32)            2080      
_________________________________________________________________
dropout_2 (Dropout)          (None, 22, 32)            0         
_________________________________________________________________
flatten_1 (Flatten)          (None, 704)               0         
_________________________________________________________________
dense_3 (Dense)              (None, 3)                 2115      
=================================================================
Total params: 50,255,339
Trainable params: 255,139
Non-trainable params: 50,000,200
_________________________________________________________________
Epoch 1/30

  32/5999 [..............................] - ETA: 1:35 - loss: 1.2976 - acc: 0.2812
 128/5999 [..............................] - ETA: 26s - loss: 1.2378 - acc: 0.4375 
…
