…
[[1292, 10, 16, 592, 15, 1765, 357, 15, 489, 4286, 10, 15, 1473, 6, 16, 26339, 15, 3386, 2112, 61, 4, 745], [8, 111, 11170, 11, 593, 7, 1771, 231, 10, 4, 25, 9773, 4299, 1, 1, 1, 1, 1, 1, 1, 1, 1], [109, 1979, 91, 1776, 16472, 77, 6, 4, 586, 13311, 5953, 35, 1049, 4887, 149046, 14, 1, 1, 1, 1, 1, 1], [77784, 63, 166, 6, 4, 1746, 2183, 535, 5330, 231, 26377, 1, 1, 1, 1, 1, 1, 1, 1, 1, 1, 1], [1473, 6, 67, 917, 1423, 23, 4, 148230, 14, 54, 952, 16, 213, 665, 7, 55, 2487, 14, 1, 1, 1, 1]]
Begin: Training
_________________________________________________________________
Layer (type)                 Output Shape              Param #   
=================================================================
input_1 (InputLayer)         (None, 22)                0         
_________________________________________________________________
embedding_1 (Embedding)      (None, 22, 100)           50000200  
_________________________________________________________________
bidirectional_1 (Bidirection (None, 22, 256)           234496    
_________________________________________________________________
dense_1 (Dense)              (None, 22, 64)            16448     
_________________________________________________________________
dropout_1 (Dropout)          (None, 22, 64)            0         
_________________________________________________________________
dense_2 (Dense)              (None, 22, 32)            2080      
_________________________________________________________________
dropout_2 (Dropout)          (None, 22, 32)            0         
_________________________________________________________________
flatten_1 (Flatten)          (None, 704)               0         
_________________________________________________________________
dense_3 (Dense)              (None, 2)                 1410      
=================================================================
Total params: 50,254,634
Trainable params: 254,434
Non-trainable params: 50,000,200
_________________________________________________________________
Epoch 1/30

  32/3957 [..............................] - ETA: 39s - loss: 0.8436 - acc: 0.7188
 128/3957 [..............................] - ETA: 11s - loss: 0.8110 - acc: 0.7578
…
