…
[[4375, 22, 4483, 314, 180, 598, 4356, 131, 40855, 48, 598, 4356, 14, 63, 166, 6, 47, 6, 632, 21, 37, 231], [8, 9325, 872, 74, 688, 15, 268, 1989, 978, 60, 926, 688, 14, 1041, 14, 9325, 674, 68, 377, 269, 20, 1728], [8, 45, 96, 710, 11, 11, 11, 373, 19, 28, 32, 104, 1640, 203, 4, 816, 552, 1881, 36947, 14, 7432, 1], [9958, 428, 1126, 11, 8539, 929, 15, 9028, 391, 56, 6, 49470, 95, 9, 3249, 16, 946, 17, 1, 1, 1, 1], [332, 22, 4675, 505, 6, 20056, 29, 208, 166, 6, 67432, 231, 51, 1, 1, 1, 1, 1, 1, 1, 1, 1]]
Begin: Training
_________________________________________________________________
Layer (type)                 Output Shape              Param #   
=================================================================
input_1 (InputLayer)         (None, 22)                0         
_________________________________________________________________
embedding_1 (Embedding)      (None, 22, 100)           50000200  
_________________________________________________________________
bidirectional_1 (Bidirection (None, 22, 256)           234496    
_________________________________________________________________
dense_1 (Dense)              (None, 22, 64)            16448     
_________________________________________________________________
dropout_1 (Dropout)          (None, 22, 64)            0         
_________________________________________________________________
dense_2 (Dense)              (None, 22, 32)            2080      
_________________________________________________________________
dropout_2 (Dropout)          (None, 22, 32)            0         
_________________________________________________________________
flatten_1 (Flatten)          (None, 704)               0         
_________________________________________________________________
dense_3 (Dense)              (None, 2)                 1410      
=================================================================
Total params: 50,254,634
Trainable params: 254,434
Non-trainable params: 50,000,200
_________________________________________________________________
Epoch 1/30

  32/3957 [..............................] - ETA: 1:04 - loss: 0.8449 - acc: 0.6250
 128/3957 [..............................] - ETA: 17s - loss: 0.8258 - acc: 0.7031 
…
