…
[[222, 37, 16, 521, 10, 202321, 17, 11842, 11, 632, 24, 17, 314, 11, 0, 86, 692, 0, 1, 1, 1, 1, 1], [867, 98160, 95, 231, 20, 3187, 9, 9975, 13, 1907, 249, 867, 464, 32, 854, 6, 1035, 231, 13, 249, 24, 464, 32], [224, 149, 15, 1294, 35721, 20057, 4, 1277, 10, 21454, 2227, 3076, 18, 0, 84001, 3884, 206, 15, 0, 15442, 11, 9597, 1883], [449, 21, 1554, 373, 32, 48, 12, 4, 268, 9160, 9995, 2393, 50, 24, 883, 64, 2231, 9, 1297, 7, 1501, 30423, 11], [8, 13, 482, 79, 40, 50, 168, 22, 7, 2837, 96, 1105, 23, 0, 42, 20, 21341, 445, 34494, 1, 1, 1, 1]]
Begin: Training
_________________________________________________________________
Layer (type)                 Output Shape              Param #   
=================================================================
input_1 (InputLayer)         (None, 23)                0         
_________________________________________________________________
embedding_1 (Embedding)      (None, 23, 100)           50000200  
_________________________________________________________________
bidirectional_1 (Bidirection (None, 23, 256)           234496    
_________________________________________________________________
dense_1 (Dense)              (None, 23, 64)            16448     
_________________________________________________________________
dropout_1 (Dropout)          (None, 23, 64)            0         
_________________________________________________________________
dense_2 (Dense)              (None, 23, 32)            2080      
_________________________________________________________________
dropout_2 (Dropout)          (None, 23, 32)            0         
_________________________________________________________________
flatten_1 (Flatten)          (None, 736)               0         
_________________________________________________________________
dense_3 (Dense)              (None, 2)                 1474      
=================================================================
Total params: 50,254,698
Trainable params: 254,498
Non-trainable params: 50,000,200
_________________________________________________________________
Epoch 1/30

  32/5872 [..............................] - ETA: 1:32 - loss: 0.8895 - acc: 0.5000
 128/5872 [..............................] - ETA: 25s - loss: 0.8607 - acc: 0.4766 
…
