…
, 0, 484739, 436281, 475053, 261894, 0, 0], [0, 498439, 0, 77503, 113059, 185528, 474489, 0, 326078, 148607, 0, 0, 277596, 25255, 200917, 448211, 465382, 41202, 291045, 113059, 37485, 253675], [134834, 316487, 496803, 66849, 177398, 381812, 41202, 240242, 93473, 465382, 41202, 372048, 113059, 492319, 119461, 442037, 0, 200917, 247197, 483459, 113059, 0]]
Begin: Training
_________________________________________________________________
Layer (type)                 Output Shape              Param #   
=================================================================
input_1 (InputLayer)         (None, 22)                0         
_________________________________________________________________
embedding_1 (Embedding)      (None, 22, 100)           50000200  
_________________________________________________________________
bidirectional_1 (Bidirection (None, 22, 256)           234496    
_________________________________________________________________
dense_1 (Dense)              (None, 22, 64)            16448     
_________________________________________________________________
dropout_1 (Dropout)          (None, 22, 64)            0         
_________________________________________________________________
dense_2 (Dense)              (None, 22, 32)            2080      
_________________________________________________________________
dropout_2 (Dropout)          (None, 22, 32)            0         
_________________________________________________________________
flatten_1 (Flatten)          (None, 704)               0         
_________________________________________________________________
dense_3 (Dense)              (None, 3)                 2115      
=================================================================
Total params: 50,255,339
Trainable params: 255,139
Non-trainable params: 50,000,200
_________________________________________________________________
Epoch 1/30

  32/5999 [..............................] - ETA: 1:26 - loss: 1.3572 - acc: 0.4688
 128/5999 [..............................] - ETA: 23s - loss: 1.2730 - acc: 0.4922 
…
