…
[[9718, 373, 2883, 123088, 62539, 12, 4, 3820, 2307, 305, 9, 48279, 2400, 751, 152, 38, 0, 21259, 9236, 12842, 1, 1, 1], [213, 51, 5842, 302, 624, 15, 1473, 6, 3991, 282, 20, 16, 39, 13735, 1, 1, 1, 1, 1, 1, 1, 1, 1], [21, 108, 1198, 487, 265360, 10, 4, 25, 12709, 14, 0, 1, 1, 1, 1, 1, 1, 1, 1, 1, 1, 1, 1], [106, 19, 696, 4, 2166, 49248, 247, 411, 31, 275, 1662, 4, 1509, 83, 49248, 593, 37, 884, 136, 60, 1265, 10906, 75], [8, 13, 39, 30, 133, 620, 262, 166, 6, 67432, 485, 1062, 1713, 1, 1, 1, 1, 1, 1, 1, 1, 1, 1]]
Begin: Training
_________________________________________________________________
Layer (type)                 Output Shape              Param #   
=================================================================
input_1 (InputLayer)         (None, 23)                0         
_________________________________________________________________
embedding_1 (Embedding)      (None, 23, 100)           50000200  
_________________________________________________________________
bidirectional_1 (Bidirection (None, 23, 256)           234496    
_________________________________________________________________
dense_1 (Dense)              (None, 23, 64)            16448     
_________________________________________________________________
dropout_1 (Dropout)          (None, 23, 64)            0         
_________________________________________________________________
dense_2 (Dense)              (None, 23, 32)            2080      
_________________________________________________________________
dropout_2 (Dropout)          (None, 23, 32)            0         
_________________________________________________________________
flatten_1 (Flatten)          (None, 736)               0         
_________________________________________________________________
dense_3 (Dense)              (None, 2)                 1474      
=================================================================
Total params: 50,254,698
Trainable params: 254,498
Non-trainable params: 50,000,200
_________________________________________________________________
Epoch 1/30

  32/5872 [..............................] - ETA: 1:26 - loss: 0.9533 - acc: 0.4062
 128/5872 [..............................] - ETA: 24s - loss: 0.8813 - acc: 0.5000 
…
