…
[[13, 47, 4, 928, 15, 7, 13118, 15, 9, 4, 917, 1423, 14, 645, 915, 17, 7, 202, 74, 213, 128, 14, 116], [42, 15, 17521, 108, 850, 95, 115, 133, 136, 1871, 7731, 14, 231, 7246, 127, 6, 3176, 9071, 4909, 14, 7190, 3570, 56360], [7155, 2049, 64, 7, 10319, 58, 816, 78, 13, 2019, 257, 81, 95, 9370, 6532, 42, 14, 416, 21, 46, 9, 13, 373], [8, 332, 112, 4413, 40, 26781, 3683, 1489, 23, 4, 1432, 12, 4, 0, 3062, 447, 84, 297, 632, 25447, 14, 1, 1], [8, 8, 106, 261, 9227, 89, 1980, 9, 0, 120, 1513, 15, 927, 80, 17, 422, 15, 8338, 493, 9166, 954, 17, 13055]]
Begin: Training
_________________________________________________________________
Layer (type)                 Output Shape              Param #   
=================================================================
input_1 (InputLayer)         (None, 23)                0         
_________________________________________________________________
embedding_1 (Embedding)      (None, 23, 100)           50000200  
_________________________________________________________________
bidirectional_1 (Bidirection (None, 23, 256)           234496    
_________________________________________________________________
dense_1 (Dense)              (None, 23, 64)            16448     
_________________________________________________________________
dropout_1 (Dropout)          (None, 23, 64)            0         
_________________________________________________________________
dense_2 (Dense)              (None, 23, 32)            2080      
_________________________________________________________________
dropout_2 (Dropout)          (None, 23, 32)            0         
_________________________________________________________________
flatten_1 (Flatten)          (None, 736)               0         
_________________________________________________________________
dense_3 (Dense)              (None, 2)                 1474      
=================================================================
Total params: 50,254,698
Trainable params: 254,498
Non-trainable params: 50,000,200
_________________________________________________________________
Epoch 1/30

  32/5872 [..............................] - ETA: 1:27 - loss: 0.9060 - acc: 0.4375
 128/5872 [..............................] - ETA: 24s - loss: 0.8684 - acc: 0.4531 
…
