…
[[0, 4299, 389, 19, 64, 0, 84, 18288, 3473, 5400, 6, 11842, 23, 1566, 1146, 0, 38648, 5569, 0, 1, 1, 1, 1], [8, 8, 8, 373, 13, 915, 15, 47, 19, 1262, 4, 2097, 15, 2261, 4, 12635, 40, 7349, 3926, 7081, 11170, 654, 84], [8, 8, 13, 1476, 373, 1009, 22, 56, 7070, 0, 297, 392, 50, 134, 835, 0, 10, 24, 7052, 7052, 948, 13, 47], [4666, 2549, 20, 8, 14, 159, 275, 6, 79, 422, 185, 1489, 18, 4088, 11, 48875, 34759, 35458, 407915, 1, 1, 1, 1], [21, 22, 67, 3366, 23, 9908, 78179, 78, 4, 67161, 218, 19, 373, 47, 1476, 95, 14, 0, 1229, 8, 1, 1, 1]]
Begin: Training
_________________________________________________________________
Layer (type)                 Output Shape              Param #   
=================================================================
input_1 (InputLayer)         (None, 23)                0         
_________________________________________________________________
embedding_1 (Embedding)      (None, 23, 100)           50000200  
_________________________________________________________________
bidirectional_1 (Bidirection (None, 23, 256)           234496    
_________________________________________________________________
dense_1 (Dense)              (None, 23, 64)            16448     
_________________________________________________________________
dropout_1 (Dropout)          (None, 23, 64)            0         
_________________________________________________________________
dense_2 (Dense)              (None, 23, 32)            2080      
_________________________________________________________________
dropout_2 (Dropout)          (None, 23, 32)            0         
_________________________________________________________________
flatten_1 (Flatten)          (None, 736)               0         
_________________________________________________________________
dense_3 (Dense)              (None, 2)                 1474      
=================================================================
Total params: 50,254,698
Trainable params: 254,498
Non-trainable params: 50,000,200
_________________________________________________________________
Epoch 1/30

  32/5872 [..............................] - ETA: 1:26 - loss: 0.9225 - acc: 0.4688
 128/5872 [..............................] - ETA: 24s - loss: 0.8689 - acc: 0.4609 
…
