…
[[63, 166, 6, 5014, 231, 12719, 8177, 22, 5723, 304, 1, 1, 1, 1, 1, 1, 1, 1, 1, 1, 1, 1], [394, 394, 106, 19, 39, 7, 55, 1726, 53, 53, 120, 803, 4375, 2895, 28, 22, 42, 11, 136, 47, 82, 345], [13, 149, 3225, 176, 17, 334, 2889, 5686, 15, 1692, 15, 131, 6008, 1414, 63, 581, 4, 917, 1423, 23, 251, 14], [225, 341, 12, 40, 926, 1777, 33, 1509, 11, 228, 1289, 136, 482, 443, 59, 401, 25, 65, 6170, 6, 29198, 17], [12434, 14634, 129, 127, 11, 853, 16, 12337, 3934, 2173, 15, 0, 0, 15, 78, 60, 57334, 2038, 128, 46, 586, 521]]
Begin: Training
_________________________________________________________________
Layer (type)                 Output Shape              Param #   
=================================================================
input_1 (InputLayer)         (None, 22)                0         
_________________________________________________________________
embedding_1 (Embedding)      (None, 22, 100)           50000200  
_________________________________________________________________
bidirectional_1 (Bidirection (None, 22, 256)           234496    
_________________________________________________________________
dense_1 (Dense)              (None, 22, 64)            16448     
_________________________________________________________________
dropout_1 (Dropout)          (None, 22, 64)            0         
_________________________________________________________________
dense_2 (Dense)              (None, 22, 32)            2080      
_________________________________________________________________
dropout_2 (Dropout)          (None, 22, 32)            0         
_________________________________________________________________
flatten_1 (Flatten)          (None, 704)               0         
_________________________________________________________________
dense_3 (Dense)              (None, 2)                 1410      
=================================================================
Total params: 50,254,634
Trainable params: 254,434
Non-trainable params: 50,000,200
_________________________________________________________________
Epoch 1/30

  32/3957 [..............................] - ETA: 1:06 - loss: 0.8393 - acc: 0.6250
 128/3957 [..............................] - ETA: 18s - loss: 0.7762 - acc: 0.7500 
…
