…
[[31, 1520, 23, 16, 8, 9, 77, 4, 0, 3585, 35, 5978, 140, 797, 14, 13, 31, 868, 5762, 626, 106, 21], [76, 356, 257, 363, 184, 631, 16, 926, 103, 12, 274, 84, 236, 1424, 1746, 2183, 14, 269, 625, 4, 275, 8], [1506, 26, 19, 185764, 821, 31, 7, 224, 2159, 425, 26, 67, 4751, 10668, 15, 21, 332, 3382, 1429, 9623, 32, 1688], [6249, 388, 694, 675, 2191, 9, 16, 29668, 44, 1489, 10, 4, 73, 1783, 2382, 10798, 2222, 3824, 1, 1, 1, 1], [304, 31, 736, 69, 598, 1122, 6, 16, 8628, 95, 552, 1881, 36947, 14, 13, 36, 372458, 6, 127, 42, 78, 172]]
Begin: Training
_________________________________________________________________
Layer (type)                 Output Shape              Param #   
=================================================================
input_1 (InputLayer)         (None, 22)                0         
_________________________________________________________________
embedding_1 (Embedding)      (None, 22, 100)           50000200  
_________________________________________________________________
bidirectional_1 (Bidirection (None, 22, 256)           234496    
_________________________________________________________________
dense_1 (Dense)              (None, 22, 64)            16448     
_________________________________________________________________
dropout_1 (Dropout)          (None, 22, 64)            0         
_________________________________________________________________
dense_2 (Dense)              (None, 22, 32)            2080      
_________________________________________________________________
dropout_2 (Dropout)          (None, 22, 32)            0         
_________________________________________________________________
flatten_1 (Flatten)          (None, 704)               0         
_________________________________________________________________
dense_3 (Dense)              (None, 2)                 1410      
=================================================================
Total params: 50,254,634
Trainable params: 254,434
Non-trainable params: 50,000,200
_________________________________________________________________
Epoch 1/30

  32/3957 [..............................] - ETA: 40s - loss: 0.8707 - acc: 0.5938
 128/3957 [..............................] - ETA: 11s - loss: 0.7945 - acc: 0.7188
…
