…
[[42, 3833, 2574, 929, 18955, 1872, 23, 115, 2769, 108, 127, 20, 0, 15, 0, 10, 4, 881, 14, 1, 1, 1], [4, 1663, 10, 4, 21156, 1421, 1085, 17, 180, 948, 4, 759, 36, 2246, 78, 4, 489, 36, 419, 948, 917, 1423], [8, 4935, 2521, 23, 4, 21341, 36, 30, 411, 15, 13, 587, 16, 45473, 81, 116, 3293, 10, 1114, 2214, 14, 1], [168, 22, 7, 16561, 166, 313, 40, 69949, 25, 1106, 108, 32, 4109, 231, 14, 120, 537, 10, 21, 3183, 11, 1], [0, 91, 29198, 22, 4, 586, 93694, 2461, 10, 1169, 6, 3173, 1383, 38, 371, 863, 0, 10237, 0, 1596, 1229, 0]]
Begin: Training
_________________________________________________________________
Layer (type)                 Output Shape              Param #   
=================================================================
input_1 (InputLayer)         (None, 22)                0         
_________________________________________________________________
embedding_1 (Embedding)      (None, 22, 100)           50000200  
_________________________________________________________________
bidirectional_1 (Bidirection (None, 22, 256)           234496    
_________________________________________________________________
dense_1 (Dense)              (None, 22, 64)            16448     
_________________________________________________________________
dropout_1 (Dropout)          (None, 22, 64)            0         
_________________________________________________________________
dense_2 (Dense)              (None, 22, 32)            2080      
_________________________________________________________________
dropout_2 (Dropout)          (None, 22, 32)            0         
_________________________________________________________________
flatten_1 (Flatten)          (None, 704)               0         
_________________________________________________________________
dense_3 (Dense)              (None, 3)                 2115      
=================================================================
Total params: 50,255,339
Trainable params: 255,139
Non-trainable params: 50,000,200
_________________________________________________________________
Epoch 1/30

  32/5999 [..............................] - ETA: 1:38 - loss: 1.3096 - acc: 0.3750
 128/5999 [..............................] - ETA: 27s - loss: 1.2504 - acc: 0.4141 
…
