…
[[226579, 304374, 0, 202600, 203314, 384634, 227375, 8747, 0, 312846, 148695, 154649, 0, 0, 0, 125023, 154649, 227495, 95224, 483207, 33987, 0], [197165, 425141, 428302, 440513, 455628, 154649, 256902, 15324, 483197, 0, 95224, 154649, 138179, 0, 0, 52528, 0, 84364, 1, 1, 1, 1], [407031, 264625, 0, 469288, 0, 327184, 63318, 0, 0, 371833, 327184, 204742, 0, 124135, 407031, 172106, 0, 154649, 266497, 0, 1, 1], [145956, 0, 236303, 468122, 222853, 94129, 462814, 8339, 0, 342130, 354743, 384634, 297955, 1, 1, 1, 1, 1, 1, 1, 1, 1], [483337, 222853, 0, 0, 149480, 142576, 0, 227732, 0, 366220, 482024, 103089, 125057, 0, 354743, 1, 1, 1, 1, 1, 1, 1]]
Begin: Training
_________________________________________________________________
Layer (type)                 Output Shape              Param #   
=================================================================
input_1 (InputLayer)         (None, 22)                0         
_________________________________________________________________
embedding_1 (Embedding)      (None, 22, 100)           50000200  
_________________________________________________________________
bidirectional_1 (Bidirection (None, 22, 256)           234496    
_________________________________________________________________
dense_1 (Dense)              (None, 22, 64)            16448     
_________________________________________________________________
dropout_1 (Dropout)          (None, 22, 64)            0         
_________________________________________________________________
dense_2 (Dense)              (None, 22, 32)            2080      
_________________________________________________________________
dropout_2 (Dropout)          (None, 22, 32)            0         
_________________________________________________________________
flatten_1 (Flatten)          (None, 704)               0         
_________________________________________________________________
dense_3 (Dense)              (None, 3)                 2115      
=================================================================
Total params: 50,255,339
Trainable params: 255,139
Non-trainable params: 50,000,200
_________________________________________________________________
Epoch 1/30

  32/5999 [..............................] - ETA: 1:28 - loss: 1.3519 - acc: 0.3750
 128/5999 [..............................] - ETA: 24s - loss: 1.2626 - acc: 0.4297 
…
