…
[[4375, 11500, 91, 13510, 12, 4, 156, 134, 715, 7, 2369, 12, 388, 1550, 10, 305, 10195, 0, 1, 1, 1, 1], [729, 93, 89, 174, 6, 16, 141, 23, 1062, 2551, 9, 432, 1746, 2183, 43184, 65799, 2335, 14, 181, 9, 129, 85], [8, 13, 267, 367, 3773, 12, 437, 1451, 6301, 68, 205, 168, 6, 79, 9325, 5225, 37, 10, 4, 2574, 23, 7], [1742, 4041, 860, 35, 917, 1423, 22, 7621, 10, 4, 489, 15, 4526, 14, 3398, 24, 86, 18, 0, 1, 1, 1], [106, 1821, 23359, 22, 33021, 17, 4, 652, 12, 4, 103, 2161, 15, 360, 170, 373, 47, 31, 2778, 24, 37, 12]]
Begin: Training
_________________________________________________________________
Layer (type)                 Output Shape              Param #   
=================================================================
input_1 (InputLayer)         (None, 22)                0         
_________________________________________________________________
embedding_1 (Embedding)      (None, 22, 100)           50000200  
_________________________________________________________________
bidirectional_1 (Bidirection (None, 22, 256)           234496    
_________________________________________________________________
dense_1 (Dense)              (None, 22, 64)            16448     
_________________________________________________________________
dropout_1 (Dropout)          (None, 22, 64)            0         
_________________________________________________________________
dense_2 (Dense)              (None, 22, 32)            2080      
_________________________________________________________________
dropout_2 (Dropout)          (None, 22, 32)            0         
_________________________________________________________________
flatten_1 (Flatten)          (None, 704)               0         
_________________________________________________________________
dense_3 (Dense)              (None, 2)                 1410      
=================================================================
Total params: 50,254,634
Trainable params: 254,434
Non-trainable params: 50,000,200
_________________________________________________________________
Epoch 1/30

  32/3957 [..............................] - ETA: 1:20 - loss: 0.8541 - acc: 0.6250
 128/3957 [..............................] - ETA: 21s - loss: 0.8054 - acc: 0.7031 
…
