…
[[8, 8, 19, 47, 6, 517, 24, 23, 41, 1706, 1235, 91, 1683, 507, 22, 2479, 1447, 338, 14, 19, 93, 16126, 23], [63, 1263, 16, 10319, 58, 1317, 231, 814, 1171, 261, 38, 166, 6, 72, 109, 6362, 9, 19, 108, 39, 24, 14, 1], [9, 8496, 573, 19, 332, 16, 4375, 2895, 7309, 22, 318, 14, 13, 317, 80, 6, 4, 615, 6, 2105, 69, 10757, 15], [13, 373, 32, 19595, 23, 21, 3447, 50, 26, 540, 27, 698, 8, 263, 70, 26158, 886, 3648, 84, 765, 4, 11986, 11067], [385, 24, 15, 4887, 149046, 14, 270, 464, 1915, 19, 6, 4, 610, 32961, 272, 85, 3382, 1429, 14, 373, 19, 823, 42805]]
Begin: Training
_________________________________________________________________
Layer (type)                 Output Shape              Param #   
=================================================================
input_1 (InputLayer)         (None, 23)                0         
_________________________________________________________________
embedding_1 (Embedding)      (None, 23, 100)           50000200  
_________________________________________________________________
bidirectional_1 (Bidirection (None, 23, 256)           234496    
_________________________________________________________________
dense_1 (Dense)              (None, 23, 64)            16448     
_________________________________________________________________
dropout_1 (Dropout)          (None, 23, 64)            0         
_________________________________________________________________
dense_2 (Dense)              (None, 23, 32)            2080      
_________________________________________________________________
dropout_2 (Dropout)          (None, 23, 32)            0         
_________________________________________________________________
flatten_1 (Flatten)          (None, 736)               0         
_________________________________________________________________
dense_3 (Dense)              (None, 2)                 1474      
=================================================================
Total params: 50,254,698
Trainable params: 254,498
Non-trainable params: 50,000,200
_________________________________________________________________
Epoch 1/30

  32/5872 [..............................] - ETA: 1:01 - loss: 0.8665 - acc: 0.6250
 128/5872 [..............................] - ETA: 17s - loss: 0.8532 - acc: 0.5781 
…
