…
272, 90442, 318159, 146620, 0, 281469, 0, 368889, 0, 0, 40371, 313953], [151992, 115315, 348503, 159187, 415003, 325932, 443357, 36377, 0, 38619, 0, 456409, 267208, 0, 0, 415003, 39318, 395849, 19847, 53393, 394187, 0], [0, 26079, 217348, 106747, 0, 0, 0, 55461, 327327, 314439, 448759, 391171, 38619, 0, 55461, 26079, 348503, 118527, 0, 214134, 0, 36377]]
Begin: Training
_________________________________________________________________
Layer (type)                 Output Shape              Param #   
=================================================================
input_1 (InputLayer)         (None, 22)                0         
_________________________________________________________________
embedding_1 (Embedding)      (None, 22, 100)           50000200  
_________________________________________________________________
bidirectional_1 (Bidirection (None, 22, 256)           234496    
_________________________________________________________________
dense_1 (Dense)              (None, 22, 64)            16448     
_________________________________________________________________
dropout_1 (Dropout)          (None, 22, 64)            0         
_________________________________________________________________
dense_2 (Dense)              (None, 22, 32)            2080      
_________________________________________________________________
dropout_2 (Dropout)          (None, 22, 32)            0         
_________________________________________________________________
flatten_1 (Flatten)          (None, 704)               0         
_________________________________________________________________
dense_3 (Dense)              (None, 2)                 1410      
=================================================================
Total params: 50,254,634
Trainable params: 254,434
Non-trainable params: 50,000,200
_________________________________________________________________
Epoch 1/30

  32/3957 [..............................] - ETA: 56s - loss: 0.9115 - acc: 0.6562
 128/3957 [..............................] - ETA: 15s - loss: 0.8248 - acc: 0.7188
…
