…
070, 119461, 381812, 215137, 173721, 484739, 0, 381812, 0, 135474, 0, 0, 189754], [0, 0, 0, 295708, 119461, 277128, 361238, 200917, 145625, 200917, 388909, 181525, 0, 0, 406930, 173721, 496803, 460259, 464878, 0, 443525, 0, 0], [0, 0, 0, 477307, 200917, 463548, 244365, 0, 0, 424111, 365481, 25123, 0, 0, 0, 0, 41202, 346704, 397005, 215603, 142529, 0, 1]]
Begin: Training
_________________________________________________________________
Layer (type)                 Output Shape              Param #   
=================================================================
input_1 (InputLayer)         (None, 23)                0         
_________________________________________________________________
embedding_1 (Embedding)      (None, 23, 100)           50000200  
_________________________________________________________________
bidirectional_1 (Bidirection (None, 23, 256)           234496    
_________________________________________________________________
dense_1 (Dense)              (None, 23, 64)            16448     
_________________________________________________________________
dropout_1 (Dropout)          (None, 23, 64)            0         
_________________________________________________________________
dense_2 (Dense)              (None, 23, 32)            2080      
_________________________________________________________________
dropout_2 (Dropout)          (None, 23, 32)            0         
_________________________________________________________________
flatten_1 (Flatten)          (None, 736)               0         
_________________________________________________________________
dense_3 (Dense)              (None, 2)                 1474      
=================================================================
Total params: 50,254,698
Trainable params: 254,498
Non-trainable params: 50,000,200
_________________________________________________________________
Epoch 1/30

  32/5872 [..............................] - ETA: 1:23 - loss: 0.9846 - acc: 0.5000
 128/5872 [..............................] - ETA: 23s - loss: 0.8892 - acc: 0.5391 
…
