…
[[4887, 149046, 3619, 106, 19, 420, 14577, 82, 14494, 27998, 15, 82, 4, 90, 3077, 108, 1304, 174, 12710, 231, 14, 15407], [5689, 24, 64, 23359, 91, 6313, 9, 1499, 219, 422, 14, 120, 6313, 9, 19, 373, 167, 219, 422, 14, 50, 1821], [82, 27, 373, 68, 38, 1998, 10, 3382, 1429, 14, 50, 170, 22, 4, 149, 2135, 27, 47, 6, 14019, 14, 27], [8, 13, 31, 77, 4375, 2895, 62, 51, 9, 4093, 7, 25, 4284, 5678, 15, 9, 54, 464, 32, 72, 231, 5671], [8, 373, 32, 854, 6, 393, 37, 610, 2578, 20, 2770, 1, 1, 1, 1, 1, 1, 1, 1, 1, 1, 1]]
Begin: Training
_________________________________________________________________
Layer (type)                 Output Shape              Param #   
=================================================================
input_1 (InputLayer)         (None, 22)                0         
_________________________________________________________________
embedding_1 (Embedding)      (None, 22, 100)           50000200  
_________________________________________________________________
bidirectional_1 (Bidirection (None, 22, 256)           234496    
_________________________________________________________________
dense_1 (Dense)              (None, 22, 64)            16448     
_________________________________________________________________
dropout_1 (Dropout)          (None, 22, 64)            0         
_________________________________________________________________
dense_2 (Dense)              (None, 22, 32)            2080      
_________________________________________________________________
dropout_2 (Dropout)          (None, 22, 32)            0         
_________________________________________________________________
flatten_1 (Flatten)          (None, 704)               0         
_________________________________________________________________
dense_3 (Dense)              (None, 3)                 2115      
=================================================================
Total params: 50,255,339
Trainable params: 255,139
Non-trainable params: 50,000,200
_________________________________________________________________
Epoch 1/30

  32/5999 [..............................] - ETA: 1:31 - loss: 1.2865 - acc: 0.4062
 128/5999 [..............................] - ETA: 25s - loss: 1.2311 - acc: 0.4531 
…
