…
[[29198, 134, 5405, 1383, 264, 187, 553, 242, 15, 170, 22, 31, 4, 760, 2461, 6, 6424, 40, 14, 0, 1, 1], [8, 1109, 20116, 157, 140, 14565, 27, 120, 64, 10, 318, 107, 20, 32031, 11393, 84, 27, 373, 68, 4046, 20, 4189], [68, 2648, 1821, 23359, 22, 926, 5916, 11094, 2978, 5018, 15, 264, 451, 10, 4, 156, 13, 80, 6, 165, 1501, 3439], [4, 4275, 4550, 1937, 91, 332, 1701, 233522, 5463, 368, 373, 32, 174, 184, 24, 1378, 0, 124548, 85324, 1, 1, 1], [8, 10, 4, 1170, 12, 1411, 91, 181, 14, 156, 12, 231, 129, 14, 1498, 2396, 91, 14006, 525, 198, 14, 11900]]
Begin: Training
_________________________________________________________________
Layer (type)                 Output Shape              Param #   
=================================================================
input_1 (InputLayer)         (None, 22)                0         
_________________________________________________________________
embedding_1 (Embedding)      (None, 22, 100)           50000200  
_________________________________________________________________
bidirectional_1 (Bidirection (None, 22, 256)           234496    
_________________________________________________________________
dense_1 (Dense)              (None, 22, 64)            16448     
_________________________________________________________________
dropout_1 (Dropout)          (None, 22, 64)            0         
_________________________________________________________________
dense_2 (Dense)              (None, 22, 32)            2080      
_________________________________________________________________
dropout_2 (Dropout)          (None, 22, 32)            0         
_________________________________________________________________
flatten_1 (Flatten)          (None, 704)               0         
_________________________________________________________________
dense_3 (Dense)              (None, 3)                 2115      
=================================================================
Total params: 50,255,339
Trainable params: 255,139
Non-trainable params: 50,000,200
_________________________________________________________________
Epoch 1/30

  32/5999 [..............................] - ETA: 1:00 - loss: 1.3081 - acc: 0.3438
 128/5999 [..............................] - ETA: 17s - loss: 1.2579 - acc: 0.3906 
…
