…
[[354743, 484737, 318615, 462814, 461879, 418823, 165316, 0, 325897, 418823, 0, 369756, 160676, 1, 1, 1, 1, 1, 1, 1, 1, 1], [427771, 440680, 0, 116498, 67811, 483337, 66708, 113750, 67811, 0, 64141, 0, 0, 0, 256918, 0, 252631, 221134, 0, 0, 462814, 0], [483337, 458020, 369756, 235876, 483337, 0, 286135, 95224, 73461, 35096, 0, 290255, 245335, 0, 0, 130278, 342130, 154649, 190757, 147577, 297955, 0], [426120, 0, 56789, 0, 0, 85144, 236303, 0, 434918, 455628, 42425, 0, 30629, 277566, 421861, 0, 0, 78330, 0, 0, 59457, 1], [483337, 0, 463341, 462814, 461879, 154649, 0, 0, 12134, 10590, 255769, 1, 1, 1, 1, 1, 1, 1, 1, 1, 1, 1]]
Begin: Training
_________________________________________________________________
Layer (type)                 Output Shape              Param #   
=================================================================
input_1 (InputLayer)         (None, 22)                0         
_________________________________________________________________
embedding_1 (Embedding)      (None, 22, 100)           50000200  
_________________________________________________________________
bidirectional_1 (Bidirection (None, 22, 256)           234496    
_________________________________________________________________
dense_1 (Dense)              (None, 22, 64)            16448     
_________________________________________________________________
dropout_1 (Dropout)          (None, 22, 64)            0         
_________________________________________________________________
dense_2 (Dense)              (None, 22, 32)            2080      
_________________________________________________________________
dropout_2 (Dropout)          (None, 22, 32)            0         
_________________________________________________________________
flatten_1 (Flatten)          (None, 704)               0         
_________________________________________________________________
dense_3 (Dense)              (None, 2)                 1410      
=================================================================
Total params: 50,254,634
Trainable params: 254,434
Non-trainable params: 50,000,200
_________________________________________________________________
Epoch 1/30

  32/3957 [..............................] - ETA: 58s - loss: 0.9082 - acc: 0.6250
 128/3957 [..............................] - ETA: 16s - loss: 0.7908 - acc: 0.7734
…
