…
274, 313953, 120944, 475155, 420494, 0, 60710, 63501, 0, 0, 227430, 313953], [0, 348503, 0, 0, 15155, 0, 0, 53393, 63503, 267208, 128543, 357153, 433033, 415003, 215753, 55461, 0, 0, 267208, 155365, 50250, 0, 0], [0, 0, 391171, 245758, 0, 39935, 0, 0, 190565, 53393, 0, 0, 381696, 104128, 313953, 267208, 352491, 475155, 267208, 0, 318159, 283277, 267208]]
Begin: Training
_________________________________________________________________
Layer (type)                 Output Shape              Param #   
=================================================================
input_1 (InputLayer)         (None, 23)                0         
_________________________________________________________________
embedding_1 (Embedding)      (None, 23, 100)           50000200  
_________________________________________________________________
bidirectional_1 (Bidirection (None, 23, 256)           234496    
_________________________________________________________________
dense_1 (Dense)              (None, 23, 64)            16448     
_________________________________________________________________
dropout_1 (Dropout)          (None, 23, 64)            0         
_________________________________________________________________
dense_2 (Dense)              (None, 23, 32)            2080      
_________________________________________________________________
dropout_2 (Dropout)          (None, 23, 32)            0         
_________________________________________________________________
flatten_1 (Flatten)          (None, 736)               0         
_________________________________________________________________
dense_3 (Dense)              (None, 2)                 1474      
=================================================================
Total params: 50,254,698
Trainable params: 254,498
Non-trainable params: 50,000,200
_________________________________________________________________
Epoch 1/30

  32/5872 [..............................] - ETA: 1:26 - loss: 1.0741 - acc: 0.3750
 128/5872 [..............................] - ETA: 24s - loss: 0.9240 - acc: 0.4609 
…
