…
End: Loading evaluation corpus
Begin: Loading embeddings
End: Loading embeddings
[[6218, 5, 8, 0, 116, 102, 696, 264, 3112, 33, 8109, 114, 93], [5611, 83, 131, 144, 6, 179, 6, 158, 5, 1, 1, 1, 1], [4, 3, 9, 67, 586, 321, 297, 227, 2840, 32, 3, 1214, 22], [3, 36, 36, 6, 53, 11515, 2435, 6, 5906, 2432, 7072, 87, 0], [14, 100, 137, 37, 268, 95, 18652, 1510, 223, 108, 25, 5, 1]]
Begin: Training
_________________________________________________________________
Layer (type)                 Output Shape              Param #   
=================================================================
input_1 (InputLayer)         (None, 13)                0         
_________________________________________________________________
embedding_1 (Embedding)      (None, 13, 100)           41277800  
_________________________________________________________________
bidirectional_1 (Bidirection (None, 13, 256)           234496    
_________________________________________________________________
dense_1 (Dense)              (None, 13, 64)            16448     
_________________________________________________________________
dropout_1 (Dropout)          (None, 13, 64)            0         
_________________________________________________________________
dense_2 (Dense)              (None, 13, 32)            2080      
_________________________________________________________________
dropout_2 (Dropout)          (None, 13, 32)            0         
_________________________________________________________________
flatten_1 (Flatten)          (None, 416)               0         
_________________________________________________________________
dense_3 (Dense)              (None, 2)                 834       
=================================================================
Total params: 41,531,658
Trainable params: 253,858
Non-trainable params: 41,277,800
_________________________________________________________________
Epoch 1/50

  16/2394 [..............................] - ETA: 49s - loss: 0.8527 - acc: 0.3125
 112/2394 [>.............................] - ETA: 7s - loss: 0.8675 - acc: 0.5179 
…
