…
End: Loading evaluation corpus
Begin: Loading embeddings
End: Loading embeddings
[[6218, 5, 8, 0, 116, 102, 696, 264, 3112, 33, 8109, 114, 93, 5], [3, 1148, 10, 1, 1, 1, 1, 1, 1, 1, 1, 1, 1, 1], [5611, 83, 131, 144, 6, 179, 6, 158, 5, 1, 1, 1, 1, 1], [3, 28594, 84, 5, 557, 5, 1, 1, 1, 1, 1, 1, 1, 1], [4, 3, 9, 67, 586, 321, 297, 227, 2840, 32, 3, 1214, 22, 3]]
Begin: Training
_________________________________________________________________
Layer (type)                 Output Shape              Param #   
=================================================================
input_1 (InputLayer)         (None, 14)                0         
_________________________________________________________________
embedding_1 (Embedding)      (None, 14, 100)           41277800  
_________________________________________________________________
bidirectional_1 (Bidirection (None, 14, 256)           234496    
_________________________________________________________________
dense_1 (Dense)              (None, 14, 64)            16448     
_________________________________________________________________
dropout_1 (Dropout)          (None, 14, 64)            0         
_________________________________________________________________
dense_2 (Dense)              (None, 14, 32)            2080      
_________________________________________________________________
dropout_2 (Dropout)          (None, 14, 32)            0         
_________________________________________________________________
flatten_1 (Flatten)          (None, 448)               0         
_________________________________________________________________
dense_3 (Dense)              (None, 3)                 1347      
=================================================================
Total params: 41,532,171
Trainable params: 254,371
Non-trainable params: 41,277,800
_________________________________________________________________
Epoch 1/45

  16/6297 [..............................] - ETA: 2:08 - loss: 1.5671 - acc: 0.2500
 112/6297 [..............................] - ETA: 21s - loss: 1.2831 - acc: 0.3929 
…
