…
[[9908, 78179, 9, 7, 67161, 10129, 35139, 91, 0, 60, 37260, 27998, 11, 237, 101398, 34, 156, 20, 41, 119121, 2232, 14, 1], [19149, 745, 29, 10, 497, 3833, 3201, 18, 4, 8, 398, 14, 524, 18, 8, 10, 2802, 17, 4, 23, 4, 817, 993], [13, 537, 4, 3237, 18, 30404, 6, 210664, 36, 74, 43, 10, 7, 7795, 55946, 482, 593, 884, 10, 7, 17308, 1976, 14], [8, 448, 0, 23, 4, 926, 228, 104, 13070, 14, 1, 1, 1, 1, 1, 1, 1, 1, 1, 1, 1, 1, 1], [8, 92977, 7662, 7, 7553, 14, 10, 1354, 42, 15, 166, 6, 297, 10, 4, 105, 360, 166, 52264, 23, 251, 17, 7]]
Begin: Training
_________________________________________________________________
Layer (type)                 Output Shape              Param #   
=================================================================
input_1 (InputLayer)         (None, 23)                0         
_________________________________________________________________
embedding_1 (Embedding)      (None, 23, 100)           50000200  
_________________________________________________________________
bidirectional_1 (Bidirection (None, 23, 256)           234496    
_________________________________________________________________
dense_1 (Dense)              (None, 23, 64)            16448     
_________________________________________________________________
dropout_1 (Dropout)          (None, 23, 64)            0         
_________________________________________________________________
dense_2 (Dense)              (None, 23, 32)            2080      
_________________________________________________________________
dropout_2 (Dropout)          (None, 23, 32)            0         
_________________________________________________________________
flatten_1 (Flatten)          (None, 736)               0         
_________________________________________________________________
dense_3 (Dense)              (None, 2)                 1474      
=================================================================
Total params: 50,254,698
Trainable params: 254,498
Non-trainable params: 50,000,200
_________________________________________________________________
Epoch 1/30

  32/5872 [..............................] - ETA: 1:01 - loss: 0.9745 - acc: 0.5312
 128/5872 [..............................] - ETA: 17s - loss: 0.9052 - acc: 0.4766 
…
