…
[[2644, 452, 51, 10, 448, 1746, 2183, 1371, 520, 9, 9690, 3563, 623, 17, 4, 19462, 6391, 40, 9615, 29, 231, 14], [7910, 66370, 8048, 40, 265360, 22, 2052, 17, 646, 126113, 12709, 23, 1516, 586, 53, 2182, 12, 138734, 693, 20, 0, 12149], [8, 175, 10, 2411, 4093, 33, 4375, 2895, 53, 397, 47, 24, 231, 11, 11, 11, 2649, 275, 2075, 0, 1, 1], [170563, 26, 67432, 26, 3069, 26, 3222, 26, 6805, 11, 1435, 11, 1386, 3222, 26, 6805, 11, 13, 60, 24, 86, 11], [53543, 9, 4633, 93, 461, 19, 10, 4, 176, 5275, 14, 0, 1, 1, 1, 1, 1, 1, 1, 1, 1, 1]]
Begin: Training
_________________________________________________________________
Layer (type)                 Output Shape              Param #   
=================================================================
input_1 (InputLayer)         (None, 22)                0         
_________________________________________________________________
embedding_1 (Embedding)      (None, 22, 100)           50000200  
_________________________________________________________________
bidirectional_1 (Bidirection (None, 22, 256)           234496    
_________________________________________________________________
dense_1 (Dense)              (None, 22, 64)            16448     
_________________________________________________________________
dropout_1 (Dropout)          (None, 22, 64)            0         
_________________________________________________________________
dense_2 (Dense)              (None, 22, 32)            2080      
_________________________________________________________________
dropout_2 (Dropout)          (None, 22, 32)            0         
_________________________________________________________________
flatten_1 (Flatten)          (None, 704)               0         
_________________________________________________________________
dense_3 (Dense)              (None, 3)                 2115      
=================================================================
Total params: 50,255,339
Trainable params: 255,139
Non-trainable params: 50,000,200
_________________________________________________________________
Epoch 1/30

  32/5999 [..............................] - ETA: 1:15 - loss: 1.2820 - acc: 0.3750
 128/5999 [..............................] - ETA: 21s - loss: 1.2708 - acc: 0.4219 
…
