…
[[112, 939, 18, 114, 15, 1489, 10, 4, 1123, 1473, 6, 5978, 140, 797, 10, 4, 336, 40, 5088, 160, 4, 19275], [304, 18, 3899, 348, 4, 9908, 78179, 992, 956, 25452, 14, 0, 0, 1, 1, 1, 1, 1, 1, 1, 1, 1], [21, 22, 67, 3366, 23, 9908, 78179, 78, 4, 67161, 218, 19, 373, 47, 1476, 95, 14, 0, 1229, 8, 1, 1], [15218, 11, 31421, 3346, 20, 7, 15218, 12, 1776, 1114, 11, 1146, 179, 240, 46, 1, 1, 1, 1, 1, 1, 1], [251, 11023, 4303, 46, 6, 79, 106, 18923, 16053, 108, 443, 14, 224, 13344, 4303, 46, 6, 79, 115, 133, 24, 108]]
Begin: Training
_________________________________________________________________
Layer (type)                 Output Shape              Param #   
=================================================================
input_1 (InputLayer)         (None, 22)                0         
_________________________________________________________________
embedding_1 (Embedding)      (None, 22, 100)           50000200  
_________________________________________________________________
bidirectional_1 (Bidirection (None, 22, 256)           234496    
_________________________________________________________________
dense_1 (Dense)              (None, 22, 64)            16448     
_________________________________________________________________
dropout_1 (Dropout)          (None, 22, 64)            0         
_________________________________________________________________
dense_2 (Dense)              (None, 22, 32)            2080      
_________________________________________________________________
dropout_2 (Dropout)          (None, 22, 32)            0         
_________________________________________________________________
flatten_1 (Flatten)          (None, 704)               0         
_________________________________________________________________
dense_3 (Dense)              (None, 3)                 2115      
=================================================================
Total params: 50,255,339
Trainable params: 255,139
Non-trainable params: 50,000,200
_________________________________________________________________
Epoch 1/30

  32/5999 [..............................] - ETA: 1:04 - loss: 1.3431 - acc: 0.3125
 128/5999 [..............................] - ETA: 18s - loss: 1.3106 - acc: 0.3906 
…
