…
[[62, 51, 373, 47, 116, 16, 62, 67432, 649, 17, 7, 298, 14, 50, 13, 81, 69, 126, 51, 14, 117, 19], [1848, 8993, 729, 84, 120, 803, 6, 222, 37, 4, 929, 398, 18, 5315, 4627, 14, 5635, 5155, 0, 0, 1, 1], [12104, 13848, 91, 82, 13, 210, 1027, 3087, 2076, 6, 11827, 421, 95, 64, 1904, 131, 2147, 1675, 15, 57, 183, 1021], [1485, 4975, 5528, 511, 22678, 131, 202293, 19, 373, 47, 174, 16, 9593, 998, 19, 44, 175600, 9, 11331, 14, 13, 443], [0, 586, 2375, 22, 31, 26, 324, 14, 10426, 1, 1, 1, 1, 1, 1, 1, 1, 1, 1, 1, 1, 1]]
Begin: Training
_________________________________________________________________
Layer (type)                 Output Shape              Param #   
=================================================================
input_1 (InputLayer)         (None, 22)                0         
_________________________________________________________________
embedding_1 (Embedding)      (None, 22, 100)           50000200  
_________________________________________________________________
bidirectional_1 (Bidirection (None, 22, 256)           234496    
_________________________________________________________________
dense_1 (Dense)              (None, 22, 64)            16448     
_________________________________________________________________
dropout_1 (Dropout)          (None, 22, 64)            0         
_________________________________________________________________
dense_2 (Dense)              (None, 22, 32)            2080      
_________________________________________________________________
dropout_2 (Dropout)          (None, 22, 32)            0         
_________________________________________________________________
flatten_1 (Flatten)          (None, 704)               0         
_________________________________________________________________
dense_3 (Dense)              (None, 2)                 1410      
=================================================================
Total params: 50,254,634
Trainable params: 254,434
Non-trainable params: 50,000,200
_________________________________________________________________
Epoch 1/30

  32/3957 [..............................] - ETA: 43s - loss: 0.8662 - acc: 0.7188
 128/3957 [..............................] - ETA: 12s - loss: 0.7920 - acc: 0.7812
…
