…
[[0, 91, 3775, 15, 3079, 15, 6804, 14, 89649, 9205, 4, 107, 12, 7, 712, 55, 23, 4, 4338, 897, 12, 165, 26], [8, 10, 40, 2383, 43, 170, 978, 129, 4776, 15, 6492, 15, 1804, 244, 9, 400, 6, 9370, 917, 1423, 1415, 14, 1193], [8, 1096, 268, 98, 14, 5220, 4860, 233, 863, 84, 1458, 84, 183, 317, 160, 3694, 378, 1096, 19204, 50, 8539, 15, 210], [8, 13, 7070, 0, 178, 891, 1489, 179, 9, 2587, 4, 636, 816, 12, 4, 17789, 26, 223, 13, 1907, 64, 4, 816], [581, 7, 21454, 2227, 3557, 860, 75, 9, 7, 12154, 3557, 860, 231, 51, 14, 13, 142, 284, 14, 1, 1, 1, 1]]
Begin: Training
_________________________________________________________________
Layer (type)                 Output Shape              Param #   
=================================================================
input_1 (InputLayer)         (None, 23)                0         
_________________________________________________________________
embedding_1 (Embedding)      (None, 23, 100)           50000200  
_________________________________________________________________
bidirectional_1 (Bidirection (None, 23, 256)           234496    
_________________________________________________________________
dense_1 (Dense)              (None, 23, 64)            16448     
_________________________________________________________________
dropout_1 (Dropout)          (None, 23, 64)            0         
_________________________________________________________________
dense_2 (Dense)              (None, 23, 32)            2080      
_________________________________________________________________
dropout_2 (Dropout)          (None, 23, 32)            0         
_________________________________________________________________
flatten_1 (Flatten)          (None, 736)               0         
_________________________________________________________________
dense_3 (Dense)              (None, 2)                 1474      
=================================================================
Total params: 50,254,698
Trainable params: 254,498
Non-trainable params: 50,000,200
_________________________________________________________________
Epoch 1/30

  32/5872 [..............................] - ETA: 1:01 - loss: 0.8619 - acc: 0.5000
 128/5872 [..............................] - ETA: 17s - loss: 0.8830 - acc: 0.5391 
…
