…
[[4, 2189, 11240, 134, 978, 388, 926, 0, 1061, 18, 4, 0, 15, 12434, 12, 8, 22, 926, 10, 774, 12, 0], [8, 18, 511, 6809, 9325, 22, 19477, 1233, 170, 22, 1122, 72062, 152, 2051, 1581, 14, 1, 1, 1, 1, 1, 1], [4, 6680, 13507, 23, 4, 926, 15064, 108, 2384, 106, 779, 22, 21174, 676, 6, 189, 20131, 1701, 23209, 17, 13515, 59], [12434, 2540, 7, 42825, 59, 9, 7, 384, 1303, 6, 521, 24, 23, 65, 15, 31, 10, 43, 17, 10583, 81357, 5553], [83, 108, 89, 1146, 10, 40, 657, 14, 40831, 108, 378, 24, 15, 89649, 6267, 46, 1, 1, 1, 1, 1, 1]]
Begin: Training
_________________________________________________________________
Layer (type)                 Output Shape              Param #   
=================================================================
input_1 (InputLayer)         (None, 22)                0         
_________________________________________________________________
embedding_1 (Embedding)      (None, 22, 100)           50000200  
_________________________________________________________________
bidirectional_1 (Bidirection (None, 22, 256)           234496    
_________________________________________________________________
dense_1 (Dense)              (None, 22, 64)            16448     
_________________________________________________________________
dropout_1 (Dropout)          (None, 22, 64)            0         
_________________________________________________________________
dense_2 (Dense)              (None, 22, 32)            2080      
_________________________________________________________________
dropout_2 (Dropout)          (None, 22, 32)            0         
_________________________________________________________________
flatten_1 (Flatten)          (None, 704)               0         
_________________________________________________________________
dense_3 (Dense)              (None, 2)                 1410      
=================================================================
Total params: 50,254,634
Trainable params: 254,434
Non-trainable params: 50,000,200
_________________________________________________________________
Epoch 1/30

  32/3957 [..............................] - ETA: 47s - loss: 0.9014 - acc: 0.5312
 128/3957 [..............................] - ETA: 13s - loss: 0.8421 - acc: 0.6406
…
