…
 264143, 288330, 498779, 164040, 403856, 89701, 233149, 8253, 455642], [247964, 460580, 116257, 176811, 405435, 275194, 72775, 490629, 0, 0, 86974, 0, 346140, 0, 126782, 17125, 95119, 0, 0, 1, 1, 1], [308425, 0, 490629, 213592, 107544, 449921, 138341, 410567, 53712, 314149, 451260, 0, 0, 264143, 163698, 403856, 0, 451260, 258764, 285521, 126782, 403856]]
Begin: Training
_________________________________________________________________
Layer (type)                 Output Shape              Param #   
=================================================================
input_1 (InputLayer)         (None, 22)                0         
_________________________________________________________________
embedding_1 (Embedding)      (None, 22, 100)           50000200  
_________________________________________________________________
bidirectional_1 (Bidirection (None, 22, 256)           234496    
_________________________________________________________________
dense_1 (Dense)              (None, 22, 64)            16448     
_________________________________________________________________
dropout_1 (Dropout)          (None, 22, 64)            0         
_________________________________________________________________
dense_2 (Dense)              (None, 22, 32)            2080      
_________________________________________________________________
dropout_2 (Dropout)          (None, 22, 32)            0         
_________________________________________________________________
flatten_1 (Flatten)          (None, 704)               0         
_________________________________________________________________
dense_3 (Dense)              (None, 3)                 2115      
=================================================================
Total params: 50,255,339
Trainable params: 255,139
Non-trainable params: 50,000,200
_________________________________________________________________
End: Training
Begin: Loading embeddings
End: Loading embeddings
[[346367, 0, 0, 107524, 0, 0, 142987, 492352, 315764, 0, 0, 400382, 494872, 142987, 313368, 35131, 380811, 35985,
…
