…
[[8, 276, 15, 459, 12434, 15, 13, 249, 13, 373, 32, 166, 6, 1597, 17, 274, 15, 3519, 4, 177, 2521, 12], [106, 3382, 1429, 5072, 1688, 84, 13, 108, 886, 4, 451, 14, 397, 89, 73, 50, 373, 498, 7, 325, 8367, 1306], [305, 43, 8, 3079, 55946, 23531, 4583, 5849, 0, 9, 755, 302, 6, 4, 62, 731, 6, 377, 2622, 5849, 171323, 131], [8, 13, 373, 47, 33389, 53, 13, 36, 26417, 6, 4, 2770, 751, 1877, 14, 1734, 1, 1, 1, 1, 1, 1], [8, 8, 8, 112, 13, 212721, 16960, 15, 106, 112405, 36, 85, 675, 24, 85, 19, 239, 15, 13055, 289, 68, 47]]
Begin: Training
_________________________________________________________________
Layer (type)                 Output Shape              Param #   
=================================================================
input_1 (InputLayer)         (None, 22)                0         
_________________________________________________________________
embedding_1 (Embedding)      (None, 22, 100)           50000200  
_________________________________________________________________
bidirectional_1 (Bidirection (None, 22, 256)           234496    
_________________________________________________________________
dense_1 (Dense)              (None, 22, 64)            16448     
_________________________________________________________________
dropout_1 (Dropout)          (None, 22, 64)            0         
_________________________________________________________________
dense_2 (Dense)              (None, 22, 32)            2080      
_________________________________________________________________
dropout_2 (Dropout)          (None, 22, 32)            0         
_________________________________________________________________
flatten_1 (Flatten)          (None, 704)               0         
_________________________________________________________________
dense_3 (Dense)              (None, 3)                 2115      
=================================================================
Total params: 50,255,339
Trainable params: 255,139
Non-trainable params: 50,000,200
_________________________________________________________________
End: Training
Begin: Loading embeddings
End: Loading embeddings
[[8, 91473, 4430, 112, 7493, 0, 259, 31562, 27449, 4430, 7937, 32006, 114038, 259, 0, 9587, 4885, 225647, 1, 1, 1
…
