…
93, 498296, 467, 0, 84268, 271914, 133643], [181130, 69902, 49751, 184403, 268640, 200892, 0, 327835, 411897, 0, 273733, 201663, 188599, 167125, 358112, 167125, 480405, 315888, 298558, 26041, 201663, 0], [0, 358840, 465354, 452905, 327835, 53480, 0, 189343, 133439, 321202, 267682, 181130, 34556, 105680, 52275, 71946, 34556, 105680, 0, 498296, 0, 136461]]
Begin: Training
_________________________________________________________________
Layer (type)                 Output Shape              Param #   
=================================================================
input_1 (InputLayer)         (None, 22)                0         
_________________________________________________________________
embedding_1 (Embedding)      (None, 22, 100)           50000200  
_________________________________________________________________
bidirectional_1 (Bidirection (None, 22, 256)           234496    
_________________________________________________________________
dense_1 (Dense)              (None, 22, 64)            16448     
_________________________________________________________________
dropout_1 (Dropout)          (None, 22, 64)            0         
_________________________________________________________________
dense_2 (Dense)              (None, 22, 32)            2080      
_________________________________________________________________
dropout_2 (Dropout)          (None, 22, 32)            0         
_________________________________________________________________
flatten_1 (Flatten)          (None, 704)               0         
_________________________________________________________________
dense_3 (Dense)              (None, 3)                 2115      
=================================================================
Total params: 50,255,339
Trainable params: 255,139
Non-trainable params: 50,000,200
_________________________________________________________________
End: Training
Begin: Loading embeddings
End: Loading embeddings
[[0, 181130, 0, 267682, 148616, 0, 0, 485638, 0, 0, 0, 0, 181130, 0, 489500, 0, 1, 1, 1, 1, 1, 1], [0, 58085, 0, 
…
