…
[[21454, 2227, 108, 4318, 0, 140, 4, 262, 14, 1275, 14, 10, 4, 1146, 0, 20, 4, 835, 82, 70433, 82, 0], [7071, 63, 161, 7, 22454, 231, 11, 6801, 6, 4375, 2895, 48, 28, 4356, 11, 1, 1, 1, 1, 1, 1, 1], [428095, 3336, 89649, 263, 419064, 4398, 9, 713, 46, 6, 4, 3732, 91, 33652, 203605, 0, 9, 0, 3899, 26, 0, 1], [82, 27750, 82, 373, 47, 2003, 50, 19, 93, 167, 1759, 41, 39, 17, 41, 82, 6372, 1985, 82, 9, 27750, 20], [1361, 332, 8604, 18484, 2766, 7048, 2454, 47, 205, 0, 4, 2267, 132, 6603, 6766, 0, 11, 91, 0, 1, 1, 1]]
Begin: Training
_________________________________________________________________
Layer (type)                 Output Shape              Param #   
=================================================================
input_1 (InputLayer)         (None, 22)                0         
_________________________________________________________________
embedding_1 (Embedding)      (None, 22, 100)           50000200  
_________________________________________________________________
bidirectional_1 (Bidirection (None, 22, 256)           234496    
_________________________________________________________________
dense_1 (Dense)              (None, 22, 64)            16448     
_________________________________________________________________
dropout_1 (Dropout)          (None, 22, 64)            0         
_________________________________________________________________
dense_2 (Dense)              (None, 22, 32)            2080      
_________________________________________________________________
dropout_2 (Dropout)          (None, 22, 32)            0         
_________________________________________________________________
flatten_1 (Flatten)          (None, 704)               0         
_________________________________________________________________
dense_3 (Dense)              (None, 3)                 2115      
=================================================================
Total params: 50,255,339
Trainable params: 255,139
Non-trainable params: 50,000,200
_________________________________________________________________
End: Training
Begin: Loading embeddings
End: Loading embeddings
[[8, 91473, 4430, 112, 7493, 0, 259, 31562, 27449, 4430, 7937, 32006, 114038, 259, 0, 9587, 4885, 225647, 1, 1, 1
…
