…
[[21, 251, 108, 32, 7, 158, 28, 17, 38, 419, 1099, 14, 23389, 18, 2362, 135, 20, 6264, 17, 6978, 14, 2859], [546, 49100, 29, 674, 40, 47, 391, 6, 87, 20, 1746, 2183, 68, 1377, 367, 0, 1, 1, 1, 1, 1, 1], [21, 4375, 2895, 28, 356, 22, 31, 64, 345, 213, 15, 106, 19, 6394, 4, 355, 229, 4375, 482, 517, 1032, 19], [336, 6, 1045, 104, 95, 929, 432, 203, 2769, 14, 8, 91, 929, 12772, 2014, 6, 2769, 398, 23, 1566, 2574, 0], [906, 21, 22, 16, 2160, 92283, 14, 8, 13369, 4, 2391, 111945, 1628, 14, 8, 22, 31318, 4, 1628, 14, 1146, 195]]
Begin: Training
_________________________________________________________________
Layer (type)                 Output Shape              Param #   
=================================================================
input_1 (InputLayer)         (None, 22)                0         
_________________________________________________________________
embedding_1 (Embedding)      (None, 22, 100)           50000200  
_________________________________________________________________
bidirectional_1 (Bidirection (None, 22, 256)           234496    
_________________________________________________________________
dense_1 (Dense)              (None, 22, 64)            16448     
_________________________________________________________________
dropout_1 (Dropout)          (None, 22, 64)            0         
_________________________________________________________________
dense_2 (Dense)              (None, 22, 32)            2080      
_________________________________________________________________
dropout_2 (Dropout)          (None, 22, 32)            0         
_________________________________________________________________
flatten_1 (Flatten)          (None, 704)               0         
_________________________________________________________________
dense_3 (Dense)              (None, 3)                 2115      
=================================================================
Total params: 50,255,339
Trainable params: 255,139
Non-trainable params: 50,000,200
_________________________________________________________________
End: Training
Begin: Loading embeddings
End: Loading embeddings
[[8, 91473, 4430, 112, 7493, 0, 259, 31562, 27449, 4430, 7937, 32006, 114038, 259, 0, 9587, 4885, 225647, 1, 1, 1
…
