…
[[24, 373, 68, 32, 240, 6, 4, 6495, 15, 50, 629, 61, 261, 596, 37, 23, 20, 4, 3820, 2307, 305, 91], [8, 24, 36, 18, 4, 1933, 659, 38, 5633, 13, 36, 1346, 1955, 50, 129648, 344, 13, 247, 18, 940, 23, 213], [1208, 203, 1168, 531, 6, 160, 41, 6080, 17, 4, 193, 5810, 12, 129, 871, 6, 4, 5978, 140, 797, 649, 21], [16, 2541, 31, 370, 90, 6, 432, 7, 1259, 17, 34, 1447, 507, 53, 54, 116, 235, 15, 235, 15, 235, 15], [52264, 2323, 0, 0, 10, 586, 8530, 139, 14, 8203, 11678, 9, 199727, 52492, 4076, 38, 78591, 20, 714, 2709, 831, 1]]
Begin: Training
_________________________________________________________________
Layer (type)                 Output Shape              Param #   
=================================================================
input_1 (InputLayer)         (None, 22)                0         
_________________________________________________________________
embedding_1 (Embedding)      (None, 22, 100)           50000200  
_________________________________________________________________
bidirectional_1 (Bidirection (None, 22, 256)           234496    
_________________________________________________________________
dense_1 (Dense)              (None, 22, 64)            16448     
_________________________________________________________________
dropout_1 (Dropout)          (None, 22, 64)            0         
_________________________________________________________________
dense_2 (Dense)              (None, 22, 32)            2080      
_________________________________________________________________
dropout_2 (Dropout)          (None, 22, 32)            0         
_________________________________________________________________
flatten_1 (Flatten)          (None, 704)               0         
_________________________________________________________________
dense_3 (Dense)              (None, 3)                 2115      
=================================================================
Total params: 50,255,339
Trainable params: 255,139
Non-trainable params: 50,000,200
_________________________________________________________________
End: Training
Begin: Loading embeddings
End: Loading embeddings
[[7070, 82, 8, 91, 192451, 428, 0, 11320, 0, 0, 0, 7070, 82, 0, 26, 0, 1, 1, 1, 1, 1, 1], [0, 102369, 0, 0, 5771,
…
