…
[[8, 8, 26781, 3683, 16338, 2873, 7, 1220, 2178, 20, 165, 82, 2303, 12, 39, 82, 0, 170, 36, 751, 198, 954], [13, 31, 1795, 91, 263, 834, 3437, 313, 4, 489, 4, 49909, 193, 968, 59, 0, 65, 263, 948, 917, 1423, 1229], [8, 8, 13, 108, 32, 486720, 9, 278, 77896, 32, 37, 17, 460, 4, 586, 5361, 7002, 505, 24, 226, 14, 0], [8, 13186, 27, 87, 47, 69, 6232, 17, 2770, 9919, 40, 19, 373, 853, 85, 69, 9478, 91, 0, 7052, 42470, 1], [12662, 133466, 26097, 265360, 20, 0, 14, 82, 106, 265360, 1943, 20, 165, 48173, 78, 21105, 15, 27, 373, 47, 6, 1902]]
Begin: Training
_________________________________________________________________
Layer (type)                 Output Shape              Param #   
=================================================================
input_1 (InputLayer)         (None, 22)                0         
_________________________________________________________________
embedding_1 (Embedding)      (None, 22, 100)           50000200  
_________________________________________________________________
bidirectional_1 (Bidirection (None, 22, 256)           234496    
_________________________________________________________________
dense_1 (Dense)              (None, 22, 64)            16448     
_________________________________________________________________
dropout_1 (Dropout)          (None, 22, 64)            0         
_________________________________________________________________
dense_2 (Dense)              (None, 22, 32)            2080      
_________________________________________________________________
dropout_2 (Dropout)          (None, 22, 32)            0         
_________________________________________________________________
flatten_1 (Flatten)          (None, 704)               0         
_________________________________________________________________
dense_3 (Dense)              (None, 3)                 2115      
=================================================================
Total params: 50,255,339
Trainable params: 255,139
Non-trainable params: 50,000,200
_________________________________________________________________
End: Training
Begin: Loading embeddings
End: Loading embeddings
[[7070, 82, 8, 91, 192451, 428, 0, 11320, 0, 0, 0, 7070, 82, 0, 26, 0, 1, 1, 1, 1, 1, 1], [0, 102369, 0, 0, 5771,
…
