…
163, 115667, 138489, 393798, 397973, 182274, 0, 41223, 309244, 115667, 0, 190404, 0], [112222, 139987, 422168, 45635, 0, 120821, 122555, 313987, 0, 373367, 397425, 19950, 196069, 0, 13614, 216968, 48547, 196069, 311787, 1, 1, 1], [332258, 332258, 0, 0, 259649, 225832, 407977, 144491, 358372, 329121, 0, 61700, 373367, 0, 0, 0, 0, 312373, 460302, 1, 1, 1]]
Begin: Training
_________________________________________________________________
Layer (type)                 Output Shape              Param #   
=================================================================
input_1 (InputLayer)         (None, 22)                0         
_________________________________________________________________
embedding_1 (Embedding)      (None, 22, 100)           50000200  
_________________________________________________________________
bidirectional_1 (Bidirection (None, 22, 256)           234496    
_________________________________________________________________
dense_1 (Dense)              (None, 22, 64)            16448     
_________________________________________________________________
dropout_1 (Dropout)          (None, 22, 64)            0         
_________________________________________________________________
dense_2 (Dense)              (None, 22, 32)            2080      
_________________________________________________________________
dropout_2 (Dropout)          (None, 22, 32)            0         
_________________________________________________________________
flatten_1 (Flatten)          (None, 704)               0         
_________________________________________________________________
dense_3 (Dense)              (None, 3)                 2115      
=================================================================
Total params: 50,255,339
Trainable params: 255,139
Non-trainable params: 50,000,200
_________________________________________________________________
End: Training
Begin: Loading embeddings
End: Loading embeddings
[[241740, 196069, 332258, 0, 0, 161457, 0, 0, 0, 0, 0, 241740, 196069, 0, 245499, 0, 1, 1, 1, 1, 1, 1], [0, 49882
…
