…
938, 486410, 193605, 76818, 383559, 17060, 486410, 166392, 277625], [0, 226959, 316284, 442436, 46665, 276254, 462449, 461513, 0, 0, 0, 0, 0, 107134, 406256, 0, 328987, 58060, 261898, 0, 142292, 0], [219111, 0, 281086, 226738, 129021, 132070, 55356, 11658, 232651, 78923, 40659, 277625, 120416, 33032, 342337, 0, 442436, 144176, 122888, 361013, 0, 196156]]
Begin: Training
_________________________________________________________________
Layer (type)                 Output Shape              Param #   
=================================================================
input_1 (InputLayer)         (None, 22)                0         
_________________________________________________________________
embedding_1 (Embedding)      (None, 22, 100)           50000200  
_________________________________________________________________
bidirectional_1 (Bidirection (None, 22, 256)           234496    
_________________________________________________________________
dense_1 (Dense)              (None, 22, 64)            16448     
_________________________________________________________________
dropout_1 (Dropout)          (None, 22, 64)            0         
_________________________________________________________________
dense_2 (Dense)              (None, 22, 32)            2080      
_________________________________________________________________
dropout_2 (Dropout)          (None, 22, 32)            0         
_________________________________________________________________
flatten_1 (Flatten)          (None, 704)               0         
_________________________________________________________________
dense_3 (Dense)              (None, 3)                 2115      
=================================================================
Total params: 50,255,339
Trainable params: 255,139
Non-trainable params: 50,000,200
_________________________________________________________________
End: Training
Begin: Loading embeddings
End: Loading embeddings
[[0, 381495, 226738, 269139, 149875, 285965, 0, 0, 0, 0, 0, 0, 381495, 0, 50405, 0, 1, 1, 1, 1, 1, 1], [0, 217134
…
