…
10891, 0, 42984, 69930, 297101, 312671, 8874, 413524, 14863, 0, 1], [297101, 0, 460536, 172775, 323304, 453196, 314955, 384249, 81063, 233335, 291399, 416308, 49790, 190738, 260031, 125185, 0, 480357, 137648, 1, 1, 1], [397673, 0, 0, 69930, 0, 297101, 308266, 33978, 0, 85603, 397009, 109669, 69930, 0, 141367, 260031, 0, 379359, 227750, 0, 314112, 14863]]
Begin: Training
_________________________________________________________________
Layer (type)                 Output Shape              Param #   
=================================================================
input_1 (InputLayer)         (None, 22)                0         
_________________________________________________________________
embedding_1 (Embedding)      (None, 22, 100)           50000200  
_________________________________________________________________
bidirectional_1 (Bidirection (None, 22, 256)           234496    
_________________________________________________________________
dense_1 (Dense)              (None, 22, 64)            16448     
_________________________________________________________________
dropout_1 (Dropout)          (None, 22, 64)            0         
_________________________________________________________________
dense_2 (Dense)              (None, 22, 32)            2080      
_________________________________________________________________
dropout_2 (Dropout)          (None, 22, 32)            0         
_________________________________________________________________
flatten_1 (Flatten)          (None, 704)               0         
_________________________________________________________________
dense_3 (Dense)              (None, 3)                 2115      
=================================================================
Total params: 50,255,339
Trainable params: 255,139
Non-trainable params: 50,000,200
_________________________________________________________________
End: Training
Begin: Loading embeddings
End: Loading embeddings
[[449644, 93137, 166873, 274609, 241360, 0, 303784, 386254, 0, 166873, 339332, 399956, 58749, 303784, 0, 0, 11065
…
