…
 0, 0, 486561, 169125, 49972, 238352, 32803, 486266, 319530, 259925, 0, 0], [0, 46287, 122008, 0, 0, 16762, 0, 0, 374046, 266567, 0, 0, 374046, 0, 230391, 265612, 250258, 133109, 63146, 374046, 421513, 133109], [0, 29377, 440732, 0, 250258, 171697, 322960, 0, 380936, 0, 303987, 484744, 16661, 339467, 303987, 259925, 484280, 0, 374046, 496996, 339467, 0]]
Begin: Training
_________________________________________________________________
Layer (type)                 Output Shape              Param #   
=================================================================
input_1 (InputLayer)         (None, 22)                0         
_________________________________________________________________
embedding_1 (Embedding)      (None, 22, 100)           50000200  
_________________________________________________________________
bidirectional_1 (Bidirection (None, 22, 256)           234496    
_________________________________________________________________
dense_1 (Dense)              (None, 22, 64)            16448     
_________________________________________________________________
dropout_1 (Dropout)          (None, 22, 64)            0         
_________________________________________________________________
dense_2 (Dense)              (None, 22, 32)            2080      
_________________________________________________________________
dropout_2 (Dropout)          (None, 22, 32)            0         
_________________________________________________________________
flatten_1 (Flatten)          (None, 704)               0         
_________________________________________________________________
dense_3 (Dense)              (None, 3)                 2115      
=================================================================
Total params: 50,255,339
Trainable params: 255,139
Non-trainable params: 50,000,200
_________________________________________________________________
End: Training
Begin: Loading embeddings
End: Loading embeddings
[[0, 87875, 33220, 450512, 452160, 0, 463102, 0, 0, 33220, 339330, 174927, 0, 463102, 318406, 15078, 0, 110859, 1
…
