…
[[8, 4093, 2698, 3441, 23, 4375, 2895, 28, 15, 48, 28, 4356, 15, 1027, 2687, 16, 5416, 678, 14, 24, 22, 86], [21, 43, 63, 20, 16, 606, 118, 373, 32, 228, 104, 2549, 20, 4, 10319, 58, 17061, 203, 13, 142, 14, 1], [367, 50, 19, 167, 80954, 23, 3382, 13219, 0, 15088, 20208, 6185, 302, 9946, 30, 2951, 0, 1, 1, 1, 1, 1], [3382, 1429, 22, 17, 318, 91, 1439, 283, 1048, 1918, 95, 4, 338, 3475, 91, 0, 1, 1, 1, 1, 1, 1], [12038, 2021, 17, 54366, 75514, 23, 27750, 10, 4, 25351, 760, 288, 40, 108, 178, 6193, 14, 1, 1, 1, 1, 1]]
Begin: Training
_________________________________________________________________
Layer (type)                 Output Shape              Param #   
=================================================================
input_1 (InputLayer)         (None, 22)                0         
_________________________________________________________________
embedding_1 (Embedding)      (None, 22, 100)           50000200  
_________________________________________________________________
bidirectional_1 (Bidirection (None, 22, 256)           234496    
_________________________________________________________________
dense_1 (Dense)              (None, 22, 64)            16448     
_________________________________________________________________
dropout_1 (Dropout)          (None, 22, 64)            0         
_________________________________________________________________
dense_2 (Dense)              (None, 22, 32)            2080      
_________________________________________________________________
dropout_2 (Dropout)          (None, 22, 32)            0         
_________________________________________________________________
flatten_1 (Flatten)          (None, 704)               0         
_________________________________________________________________
dense_3 (Dense)              (None, 3)                 2115      
=================================================================
Total params: 50,255,339
Trainable params: 255,139
Non-trainable params: 50,000,200
_________________________________________________________________
End: Training
Begin: Loading embeddings
End: Loading embeddings
[[7070, 82, 8, 91, 192451, 428, 0, 11320, 0, 0, 0, 7070, 82, 0, 26, 0, 1, 1, 1, 1, 1, 1], [0, 102369, 0, 0, 5771,
…
