…
[[265360, 4735, 14577, 6, 1968, 7, 3739, 12, 1209, 4656, 10, 1445, 14, 170, 86, 373, 23442, 4, 6576, 14, 0, 0], [1776, 1114, 920, 3833, 3692, 9, 871, 44, 149, 476, 1604, 14, 1386, 68, 55, 1989, 50, 167, 26, 546, 540, 80], [1418, 3500, 40, 4, 5978, 140, 797, 649, 22, 231, 815, 13, 159, 275, 6, 79, 281, 377, 15, 50, 13, 120], [57, 13, 47, 445, 15, 264, 105, 15, 27, 44, 38, 166, 6, 1359, 46, 20, 4, 489, 9, 607, 6, 2382], [23, 213, 63, 166, 6, 160, 48880, 28, 50, 183, 765, 125, 24, 1, 1, 1, 1, 1, 1, 1, 1, 1]]
Begin: Training
_________________________________________________________________
Layer (type)                 Output Shape              Param #   
=================================================================
input_1 (InputLayer)         (None, 22)                0         
_________________________________________________________________
embedding_1 (Embedding)      (None, 22, 100)           50000200  
_________________________________________________________________
bidirectional_1 (Bidirection (None, 22, 256)           234496    
_________________________________________________________________
dense_1 (Dense)              (None, 22, 64)            16448     
_________________________________________________________________
dropout_1 (Dropout)          (None, 22, 64)            0         
_________________________________________________________________
dense_2 (Dense)              (None, 22, 32)            2080      
_________________________________________________________________
dropout_2 (Dropout)          (None, 22, 32)            0         
_________________________________________________________________
flatten_1 (Flatten)          (None, 704)               0         
_________________________________________________________________
dense_3 (Dense)              (None, 2)                 1410      
=================================================================
Total params: 50,254,634
Trainable params: 254,434
Non-trainable params: 50,000,200
_________________________________________________________________
End: Training
[[722, 9821, 42473, 183, 373, 365, 46, 263, 1423, 263, 53, 5466, 1602, 0, 0, 1, 1, 1, 1, 1, 1, 1], [13, 204, 5282, 231, 105, 304, 1, 1, 1, 1, 1, 1, 1, 1, 1, 1, 1, 
…
