…
[[14, 744, 801, 27, 4531, 586, 27, 76163, 2669, 295, 378, 295, 1255, 18, 4, 365, 64, 13055, 0, 0, 0, 8320, 1], [167, 10, 4053, 12, 4, 210, 68411, 0, 14, 708, 116, 596, 421, 183, 32452, 2825, 23, 7, 1776, 1114, 649, 23, 251], [4375, 2895, 28, 22, 267, 133, 7, 6732, 18, 21, 461, 14, 345, 213, 15, 388, 46, 6, 19, 6, 1503, 90, 14], [6933, 67576, 7070, 0, 7208, 29463, 2730, 46, 1881, 70758, 7070, 0, 198, 53, 1837, 3595, 368, 9, 2799, 583, 5301, 6206, 583], [270, 284, 6, 1167, 95, 15466, 54522, 33, 8, 231, 11, 352, 90, 0, 9236, 5857, 0, 1, 1, 1, 1, 1, 1]]
Begin: Training
_________________________________________________________________
Layer (type)                 Output Shape              Param #   
=================================================================
input_1 (InputLayer)         (None, 23)                0         
_________________________________________________________________
embedding_1 (Embedding)      (None, 23, 100)           50000200  
_________________________________________________________________
bidirectional_1 (Bidirection (None, 23, 256)           234496    
_________________________________________________________________
dense_1 (Dense)              (None, 23, 64)            16448     
_________________________________________________________________
dropout_1 (Dropout)          (None, 23, 64)            0         
_________________________________________________________________
dense_2 (Dense)              (None, 23, 32)            2080      
_________________________________________________________________
dropout_2 (Dropout)          (None, 23, 32)            0         
_________________________________________________________________
flatten_1 (Flatten)          (None, 736)               0         
_________________________________________________________________
dense_3 (Dense)              (None, 2)                 1474      
=================================================================
Total params: 50,254,698
Trainable params: 254,498
Non-trainable params: 50,000,200
_________________________________________________________________
End: Training
[[1176, 231, 18, 3126, 329, 18, 28054, 11, 13, 159, 275, 6, 79, 19, 322, 168, 11, 1, 1, 1, 1, 1, 1], [27, 1489, 179, 20, 456, 9360, 2873, 6, 850, 95, 165, 25, 816,
…
