…
End: Loading evaluation corpus
Begin: Loading embeddings
End: Loading embeddings
[[0, 408, 40, 73755, 0, 413807, 2520, 0, 1, 1, 1, 1], [48, 82, 2670, 423, 4, 33, 9100, 61, 484, 1, 1, 1], [8134, 16, 35, 3290, 130, 31, 16, 27, 27, 32817, 484, 6], [277, 195, 121, 18, 1443, 478, 39, 70987, 484, 1, 1, 1], [6, 5470, 10, 623, 3, 11, 176, 90, 691, 128680, 43, 3544]]
Begin: Training
_________________________________________________________________
Layer (type)                 Output Shape              Param #   
=================================================================
input_1 (InputLayer)         (None, 12)                0         
_________________________________________________________________
embedding_1 (Embedding)      (None, 12, 100)           50000200  
_________________________________________________________________
bidirectional_1 (Bidirection (None, 12, 256)           234496    
_________________________________________________________________
dense_1 (Dense)              (None, 12, 64)            16448     
_________________________________________________________________
dropout_1 (Dropout)          (None, 12, 64)            0         
_________________________________________________________________
dense_2 (Dense)              (None, 12, 32)            2080      
_________________________________________________________________
dropout_2 (Dropout)          (None, 12, 32)            0         
_________________________________________________________________
flatten_1 (Flatten)          (None, 384)               0         
_________________________________________________________________
dense_3 (Dense)              (None, 2)                 770       
=================================================================
Total params: 50,253,994
Trainable params: 253,794
Non-trainable params: 50,000,200
_________________________________________________________________
End: Training
[[111681, 330, 4773, 484, 1, 1, 1, 1, 1, 1, 1, 1], [6, 62, 60, 11178, 12, 39, 47588, 129, 29, 116, 4, 189], [6, 31, 230, 8, 31, 143598, 3, 1449, 21932, 31, 1028, 23], [6, 385309, 714, 10, 15, 10678, 3, 0, 244, 65, 29, 155674], [172, 666, 4, 260, 320, 484, 0, 1, 1, 1, 1, 1]]
…
