…
[[2052, 38, 19, 195379, 11, 534, 174, 6, 4, 314, 917, 1423, 3557, 649, 42, 15, 873, 3260, 15, 33, 26, 0], [8539, 139, 15, 120, 87, 40, 53, 1776, 1114, 22, 7, 602, 435, 15, 19, 4485, 2772, 422, 14, 174, 147566, 84], [634, 7, 3784, 954, 688, 63, 166, 6, 310, 27750, 231, 14, 1, 1, 1, 1, 1, 1, 1, 1, 1, 1], [12104, 13848, 1415, 14517, 4852, 10, 1988, 20, 3401, 224, 53, 1744, 3888, 0, 1, 1, 1, 1, 1, 1, 1, 1], [701, 193, 296863, 231, 33, 4088, 23, 8, 78, 0, 18, 26448, 329, 20, 2461, 44266, 15, 9380, 9, 41, 2623, 91]]
Begin: Training
_________________________________________________________________
Layer (type)                 Output Shape              Param #   
=================================================================
input_1 (InputLayer)         (None, 22)                0         
_________________________________________________________________
embedding_1 (Embedding)      (None, 22, 100)           50000200  
_________________________________________________________________
bidirectional_1 (Bidirection (None, 22, 256)           234496    
_________________________________________________________________
dense_1 (Dense)              (None, 22, 64)            16448     
_________________________________________________________________
dropout_1 (Dropout)          (None, 22, 64)            0         
_________________________________________________________________
dense_2 (Dense)              (None, 22, 32)            2080      
_________________________________________________________________
dropout_2 (Dropout)          (None, 22, 32)            0         
_________________________________________________________________
flatten_1 (Flatten)          (None, 704)               0         
_________________________________________________________________
dense_3 (Dense)              (None, 3)                 2115      
=================================================================
Total params: 50,255,339
Trainable params: 255,139
Non-trainable params: 50,000,200
_________________________________________________________________
End: Training
[[8, 15865, 239, 40, 373, 32, 2393, 14, 524, 4, 114, 17170, 22613, 44, 9114, 6, 17051, 78, 315219, 14, 45140, 22613], [82, 80, 438, 7, 0, 6495, 1942, 378, 19940, 1
…
