…
[[1577, 11, 619, 19, 86, 599, 30, 53667, 8, 0, 342, 15, 22, 22, 1336, 62, 39, 1039, 13402], [7637, 13265, 4, 120950, 900, 1039, 1823, 0, 86, 3, 1, 1, 1, 1, 1, 1, 1, 1, 1], [7637, 13265, 4, 120950, 900, 101415, 6, 1039, 1823, 120, 4505, 42, 181, 24, 0, 42806, 1209, 1, 1], [1039, 1823, 24, 1367, 8317, 16242, 13, 95365, 19, 282, 20398, 20, 4539, 0, 1, 1, 1, 1, 1], [1039, 1823, 24, 1367, 8317, 16242, 13, 95365, 19, 282, 20398, 20, 4539, 8, 26, 13107, 6, 1301, 10]]
Begin: Training
_________________________________________________________________
Layer (type)                 Output Shape              Param #   
=================================================================
input_1 (InputLayer)         (None, 19)                0         
_________________________________________________________________
embedding_1 (Embedding)      (None, 19, 100)           26471900  
_________________________________________________________________
bidirectional_1 (Bidirection (None, 19, 256)           234496    
_________________________________________________________________
dense_1 (Dense)              (None, 19, 64)            16448     
_________________________________________________________________
dropout_1 (Dropout)          (None, 19, 64)            0         
_________________________________________________________________
dense_2 (Dense)              (None, 19, 32)            2080      
_________________________________________________________________
dropout_2 (Dropout)          (None, 19, 32)            0         
_________________________________________________________________
flatten_1 (Flatten)          (None, 608)               0         
_________________________________________________________________
dense_3 (Dense)              (None, 2)                 1218      
=================================================================
Total params: 26,726,142
Trainable params: 254,242
Non-trainable params: 26,471,900
_________________________________________________________________
End: Training
[[3875, 22, 3, 24, 125, 155, 1572, 65, 0, 59074, 18020, 3875, 22, 0, 17, 37275, 1, 1, 1], [18020, 68, 0, 116125, 18, 1284, 126, 152, 594, 11, 431, 4, 12891, 499, 3, 3, 0, 1, 1], [3875, 22, 3, 24, 125, 155, 1572, 65, 0, 59074, 18020, 3875, 22, 787, 3, 65342, 1, 1, 1], [3, 47, 15, 11, 18020, 1128, 0, 191, 15, 46, 1127, 47, 6, 8092, 814, 14, 64661, 17, 370], [3, 57, 4681, 18020, 244, 26, 1232, 27, 276, 801, 0, 3, 3, 53282, 1, 1, 1, 1, 1]]
…
