…
[[1485, 8, 4, 0, 17, 2227, 22, 55, 9, 38, 15, 50, 112, 0, 2452, 84, 8539, 14, 1, 1, 1, 1], [8, 115, 95, 19, 160, 7, 2798, 40, 765, 660, 16, 15030, 36027, 14, 21, 22, 4, 926, 43, 21, 134, 1206], [13, 373, 32, 19595, 23, 21, 3447, 50, 26, 540, 27, 698, 8, 263, 70, 26158, 886, 3648, 84, 765, 4, 11986], [111, 6, 8, 15, 13, 31, 373, 32, 12753, 174, 6, 8, 14, 1, 1, 1, 1, 1, 1, 1, 1, 1], [5660, 15, 13, 373, 68, 6465, 41, 6783, 2966, 12, 719, 14, 50, 15, 19, 87, 160, 7, 912, 1068, 16348, 2798]]
Begin: Training
_________________________________________________________________
Layer (type)                 Output Shape              Param #   
=================================================================
input_1 (InputLayer)         (None, 22)                0         
_________________________________________________________________
embedding_1 (Embedding)      (None, 22, 100)           50000200  
_________________________________________________________________
bidirectional_1 (Bidirection (None, 22, 256)           234496    
_________________________________________________________________
dense_1 (Dense)              (None, 22, 64)            16448     
_________________________________________________________________
dropout_1 (Dropout)          (None, 22, 64)            0         
_________________________________________________________________
dense_2 (Dense)              (None, 22, 32)            2080      
_________________________________________________________________
dropout_2 (Dropout)          (None, 22, 32)            0         
_________________________________________________________________
flatten_1 (Flatten)          (None, 704)               0         
_________________________________________________________________
dense_3 (Dense)              (None, 2)                 1410      
=================================================================
Total params: 50,254,634
Trainable params: 254,434
Non-trainable params: 50,000,200
_________________________________________________________________
End: Training
Begin: Loading embeddings
End: Loading embeddings
[[8, 91473, 4430, 112, 7493, 0, 259, 31562, 27449, 4430, 7937, 32006, 114038, 259, 0, 9587, 4885, 225647, 1, 1, 1
…
