…
[[6, 99, 316, 1, 1, 1, 1, 1, 1, 1, 1, 1, 1, 1, 1, 1, 1, 1, 1, 1, 1], [870, 1878, 8, 14, 8097, 336822, 4, 11, 13, 35, 127, 3, 11, 51549, 98, 35, 415, 334, 5165, 7, 4209], [3275, 12, 477, 90, 19, 22321, 43, 6072, 10, 237, 237, 237, 45, 2924, 105, 281, 10, 1, 1, 1, 1], [464, 6, 7, 8633, 4753, 680, 7249, 18, 8374, 173967, 10, 1, 1, 1, 1, 1, 1, 1, 1, 1, 1], [260, 69, 129, 10, 33, 1332, 8752, 21, 1979, 419, 12, 1157, 15, 12, 95, 353, 6, 61, 1857, 86, 21]]
Begin: Training
_________________________________________________________________
Layer (type)                 Output Shape              Param #   
=================================================================
input_1 (InputLayer)         (None, 21)                0         
_________________________________________________________________
embedding_1 (Embedding)      (None, 21, 100)           50000200  
_________________________________________________________________
bidirectional_1 (Bidirection (None, 21, 256)           234496    
_________________________________________________________________
dense_1 (Dense)              (None, 21, 64)            16448     
_________________________________________________________________
dropout_1 (Dropout)          (None, 21, 64)            0         
_________________________________________________________________
dense_2 (Dense)              (None, 21, 32)            2080      
_________________________________________________________________
dropout_2 (Dropout)          (None, 21, 32)            0         
_________________________________________________________________
flatten_1 (Flatten)          (None, 672)               0         
_________________________________________________________________
dense_3 (Dense)              (None, 2)                 1346      
=================================================================
Total params: 50,254,570
Trainable params: 254,370
Non-trainable params: 50,000,200
_________________________________________________________________
End: Training
[[4341, 36, 2364, 36, 4, 320, 7, 9838, 43, 14335, 32, 36, 3554, 36, 25, 11919, 244, 92216, 36, 41658, 36], [9097, 29820, 910, 11, 1588, 3, 95, 1345, 10411, 1774, 1
…
