…
[[8, 8, 106, 261, 9227, 89, 1980, 9, 0, 120, 1513, 15, 927, 80, 17, 422, 15, 8338, 493, 9166, 954, 17], [19, 373, 32, 349, 50, 1499, 178, 32, 1821, 23359, 18, 4, 56532, 349, 14, 0, 177828, 1, 1, 1, 1, 1], [8, 8, 8, 6174, 1114, 9, 1821, 6483, 47, 538, 2112, 4, 610, 356, 14, 524, 263, 35530, 80784, 263, 84, 0], [1429, 108, 172, 428, 954, 12, 4, 39653, 33, 26781, 15, 1338, 4633, 10, 4, 366, 141, 14, 360, 183, 108, 517], [172, 29, 6, 415023, 476, 181, 356123, 398, 231, 30, 13, 125, 54, 318, 14, 1, 1, 1, 1, 1, 1, 1]]
Begin: Training
_________________________________________________________________
Layer (type)                 Output Shape              Param #   
=================================================================
input_1 (InputLayer)         (None, 22)                0         
_________________________________________________________________
embedding_1 (Embedding)      (None, 22, 100)           50000200  
_________________________________________________________________
bidirectional_1 (Bidirection (None, 22, 256)           234496    
_________________________________________________________________
dense_1 (Dense)              (None, 22, 64)            16448     
_________________________________________________________________
dropout_1 (Dropout)          (None, 22, 64)            0         
_________________________________________________________________
dense_2 (Dense)              (None, 22, 32)            2080      
_________________________________________________________________
dropout_2 (Dropout)          (None, 22, 32)            0         
_________________________________________________________________
flatten_1 (Flatten)          (None, 704)               0         
_________________________________________________________________
dense_3 (Dense)              (None, 3)                 2115      
=================================================================
Total params: 50,255,339
Trainable params: 255,139
Non-trainable params: 50,000,200
_________________________________________________________________
End: Training
[[50304, 134, 1321, 503, 1, 1, 1, 1, 1, 1, 1, 1, 1, 1, 1, 1, 1, 1, 1, 1, 1, 1], [8, 23464, 37048, 331385, 7, 312, 6415, 22424, 197, 49781, 15, 107267, 4430, 112, 7
…
