…
[[16, 1896, 8, 1489, 179, 20, 122410, 176, 992, 244, 23, 7, 1873, 10, 4, 83, 14, 63, 71035, 263, 17, 18373], [8, 27, 373, 68, 217, 6014, 7535, 152, 38, 14, 223, 24, 9674, 779, 86, 20665, 38699, 71955, 104, 35, 4, 28], [8, 573, 8794, 13, 538, 117, 19, 17, 1818, 29, 853, 165, 17484, 12005, 18, 67432, 23, 251, 458, 11, 11, 11], [265369, 125, 95, 40, 987, 12853, 84, 2382, 10798, 78, 78771, 586, 1427, 4109, 758, 5460, 14, 0, 10795, 0, 1, 1], [8, 8, 11842, 22, 30275, 24, 373, 68, 89, 37, 18, 4, 610, 43, 1, 1, 1, 1, 1, 1, 1, 1]]
Begin: Training
_________________________________________________________________
Layer (type)                 Output Shape              Param #   
=================================================================
input_1 (InputLayer)         (None, 22)                0         
_________________________________________________________________
embedding_1 (Embedding)      (None, 22, 100)           50000200  
_________________________________________________________________
bidirectional_1 (Bidirection (None, 22, 256)           234496    
_________________________________________________________________
dense_1 (Dense)              (None, 22, 64)            16448     
_________________________________________________________________
dropout_1 (Dropout)          (None, 22, 64)            0         
_________________________________________________________________
dense_2 (Dense)              (None, 22, 32)            2080      
_________________________________________________________________
dropout_2 (Dropout)          (None, 22, 32)            0         
_________________________________________________________________
flatten_1 (Flatten)          (None, 704)               0         
_________________________________________________________________
dense_3 (Dense)              (None, 2)                 1410      
=================================================================
Total params: 50,254,634
Trainable params: 254,434
Non-trainable params: 50,000,200
_________________________________________________________________
End: Training
Begin: Loading embeddings
End: Loading embeddings
[[7070, 82, 8, 91, 192451, 428, 0, 11320, 0, 0, 0, 7070, 82, 0, 26, 0, 1, 1, 1, 1, 1, 1], [0, 102369, 0, 0, 5771,
…
