…
, 178587, 175732, 66370, 280689, 146508, 0, 0, 73234, 249884, 286667, 0, 51068, 320817, 320524, 147926, 231587], [117502, 0, 0, 0, 96399, 177314, 286667, 346168, 0, 96399, 102603, 396062, 872, 345965, 146508, 314259, 117502, 41296, 0, 242306, 0, 1], [0, 275907, 0, 146508, 160697, 410100, 286667, 371975, 41296, 385188, 0, 1, 1, 1, 1, 1, 1, 1, 1, 1, 1, 1]]
Begin: Training
_________________________________________________________________
Layer (type)                 Output Shape              Param #   
=================================================================
input_1 (InputLayer)         (None, 22)                0         
_________________________________________________________________
embedding_1 (Embedding)      (None, 22, 100)           50000200  
_________________________________________________________________
bidirectional_1 (Bidirection (None, 22, 256)           234496    
_________________________________________________________________
dense_1 (Dense)              (None, 22, 64)            16448     
_________________________________________________________________
dropout_1 (Dropout)          (None, 22, 64)            0         
_________________________________________________________________
dense_2 (Dense)              (None, 22, 32)            2080      
_________________________________________________________________
dropout_2 (Dropout)          (None, 22, 32)            0         
_________________________________________________________________
flatten_1 (Flatten)          (None, 704)               0         
_________________________________________________________________
dense_3 (Dense)              (None, 2)                 1410      
=================================================================
Total params: 50,254,634
Trainable params: 254,434
Non-trainable params: 50,000,200
_________________________________________________________________
End: Training
Begin: Loading embeddings
End: Loading embeddings
[[120279, 101957, 280639, 140777, 155546, 255665, 0, 0, 0, 0, 0, 120279, 101957, 0, 242306, 0, 1, 1, 1, 1, 1, 1],
…
