…
[[16078, 91, 4, 263, 7523, 263, 12, 2770, 751, 91, 7, 40129, 12, 2006, 0, 5932, 19, 373, 47, 903, 174, 171, 26], [47, 7, 55, 626, 38, 12, 19, 48, 339, 28, 12104, 13848, 78, 5325, 2572, 1280, 0, 1, 1, 1, 1, 1, 1], [926, 51, 4481, 134, 116, 23, 24, 121, 435, 276, 435, 1, 1, 1, 1, 1, 1, 1, 1, 1, 1, 1, 1], [8, 1205, 79, 29, 2692, 63, 128, 6, 16864, 999, 42, 17, 4, 124, 14, 3338, 8059, 85, 189, 11, 1, 1, 1], [204, 6, 1167, 95, 4375, 6044, 1648, 84, 115, 95, 304303, 2391, 19788, 84, 352, 29, 18, 412, 2391, 251, 23, 50124, 0]]
Begin: Training
_________________________________________________________________
Layer (type)                 Output Shape              Param #   
=================================================================
input_1 (InputLayer)         (None, 23)                0         
_________________________________________________________________
embedding_1 (Embedding)      (None, 23, 100)           50000200  
_________________________________________________________________
bidirectional_1 (Bidirection (None, 23, 256)           234496    
_________________________________________________________________
dense_1 (Dense)              (None, 23, 64)            16448     
_________________________________________________________________
dropout_1 (Dropout)          (None, 23, 64)            0         
_________________________________________________________________
dense_2 (Dense)              (None, 23, 32)            2080      
_________________________________________________________________
dropout_2 (Dropout)          (None, 23, 32)            0         
_________________________________________________________________
flatten_1 (Flatten)          (None, 736)               0         
_________________________________________________________________
dense_3 (Dense)              (None, 2)                 1474      
=================================================================
Total params: 50,254,698
Trainable params: 254,498
Non-trainable params: 50,000,200
_________________________________________________________________
End: Training
Begin: Loading embeddings
End: Loading embeddings
[[7070, 82, 8, 91, 192451, 428, 0, 11320, 0, 0, 0, 7070, 82, 0, 26, 0, 1, 1, 1, 1, 1, 1, 1], [0, 102369, 0, 0, 57
…
