…
[[24, 373, 32, 49626, 1044, 15, 50, 27, 839, 68, 803, 118, 874, 134, 7, 1044, 42, 26, 0, 1, 1, 1, 1], [2380, 8, 91, 48, 356, 13, 1918, 33, 713, 10, 1093, 36, 57, 7, 1896, 1586, 37, 7, 2943, 19, 60, 4, 1050], [54, 224, 26, 50, 6014, 7535, 22, 16, 2534, 31, 1612, 14, 170, 22, 166, 6, 32, 7, 55, 1688, 14, 13, 239], [1188, 5907, 7070, 0, 3686, 2826, 11232, 1131, 626, 91, 17, 7, 697, 1456, 28, 7070, 0, 1188, 5907, 26, 0, 23248, 3508], [139, 12, 9034, 580, 4, 4908, 15, 14539, 15, 285172, 15, 6001, 15, 107056, 15, 985, 15, 9, 7, 450, 104, 5775, 22]]
Begin: Training
_________________________________________________________________
Layer (type)                 Output Shape              Param #   
=================================================================
input_1 (InputLayer)         (None, 23)                0         
_________________________________________________________________
embedding_1 (Embedding)      (None, 23, 100)           50000200  
_________________________________________________________________
bidirectional_1 (Bidirection (None, 23, 256)           234496    
_________________________________________________________________
dense_1 (Dense)              (None, 23, 64)            16448     
_________________________________________________________________
dropout_1 (Dropout)          (None, 23, 64)            0         
_________________________________________________________________
dense_2 (Dense)              (None, 23, 32)            2080      
_________________________________________________________________
dropout_2 (Dropout)          (None, 23, 32)            0         
_________________________________________________________________
flatten_1 (Flatten)          (None, 736)               0         
_________________________________________________________________
dense_3 (Dense)              (None, 2)                 1474      
=================================================================
Total params: 50,254,698
Trainable params: 254,498
Non-trainable params: 50,000,200
_________________________________________________________________
End: Training
[[50304, 134, 1321, 503, 1, 1, 1, 1, 1, 1, 1, 1, 1, 1, 1, 1, 1, 1, 1, 1, 1, 1, 1], [8, 23464, 37048, 331385, 7, 312, 6415, 22424, 197, 49781, 15, 107267, 4430, 112
…
