…
[[8, 45, 96, 6544, 0, 373, 19, 47, 4411, 191, 12, 1469, 9802, 1, 1, 1, 1, 1, 1, 1, 1, 1], [55946, 5431, 409, 10, 4, 926, 438, 11, 228, 0, 4, 593, 11, 46, 10850, 11, 105935, 9013, 107625, 1, 1, 1], [16517, 160, 43, 17, 15482, 121, 4, 1688, 160, 43, 17, 4, 586, 722, 14, 30, 229, 44, 19, 30, 1318, 18], [60, 3087, 185, 213, 30, 13, 60, 6, 1038, 28827, 9, 13, 67, 290, 33, 5014, 152, 4, 139, 1, 1, 1], [8, 8, 8, 8, 4, 74, 5953, 36, 269, 363, 20, 112, 263, 0, 263, 14, 13525, 978, 20, 4887, 149046, 926]]
Begin: Training
_________________________________________________________________
Layer (type)                 Output Shape              Param #   
=================================================================
input_1 (InputLayer)         (None, 22)                0         
_________________________________________________________________
embedding_1 (Embedding)      (None, 22, 100)           50000200  
_________________________________________________________________
bidirectional_1 (Bidirection (None, 22, 256)           234496    
_________________________________________________________________
dense_1 (Dense)              (None, 22, 64)            16448     
_________________________________________________________________
dropout_1 (Dropout)          (None, 22, 64)            0         
_________________________________________________________________
dense_2 (Dense)              (None, 22, 32)            2080      
_________________________________________________________________
dropout_2 (Dropout)          (None, 22, 32)            0         
_________________________________________________________________
flatten_1 (Flatten)          (None, 704)               0         
_________________________________________________________________
dense_3 (Dense)              (None, 2)                 1410      
=================================================================
Total params: 50,254,634
Trainable params: 254,434
Non-trainable params: 50,000,200
_________________________________________________________________
End: Training
[[50304, 134, 1321, 503, 1, 1, 1, 1, 1, 1, 1, 1, 1, 1, 1, 1, 1, 1, 1, 1, 1, 1], [8, 23464, 37048, 331385, 7, 312, 6415, 22424, 197, 49781, 15, 107267, 4430, 112, 7
…
