…
[[8, 105, 38, 14, 115, 95, 67, 2382, 10798, 588, 0, 82, 489, 22, 4286, 82, 17, 623, 9, 8, 1053, 6], [2859, 78, 13, 44, 346, 7, 1235, 14264, 82, 6971, 394, 171, 19, 1045, 23, 123211, 1011, 82, 9, 27, 31, 1476], [378, 91, 12594, 38737, 2588, 1427, 2476, 1128, 1683, 507, 53, 20, 4, 16011, 1683, 12, 4, 1259, 0, 0, 1, 1], [149, 254, 937, 6, 166, 6, 5014, 20, 3570, 10, 6215, 231, 105, 1, 1, 1, 1, 1, 1, 1, 1, 1], [30, 9325, 22, 33917, 1695, 3899, 2958, 162, 379, 17, 4, 279, 394421, 3848, 14, 178, 870, 102, 2958, 14, 1, 1]]
Begin: Training
_________________________________________________________________
Layer (type)                 Output Shape              Param #   
=================================================================
input_1 (InputLayer)         (None, 22)                0         
_________________________________________________________________
embedding_1 (Embedding)      (None, 22, 100)           50000200  
_________________________________________________________________
bidirectional_1 (Bidirection (None, 22, 256)           234496    
_________________________________________________________________
dense_1 (Dense)              (None, 22, 64)            16448     
_________________________________________________________________
dropout_1 (Dropout)          (None, 22, 64)            0         
_________________________________________________________________
dense_2 (Dense)              (None, 22, 32)            2080      
_________________________________________________________________
dropout_2 (Dropout)          (None, 22, 32)            0         
_________________________________________________________________
flatten_1 (Flatten)          (None, 704)               0         
_________________________________________________________________
dense_3 (Dense)              (None, 3)                 2115      
=================================================================
Total params: 50,255,339
Trainable params: 255,139
Non-trainable params: 50,000,200
_________________________________________________________________
End: Training
Begin: Loading embeddings
End: Loading embeddings
[[7070, 82, 8, 91, 192451, 428, 0, 11320, 0, 0, 0, 7070, 82, 0, 26, 0, 1, 1, 1, 1, 1, 1], [0, 102369, 0, 0, 5771,
…
