…
[[0, 82, 106, 27, 217, 104, 19275, 2770, 1007, 6, 12916, 24, 82, 170, 26396, 489, 17, 243, 939, 30762, 1, 1], [2108, 0, 22, 7, 1052, 657, 2108, 4375, 2895, 28, 22, 166, 6, 32, 2370, 203, 345, 213, 61, 87, 92, 180], [149, 48, 598, 406, 4, 71126, 82, 2769, 16817, 84, 8993, 1797, 84, 629, 61, 19, 249, 929, 108, 2116, 42, 82], [4935, 12309, 46, 64, 54, 279, 38, 174, 226, 14, 160, 223869, 41, 89921, 20, 552, 1881, 36947, 53, 86, 26, 0], [8, 112, 50, 95, 6, 80, 6, 1157, 1414, 13, 373, 60, 1249, 17, 586, 26, 304, 14, 54, 7, 450, 6]]
Begin: Training
_________________________________________________________________
Layer (type)                 Output Shape              Param #   
=================================================================
input_1 (InputLayer)         (None, 22)                0         
_________________________________________________________________
embedding_1 (Embedding)      (None, 22, 100)           50000200  
_________________________________________________________________
bidirectional_1 (Bidirection (None, 22, 256)           234496    
_________________________________________________________________
dense_1 (Dense)              (None, 22, 64)            16448     
_________________________________________________________________
dropout_1 (Dropout)          (None, 22, 64)            0         
_________________________________________________________________
dense_2 (Dense)              (None, 22, 32)            2080      
_________________________________________________________________
dropout_2 (Dropout)          (None, 22, 32)            0         
_________________________________________________________________
flatten_1 (Flatten)          (None, 704)               0         
_________________________________________________________________
dense_3 (Dense)              (None, 3)                 2115      
=================================================================
Total params: 50,255,339
Trainable params: 255,139
Non-trainable params: 50,000,200
_________________________________________________________________
End: Training
Begin: Loading embeddings
End: Loading embeddings
[[8, 91473, 4430, 112, 7493, 0, 259, 31562, 27449, 4430, 7937, 32006, 114038, 259, 0, 9587, 4885, 225647, 1, 1, 1
…
