…
[[63, 1263, 16, 10319, 58, 1317, 231, 814, 1171, 261, 38, 166, 6, 72, 109, 6362, 9, 19, 108, 39, 24, 14], [55, 2507, 11, 12434, 20222, 42825, 15, 50, 19, 159, 1038, 24, 91, 12434, 14390, 23, 733, 7, 834, 697, 8521, 40], [45, 213, 1440, 11, 674, 3751, 874, 47, 7, 2770, 751, 1673, 84, 337, 4748, 106, 19, 47, 48, 11, 11, 11], [1445, 22, 6142, 6, 1395, 14577, 50, 1901, 239113, 11, 265360, 1343, 6, 37040, 281, 64, 1445, 221, 20, 213029, 0, 1], [5978, 140, 797, 231, 20, 8, 40061, 106, 4439, 32, 166, 6, 119, 4, 185, 28, 5455, 1, 1, 1, 1, 1]]
Begin: Training
_________________________________________________________________
Layer (type)                 Output Shape              Param #   
=================================================================
input_1 (InputLayer)         (None, 22)                0         
_________________________________________________________________
embedding_1 (Embedding)      (None, 22, 100)           50000200  
_________________________________________________________________
bidirectional_1 (Bidirection (None, 22, 256)           234496    
_________________________________________________________________
dense_1 (Dense)              (None, 22, 64)            16448     
_________________________________________________________________
dropout_1 (Dropout)          (None, 22, 64)            0         
_________________________________________________________________
dense_2 (Dense)              (None, 22, 32)            2080      
_________________________________________________________________
dropout_2 (Dropout)          (None, 22, 32)            0         
_________________________________________________________________
flatten_1 (Flatten)          (None, 704)               0         
_________________________________________________________________
dense_3 (Dense)              (None, 2)                 1410      
=================================================================
Total params: 50,254,634
Trainable params: 254,434
Non-trainable params: 50,000,200
_________________________________________________________________
End: Training
Begin: Loading embeddings
End: Loading embeddings
[[0, 263, 0, 263, 15, 24078, 14, 0, 1734, 0, 6255, 263, 221395, 263, 1695, 183757, 1218, 90587, 263, 0, 263, 7], 
…
