…
[[4, 263, 0, 5972, 263, 31, 7392, 208, 69, 2769, 15, 1410, 24, 1727, 15, 40463, 11, 4053, 4, 128421, 15, 586], [231, 4, 28, 929, 20222, 7, 25, 2769, 78, 8993, 0, 13, 204, 823, 3133, 4968, 11, 1, 1, 1, 1, 1], [17, 893, 91, 48, 2390, 8577, 2491, 6, 5978, 140, 797, 18, 38304, 58, 23, 1566, 2369, 14, 19, 108, 47, 4], [0, 0, 0, 14457, 373, 68, 12353, 1445, 14990, 227977, 91, 1208, 203, 1439, 833, 152, 4, 62, 0, 26, 0, 1], [23471, 41, 1308, 33, 41, 9032, 20, 16322, 2764, 4650, 17, 929, 432, 0, 19241, 53632, 1, 1, 1, 1, 1, 1]]
Begin: Training
_________________________________________________________________
Layer (type)                 Output Shape              Param #   
=================================================================
input_1 (InputLayer)         (None, 22)                0         
_________________________________________________________________
embedding_1 (Embedding)      (None, 22, 100)           50000200  
_________________________________________________________________
bidirectional_1 (Bidirection (None, 22, 256)           234496    
_________________________________________________________________
dense_1 (Dense)              (None, 22, 64)            16448     
_________________________________________________________________
dropout_1 (Dropout)          (None, 22, 64)            0         
_________________________________________________________________
dense_2 (Dense)              (None, 22, 32)            2080      
_________________________________________________________________
dropout_2 (Dropout)          (None, 22, 32)            0         
_________________________________________________________________
flatten_1 (Flatten)          (None, 704)               0         
_________________________________________________________________
dense_3 (Dense)              (None, 2)                 1410      
=================================================================
Total params: 50,254,634
Trainable params: 254,434
Non-trainable params: 50,000,200
_________________________________________________________________
End: Training
Begin: Loading embeddings
End: Loading embeddings
[[0, 263, 0, 263, 15, 24078, 14, 0, 1734, 0, 6255, 263, 221395, 263, 1695, 183757, 1218, 90587, 263, 0, 263, 7], 
…
