…
[[162, 8598, 8645, 7792, 4, 1061, 23, 224, 15, 108, 9994, 1701, 23209, 718, 4108, 84, 0, 1, 1, 1, 1, 1], [173, 18, 21, 38657, 6, 393, 1903, 15, 2402, 15, 2770, 751, 9, 14484, 5238, 19, 373, 68, 125, 95, 11, 0], [332, 674, 16, 1933, 3117, 47, 6, 310, 1494, 184, 63, 1489, 179, 9, 29, 160, 29, 173, 64, 11827, 18, 36385], [9718, 3820, 2307, 295, 77, 388, 62, 89186, 2452, 10, 2479, 9, 24, 1298, 2521, 43822, 14, 181, 14, 42, 15, 3604], [2366, 60, 7, 10373, 15, 7, 3062, 4025, 10685, 9, 60, 29198, 3135, 46, 17, 4, 90, 23, 1062, 2369, 15, 458]]
Begin: Training
_________________________________________________________________
Layer (type)                 Output Shape              Param #   
=================================================================
input_1 (InputLayer)         (None, 22)                0         
_________________________________________________________________
embedding_1 (Embedding)      (None, 22, 100)           50000200  
_________________________________________________________________
bidirectional_1 (Bidirection (None, 22, 256)           234496    
_________________________________________________________________
dense_1 (Dense)              (None, 22, 64)            16448     
_________________________________________________________________
dropout_1 (Dropout)          (None, 22, 64)            0         
_________________________________________________________________
dense_2 (Dense)              (None, 22, 32)            2080      
_________________________________________________________________
dropout_2 (Dropout)          (None, 22, 32)            0         
_________________________________________________________________
flatten_1 (Flatten)          (None, 704)               0         
_________________________________________________________________
dense_3 (Dense)              (None, 3)                 2115      
=================================================================
Total params: 50,255,339
Trainable params: 255,139
Non-trainable params: 50,000,200
_________________________________________________________________
End: Training
Begin: Loading embeddings
End: Loading embeddings
[[7070, 82, 8, 91, 192451, 428, 0, 11320, 0, 0, 0, 7070, 82, 0, 26, 0, 1, 1, 1, 1, 1, 1], [0, 102369, 0, 0, 5771,
…
