…
[[11842, 863, 1917, 14282, 3495, 14, 9356, 217, 6, 222, 106, 16, 1146, 195, 3739, 9256, 8667, 24, 0, 1, 1, 1], [158, 3137, 231, 15, 226, 24, 529, 64, 192, 88, 15, 192, 515, 14, 229, 36, 216, 184, 11170, 9, 4860, 166623], [63, 6163, 21, 398, 17, 18484, 231, 14, 629, 61, 54, 38, 95, 91, 0, 0, 0, 1, 1, 1, 1, 1], [16, 1020, 77, 165, 586, 2058, 429, 42, 14, 170, 381, 37, 4, 218, 170, 81, 7, 3176, 23, 22, 1611, 6014], [378, 305, 5238, 27, 204, 33, 4, 185, 2521, 12, 11443, 1149, 91, 4, 929, 432, 373, 47, 1086, 4, 156, 35]]
Begin: Training
_________________________________________________________________
Layer (type)                 Output Shape              Param #   
=================================================================
input_1 (InputLayer)         (None, 22)                0         
_________________________________________________________________
embedding_1 (Embedding)      (None, 22, 100)           50000200  
_________________________________________________________________
bidirectional_1 (Bidirection (None, 22, 256)           234496    
_________________________________________________________________
dense_1 (Dense)              (None, 22, 64)            16448     
_________________________________________________________________
dropout_1 (Dropout)          (None, 22, 64)            0         
_________________________________________________________________
dense_2 (Dense)              (None, 22, 32)            2080      
_________________________________________________________________
dropout_2 (Dropout)          (None, 22, 32)            0         
_________________________________________________________________
flatten_1 (Flatten)          (None, 704)               0         
_________________________________________________________________
dense_3 (Dense)              (None, 3)                 2115      
=================================================================
Total params: 50,255,339
Trainable params: 255,139
Non-trainable params: 50,000,200
_________________________________________________________________
End: Training
Begin: Loading embeddings
End: Loading embeddings
[[0, 263, 0, 263, 15, 24078, 14, 0, 1734, 0, 6255, 263, 221395, 263, 1695, 183757, 1218, 90587, 263, 0, 263, 7], 
…
