…
[[8, 21, 332, 157, 120, 537, 1032, 4633, 239, 21, 699, 108, 430, 172, 4, 1447, 1, 1, 1, 1, 1, 1], [8, 8, 8, 0, 4, 1373, 2521, 9, 19, 373, 688, 41, 795, 11, 1, 1, 1, 1, 1, 1, 1, 1], [31, 1520, 23, 16, 8, 9, 77, 4, 0, 3585, 35, 5978, 140, 797, 14, 13, 31, 868, 5762, 626, 106, 21], [1473, 6, 409, 15, 193, 15, 5978, 140, 797, 15, 6163, 4090, 3435, 15, 298, 1494, 7, 345, 18046, 15, 20, 4], [9958, 428, 1126, 11, 8539, 929, 15, 9028, 391, 56, 6, 49470, 95, 9, 3249, 16, 946, 17, 1, 1, 1, 1]]
Begin: Training
_________________________________________________________________
Layer (type)                 Output Shape              Param #   
=================================================================
input_1 (InputLayer)         (None, 22)                0         
_________________________________________________________________
embedding_1 (Embedding)      (None, 22, 100)           50000200  
_________________________________________________________________
bidirectional_1 (Bidirection (None, 22, 256)           234496    
_________________________________________________________________
dense_1 (Dense)              (None, 22, 64)            16448     
_________________________________________________________________
dropout_1 (Dropout)          (None, 22, 64)            0         
_________________________________________________________________
dense_2 (Dense)              (None, 22, 32)            2080      
_________________________________________________________________
dropout_2 (Dropout)          (None, 22, 32)            0         
_________________________________________________________________
flatten_1 (Flatten)          (None, 704)               0         
_________________________________________________________________
dense_3 (Dense)              (None, 2)                 1410      
=================================================================
Total params: 50,254,634
Trainable params: 254,434
Non-trainable params: 50,000,200
_________________________________________________________________
End: Training
[[50304, 134, 1321, 503, 1, 1, 1, 1, 1, 1, 1, 1, 1, 1, 1, 1, 1, 1, 1, 1, 1, 1], [8, 23464, 37048, 331385, 7, 312, 6415, 22424, 197, 49781, 15, 107267, 4430, 112, 7
…
