…
[[22264, 5859, 224, 105, 144, 9817, 53, 4887, 149046, 9201, 179, 20, 823, 6587, 9, 6324, 14, 25, 764, 4672, 11867, 259], [8, 8, 176, 86, 15, 120, 47, 511, 17, 4, 124, 14, 35, 733, 1053, 6, 5978, 140, 797, 649, 9, 360], [379, 4, 187, 3635, 118, 517, 263, 139, 12, 9034, 263, 23, 4, 5972, 2108, 10, 0, 3701, 231, 1, 1, 1], [172, 2307, 91, 1338, 75073, 73, 10, 3820, 2307, 305, 373, 593, 4, 1165, 1262, 104, 18, 91, 0, 0, 1, 1], [42, 613, 1804, 24, 36, 1423, 4632, 10, 4, 1067, 78, 38, 12, 7, 12395, 16, 8993, 638, 13625, 122410, 1893, 1612]]
Begin: Training
_________________________________________________________________
Layer (type)                 Output Shape              Param #   
=================================================================
input_1 (InputLayer)         (None, 22)                0         
_________________________________________________________________
embedding_1 (Embedding)      (None, 22, 100)           50000200  
_________________________________________________________________
bidirectional_1 (Bidirection (None, 22, 256)           234496    
_________________________________________________________________
dense_1 (Dense)              (None, 22, 64)            16448     
_________________________________________________________________
dropout_1 (Dropout)          (None, 22, 64)            0         
_________________________________________________________________
dense_2 (Dense)              (None, 22, 32)            2080      
_________________________________________________________________
dropout_2 (Dropout)          (None, 22, 32)            0         
_________________________________________________________________
flatten_1 (Flatten)          (None, 704)               0         
_________________________________________________________________
dense_3 (Dense)              (None, 2)                 1410      
=================================================================
Total params: 50,254,634
Trainable params: 254,434
Non-trainable params: 50,000,200
_________________________________________________________________
End: Training
[[50304, 134, 1321, 503, 1, 1, 1, 1, 1, 1, 1, 1, 1, 1, 1, 1, 1, 1, 1, 1, 1, 1], [8, 23464, 37048, 331385, 7, 312, 6415, 22424, 197, 49781, 15, 107267, 4430, 112, 7
…
