…
[[4, 696, 12, 4, 19815, 18, 67432, 231, 22, 346, 29, 6978, 1, 1, 1, 1, 1, 1, 1, 1, 1, 1], [6605, 239, 91, 82, 54, 7, 2127, 21, 482, 1513, 1971, 28, 20, 19754, 157, 313, 14, 268, 514, 515, 452, 14], [3833, 1168, 22076, 91, 17181, 30908, 20, 3343, 1297, 18484, 10641, 11946, 2391, 14, 0, 0, 1, 1, 1, 1, 1, 1], [8, 21, 22, 90, 1289, 159, 275, 6, 377, 4, 3187, 7213, 380, 1427, 9, 12104, 13848, 23, 4465, 10, 1820, 0], [222, 21, 37, 11, 13, 47, 1776, 1114, 20, 942, 2975, 15, 15871, 19956, 15, 117598, 15, 9, 147416, 2283, 18, 481]]
Begin: Training
_________________________________________________________________
Layer (type)                 Output Shape              Param #   
=================================================================
input_1 (InputLayer)         (None, 22)                0         
_________________________________________________________________
embedding_1 (Embedding)      (None, 22, 100)           50000200  
_________________________________________________________________
bidirectional_1 (Bidirection (None, 22, 256)           234496    
_________________________________________________________________
dense_1 (Dense)              (None, 22, 64)            16448     
_________________________________________________________________
dropout_1 (Dropout)          (None, 22, 64)            0         
_________________________________________________________________
dense_2 (Dense)              (None, 22, 32)            2080      
_________________________________________________________________
dropout_2 (Dropout)          (None, 22, 32)            0         
_________________________________________________________________
flatten_1 (Flatten)          (None, 704)               0         
_________________________________________________________________
dense_3 (Dense)              (None, 3)                 2115      
=================================================================
Total params: 50,255,339
Trainable params: 255,139
Non-trainable params: 50,000,200
_________________________________________________________________
End: Training
Begin: Loading embeddings
End: Loading embeddings
[[7070, 82, 8, 91, 192451, 428, 0, 11320, 0, 0, 0, 7070, 82, 0, 26, 0, 1, 1, 1, 1, 1, 1], [0, 102369, 0, 0, 5771,
…
