…
, 227937, 280639, 320524, 320524, 320524, 0, 0, 0, 0, 491582, 377428, 242306, 0, 1, 1, 1, 1, 1, 1], [13378, 336490, 187603, 230379, 0, 127305, 399675, 85301, 289924, 0, 146508, 198528, 311870, 0, 463742, 0, 269432, 0, 1, 1, 1, 1], [211466, 399675, 267613, 13378, 172783, 146508, 449998, 314259, 293558, 264142, 95823, 364899, 0, 1, 1, 1, 1, 1, 1, 1, 1, 1]]
Begin: Training
_________________________________________________________________
Layer (type)                 Output Shape              Param #   
=================================================================
input_1 (InputLayer)         (None, 22)                0         
_________________________________________________________________
embedding_1 (Embedding)      (None, 22, 100)           50000200  
_________________________________________________________________
bidirectional_1 (Bidirection (None, 22, 256)           234496    
_________________________________________________________________
dense_1 (Dense)              (None, 22, 64)            16448     
_________________________________________________________________
dropout_1 (Dropout)          (None, 22, 64)            0         
_________________________________________________________________
dense_2 (Dense)              (None, 22, 32)            2080      
_________________________________________________________________
dropout_2 (Dropout)          (None, 22, 32)            0         
_________________________________________________________________
flatten_1 (Flatten)          (None, 704)               0         
_________________________________________________________________
dense_3 (Dense)              (None, 3)                 2115      
=================================================================
Total params: 50,255,339
Trainable params: 255,139
Non-trainable params: 50,000,200
_________________________________________________________________
End: Training
Begin: Loading embeddings
End: Loading embeddings
[[120279, 101957, 280639, 140777, 155546, 255665, 0, 0, 0, 0, 0, 120279, 101957, 0, 242306, 0, 1, 1, 1, 1, 1, 1],
…
