…
[[4, 3999, 22, 30, 212, 11, 11, 11, 13, 753, 80, 6, 1035, 50, 26, 13, 204, 7, 26339, 14, 926, 4066], [9908, 78179, 91, 8361, 85, 7, 636, 839, 487, 20, 17230, 53, 285, 59, 1229, 8, 8535, 12842, 65, 0, 1, 1], [55946, 23531, 0, 32581, 37847, 32581, 6, 6050, 6, 1146, 866, 18, 4, 8, 29548, 7, 324, 56621, 10, 926, 866, 1], [8, 8, 8, 8, 8, 34, 712, 9259, 22, 1198, 1447, 885, 13055, 14, 24, 868, 68, 32, 297, 50, 54, 4], [0, 53, 0, 27532, 14260, 1701, 23209, 22, 891, 4, 596, 2147, 0, 14, 0, 1, 1, 1, 1, 1, 1, 1]]
Begin: Training
_________________________________________________________________
Layer (type)                 Output Shape              Param #   
=================================================================
input_1 (InputLayer)         (None, 22)                0         
_________________________________________________________________
embedding_1 (Embedding)      (None, 22, 100)           50000200  
_________________________________________________________________
bidirectional_1 (Bidirection (None, 22, 256)           234496    
_________________________________________________________________
dense_1 (Dense)              (None, 22, 64)            16448     
_________________________________________________________________
dropout_1 (Dropout)          (None, 22, 64)            0         
_________________________________________________________________
dense_2 (Dense)              (None, 22, 32)            2080      
_________________________________________________________________
dropout_2 (Dropout)          (None, 22, 32)            0         
_________________________________________________________________
flatten_1 (Flatten)          (None, 704)               0         
_________________________________________________________________
dense_3 (Dense)              (None, 2)                 1410      
=================================================================
Total params: 50,254,634
Trainable params: 254,434
Non-trainable params: 50,000,200
_________________________________________________________________
End: Training
Begin: Loading embeddings
End: Loading embeddings
[[8, 91473, 4430, 112, 7493, 0, 259, 31562, 27449, 4430, 7937, 32006, 114038, 259, 0, 9587, 4885, 225647, 1, 1, 1
…
