…
[[8, 8, 8, 0, 4, 1373, 2521, 9, 19, 373, 688, 41, 795, 11, 1, 1, 1, 1, 1, 1, 1, 1], [21, 251, 11, 193, 3999, 6, 5881, 11, 1498, 2049, 9, 1158, 11, 34281, 1149, 11, 11, 158, 46, 6, 4, 515], [8, 927, 1038, 4, 185, 8993, 106, 136, 81, 245522, 493, 4, 6633, 231, 14, 1, 1, 1, 1, 1, 1, 1], [1345, 25306, 2455, 18, 1147, 20, 139, 12, 9034, 2530, 184, 7, 26, 91, 0, 7765, 1, 1, 1, 1, 1, 1], [4848, 9648, 127, 363, 20, 82, 2962, 6386, 82, 17, 4, 1447, 288, 12, 139, 12, 9034, 0, 1, 1, 1, 1]]
Begin: Training
_________________________________________________________________
Layer (type)                 Output Shape              Param #   
=================================================================
input_1 (InputLayer)         (None, 22)                0         
_________________________________________________________________
embedding_1 (Embedding)      (None, 22, 100)           50000200  
_________________________________________________________________
bidirectional_1 (Bidirection (None, 22, 256)           234496    
_________________________________________________________________
dense_1 (Dense)              (None, 22, 64)            16448     
_________________________________________________________________
dropout_1 (Dropout)          (None, 22, 64)            0         
_________________________________________________________________
dense_2 (Dense)              (None, 22, 32)            2080      
_________________________________________________________________
dropout_2 (Dropout)          (None, 22, 32)            0         
_________________________________________________________________
flatten_1 (Flatten)          (None, 704)               0         
_________________________________________________________________
dense_3 (Dense)              (None, 2)                 1410      
=================================================================
Total params: 50,254,634
Trainable params: 254,434
Non-trainable params: 50,000,200
_________________________________________________________________
End: Training
Begin: Loading embeddings
End: Loading embeddings
[[8, 91473, 4430, 112, 7493, 0, 259, 31562, 27449, 4430, 7937, 32006, 114038, 259, 0, 9587, 4885, 225647, 1, 1, 1
…
