…
[[21, 529, 64, 4, 76, 193, 1636, 12, 929, 398, 42, 0, 1, 1, 1, 1, 1, 1, 1, 1, 1, 1, 1], [30, 118, 1343, 6, 89, 174, 733, 9, 47, 7, 48, 574, 544, 131, 1746, 2183, 1787, 20, 29, 503, 65, 1, 1], [63, 68, 395, 16, 26339, 6, 119, 231, 223, 13, 204, 6, 47, 7, 4281, 57, 13, 80, 6, 16, 649, 1, 1], [9908, 0, 6785, 91, 309, 9141, 50, 31, 48, 173, 0, 1, 1, 1, 1, 1, 1, 1, 1, 1, 1, 1, 1], [68, 72, 10, 4, 404, 2692, 738, 26, 991, 7070, 0, 6778, 7070, 0, 38930, 473, 46, 597, 759, 23, 1128, 181, 413]]
Begin: Training
_________________________________________________________________
Layer (type)                 Output Shape              Param #   
=================================================================
input_1 (InputLayer)         (None, 23)                0         
_________________________________________________________________
embedding_1 (Embedding)      (None, 23, 100)           50000200  
_________________________________________________________________
bidirectional_1 (Bidirection (None, 23, 256)           234496    
_________________________________________________________________
dense_1 (Dense)              (None, 23, 64)            16448     
_________________________________________________________________
dropout_1 (Dropout)          (None, 23, 64)            0         
_________________________________________________________________
dense_2 (Dense)              (None, 23, 32)            2080      
_________________________________________________________________
dropout_2 (Dropout)          (None, 23, 32)            0         
_________________________________________________________________
flatten_1 (Flatten)          (None, 736)               0         
_________________________________________________________________
dense_3 (Dense)              (None, 2)                 1474      
=================================================================
Total params: 50,254,698
Trainable params: 254,498
Non-trainable params: 50,000,200
_________________________________________________________________
End: Training
[[50304, 134, 1321, 503, 1, 1, 1, 1, 1, 1, 1, 1, 1, 1, 1, 1, 1, 1, 1, 1, 1, 1, 1], [8, 23464, 37048, 331385, 7, 312, 6415, 22424, 197, 49781, 15, 107267, 4430, 112
…
