…
495232, 4578, 160304, 360220, 383641, 346168, 305138, 396062, 1, 1, 1, 1, 1, 1, 1, 1, 1], [0, 396062, 0, 0, 316890, 146508, 427692, 0, 383351, 130187, 459101, 438110, 0, 1, 1, 1, 1, 1, 1, 1, 1, 1, 1], [284029, 395971, 0, 260619, 459871, 266310, 120102, 146508, 494674, 392950, 406762, 174840, 0, 237427, 0, 198949, 0, 491480, 286667, 0, 197768, 242306, 1]]
Begin: Training
_________________________________________________________________
Layer (type)                 Output Shape              Param #   
=================================================================
input_1 (InputLayer)         (None, 23)                0         
_________________________________________________________________
embedding_1 (Embedding)      (None, 23, 100)           50000200  
_________________________________________________________________
bidirectional_1 (Bidirection (None, 23, 256)           234496    
_________________________________________________________________
dense_1 (Dense)              (None, 23, 64)            16448     
_________________________________________________________________
dropout_1 (Dropout)          (None, 23, 64)            0         
_________________________________________________________________
dense_2 (Dense)              (None, 23, 32)            2080      
_________________________________________________________________
dropout_2 (Dropout)          (None, 23, 32)            0         
_________________________________________________________________
flatten_1 (Flatten)          (None, 736)               0         
_________________________________________________________________
dense_3 (Dense)              (None, 2)                 1474      
=================================================================
Total params: 50,254,698
Trainable params: 254,498
Non-trainable params: 50,000,200
_________________________________________________________________
End: Training
Begin: Loading embeddings
End: Loading embeddings
[[120279, 101957, 280639, 140777, 155546, 255665, 0, 0, 0, 0, 0, 120279, 101957, 0, 242306, 0, 1, 1, 1, 1, 1, 1, 
…
