…
 83347, 220067, 22021, 119838, 285113, 233420, 142074, 11700, 158021, 1, 1, 1, 1, 1, 1, 1, 1, 1, 1], [328170, 0, 295769, 341119, 43180, 149053, 0, 250345, 0, 0, 104730, 152233, 362673, 467451, 110128, 392025, 0, 295769, 137533, 1, 1, 1, 1], [471057, 0, 409043, 233420, 0, 310051, 362673, 356555, 467451, 0, 280268, 193481, 0, 0, 0, 0, 1, 1, 1, 1, 1, 1, 1]]
Begin: Training
_________________________________________________________________
Layer (type)                 Output Shape              Param #   
=================================================================
input_1 (InputLayer)         (None, 23)                0         
_________________________________________________________________
embedding_1 (Embedding)      (None, 23, 100)           50000200  
_________________________________________________________________
bidirectional_1 (Bidirection (None, 23, 256)           234496    
_________________________________________________________________
dense_1 (Dense)              (None, 23, 64)            16448     
_________________________________________________________________
dropout_1 (Dropout)          (None, 23, 64)            0         
_________________________________________________________________
dense_2 (Dense)              (None, 23, 32)            2080      
_________________________________________________________________
dropout_2 (Dropout)          (None, 23, 32)            0         
_________________________________________________________________
flatten_1 (Flatten)          (None, 736)               0         
_________________________________________________________________
dense_3 (Dense)              (None, 2)                 1474      
=================================================================
Total params: 50,254,698
Trainable params: 254,498
Non-trainable params: 50,000,200
_________________________________________________________________
End: Training
Begin: Loading embeddings
End: Loading embeddings
[[328170, 443457, 0, 127342, 254165, 0, 26261, 0, 0, 0, 106165, 333987, 280887, 26261, 0, 230412, 244377, 0, 1, 1
…
