…
[[1792, 26781, 3683, 22, 293, 7, 33040, 4, 392, 10, 4, 3366, 12, 21, 6035, 317, 1603, 68, 493, 7, 637, 95, 21], [141493, 1992, 410, 37, 33, 256313, 693, 23, 71163, 91, 0, 0, 195, 59, 141493, 65, 1992, 23, 733, 2056, 37, 12, 4], [21454, 2227, 450, 12, 295, 23607, 120, 237, 19, 160, 3202, 109, 70433, 452, 105, 0, 0, 1, 1, 1, 1, 1, 1], [0, 91, 2629, 19172, 22, 7, 3874, 17, 75, 7070, 0, 20515, 83, 139, 588, 266863, 59, 926, 866, 2031, 1237, 65, 7070], [0, 3634, 7, 2768, 3137, 10, 24520, 23, 251, 14, 136, 247, 19567, 4262, 24527, 15, 4, 12885, 26, 0, 1, 1, 1]]
Begin: Training
_________________________________________________________________
Layer (type)                 Output Shape              Param #   
=================================================================
input_1 (InputLayer)         (None, 23)                0         
_________________________________________________________________
embedding_1 (Embedding)      (None, 23, 100)           50000200  
_________________________________________________________________
bidirectional_1 (Bidirection (None, 23, 256)           234496    
_________________________________________________________________
dense_1 (Dense)              (None, 23, 64)            16448     
_________________________________________________________________
dropout_1 (Dropout)          (None, 23, 64)            0         
_________________________________________________________________
dense_2 (Dense)              (None, 23, 32)            2080      
_________________________________________________________________
dropout_2 (Dropout)          (None, 23, 32)            0         
_________________________________________________________________
flatten_1 (Flatten)          (None, 736)               0         
_________________________________________________________________
dense_3 (Dense)              (None, 2)                 1474      
=================================================================
Total params: 50,254,698
Trainable params: 254,498
Non-trainable params: 50,000,200
_________________________________________________________________
End: Training
Begin: Loading embeddings
End: Loading embeddings
[[7070, 82, 8, 91, 192451, 428, 0, 11320, 0, 0, 0, 7070, 82, 0, 26, 0, 1, 1, 1, 1, 1, 1, 1], [0, 102369, 0, 0, 57
…
