…
, 329968, 132817, 247279, 49010, 364195, 497274, 460019, 188467, 0, 0], [125936, 99820, 348377, 383967, 0, 0, 20057, 0, 429018, 301591, 258529, 132817, 300698, 0, 0, 0, 244358, 8176, 252035, 61697, 180890, 425579, 377241], [425804, 0, 0, 12205, 228912, 306810, 106431, 0, 0, 103756, 55129, 146639, 425579, 247624, 425579, 244358, 414093, 0, 1, 1, 1, 1, 1]]
Begin: Training
_________________________________________________________________
Layer (type)                 Output Shape              Param #   
=================================================================
input_1 (InputLayer)         (None, 23)                0         
_________________________________________________________________
embedding_1 (Embedding)      (None, 23, 100)           50000200  
_________________________________________________________________
bidirectional_1 (Bidirection (None, 23, 256)           234496    
_________________________________________________________________
dense_1 (Dense)              (None, 23, 64)            16448     
_________________________________________________________________
dropout_1 (Dropout)          (None, 23, 64)            0         
_________________________________________________________________
dense_2 (Dense)              (None, 23, 32)            2080      
_________________________________________________________________
dropout_2 (Dropout)          (None, 23, 32)            0         
_________________________________________________________________
flatten_1 (Flatten)          (None, 736)               0         
_________________________________________________________________
dense_3 (Dense)              (None, 2)                 1474      
=================================================================
Total params: 50,254,698
Trainable params: 254,498
Non-trainable params: 50,000,200
_________________________________________________________________
End: Training
Begin: Loading embeddings
End: Loading embeddings
[[0, 497032, 0, 497032, 257659, 5560, 117491, 0, 0, 0, 273679, 497032, 266233, 497032, 347187, 311058, 224028, 48
…
