…
[[215, 22, 23, 14280, 50, 21, 22, 4, 760, 21454, 2227, 835, 10, 7, 1335, 61, 22, 16, 1165, 505, 6, 573], [4189, 1664, 15, 1021, 7, 2943, 751, 3438, 10, 25, 71, 15, 68, 8073, 17, 4, 586, 325, 191, 10, 5020, 6107], [3820, 2307, 305, 9, 3820, 48279, 2400, 1538, 240, 2998, 14, 1212, 15, 27599, 1244, 42, 91, 9718, 23, 626, 6331, 24], [8, 620, 262, 166, 6, 67432, 231, 1, 1, 1, 1, 1, 1, 1, 1, 1, 1, 1, 1, 1, 1, 1], [31, 30, 216, 1299, 6014, 7535, 263, 96, 22, 733, 9, 1139, 22, 626, 1, 1, 1, 1, 1, 1, 1, 1]]
Begin: Training
_________________________________________________________________
Layer (type)                 Output Shape              Param #   
=================================================================
input_1 (InputLayer)         (None, 22)                0         
_________________________________________________________________
embedding_1 (Embedding)      (None, 22, 100)           50000200  
_________________________________________________________________
bidirectional_1 (Bidirection (None, 22, 256)           234496    
_________________________________________________________________
dense_1 (Dense)              (None, 22, 64)            16448     
_________________________________________________________________
dropout_1 (Dropout)          (None, 22, 64)            0         
_________________________________________________________________
dense_2 (Dense)              (None, 22, 32)            2080      
_________________________________________________________________
dropout_2 (Dropout)          (None, 22, 32)            0         
_________________________________________________________________
flatten_1 (Flatten)          (None, 704)               0         
_________________________________________________________________
dense_3 (Dense)              (None, 3)                 2115      
=================================================================
Total params: 50,255,339
Trainable params: 255,139
Non-trainable params: 50,000,200
_________________________________________________________________
End: Training
Begin: Loading embeddings
End: Loading embeddings
[[0, 263, 0, 263, 15, 24078, 14, 0, 1734, 0, 6255, 263, 221395, 263, 1695, 183757, 1218, 90587, 263, 0, 263, 7], 
…
