…
[[15061, 84, 552, 1881, 36947, 36, 23, 2823, 62, 873, 586, 9, 13, 482, 228, 60, 6, 79, 24, 18334, 91, 53, 53], [31, 6064, 40, 4, 215, 17, 6243, 4890, 22, 72178, 6, 20110, 38084, 9, 6703, 17729, 14, 393, 37, 332, 9, 19, 373], [6371, 17, 5457, 22, 31, 313, 4, 1342, 53, 6, 32, 6603, 185, 775, 4232, 2051, 18, 8, 0, 0, 1, 1, 1], [72189, 626, 9, 213, 15, 4088, 17, 0, 251, 14, 14751, 46, 6, 32, 48, 1108, 12, 7, 1539, 96, 124, 20, 8], [7468, 11152, 16517, 10343, 373, 32, 4, 3392, 12, 16, 25, 71, 10927, 14, 74, 43, 257, 116, 681, 11503, 14, 1, 1]]
Begin: Training
_________________________________________________________________
Layer (type)                 Output Shape              Param #   
=================================================================
input_1 (InputLayer)         (None, 23)                0         
_________________________________________________________________
embedding_1 (Embedding)      (None, 23, 100)           50000200  
_________________________________________________________________
bidirectional_1 (Bidirection (None, 23, 256)           234496    
_________________________________________________________________
dense_1 (Dense)              (None, 23, 64)            16448     
_________________________________________________________________
dropout_1 (Dropout)          (None, 23, 64)            0         
_________________________________________________________________
dense_2 (Dense)              (None, 23, 32)            2080      
_________________________________________________________________
dropout_2 (Dropout)          (None, 23, 32)            0         
_________________________________________________________________
flatten_1 (Flatten)          (None, 736)               0         
_________________________________________________________________
dense_3 (Dense)              (None, 2)                 1474      
=================================================================
Total params: 50,254,698
Trainable params: 254,498
Non-trainable params: 50,000,200
_________________________________________________________________
End: Training
[[50304, 134, 1321, 503, 1, 1, 1, 1, 1, 1, 1, 1, 1, 1, 1, 1, 1, 1, 1, 1, 1, 1, 1], [8, 23464, 37048, 331385, 7, 312, 6415, 22424, 197, 49781, 15, 107267, 4430, 112
…
