…
, 22021, 492092, 0, 0, 285113, 331823, 349159, 408507, 295769, 468819, 309375], [41123, 152233, 0, 0, 0, 331823, 295769, 0, 408507, 295769, 178963, 411444, 459860, 295769, 288670, 223610, 309375, 263556, 0, 1, 1, 1], [0, 84312, 128945, 95347, 389522, 0, 169543, 239594, 295769, 88718, 457189, 0, 497903, 0, 0, 152233, 0, 436768, 0, 148906, 495658, 104730]]
Begin: Training
_________________________________________________________________
Layer (type)                 Output Shape              Param #   
=================================================================
input_1 (InputLayer)         (None, 22)                0         
_________________________________________________________________
embedding_1 (Embedding)      (None, 22, 100)           50000200  
_________________________________________________________________
bidirectional_1 (Bidirection (None, 22, 256)           234496    
_________________________________________________________________
dense_1 (Dense)              (None, 22, 64)            16448     
_________________________________________________________________
dropout_1 (Dropout)          (None, 22, 64)            0         
_________________________________________________________________
dense_2 (Dense)              (None, 22, 32)            2080      
_________________________________________________________________
dropout_2 (Dropout)          (None, 22, 32)            0         
_________________________________________________________________
flatten_1 (Flatten)          (None, 704)               0         
_________________________________________________________________
dense_3 (Dense)              (None, 3)                 2115      
=================================================================
Total params: 50,255,339
Trainable params: 255,139
Non-trainable params: 50,000,200
_________________________________________________________________
End: Training
Begin: Loading embeddings
End: Loading embeddings
[[328170, 443457, 0, 127342, 254165, 0, 26261, 0, 0, 0, 106165, 333987, 280887, 26261, 0, 230412, 244377, 0, 1, 1
…
