…
[[8, 15894, 588, 14, 89649, 22, 18, 3296, 9, 3069, 1315, 61136, 18, 2024, 234, 59, 823, 6495, 311, 65, 14, 10060, 15], [57, 13, 60, 1830, 15, 13, 204, 6, 410, 179, 4, 10164, 20, 4, 10319, 58, 2442, 835, 480, 1782, 12, 4, 512], [13, 108, 68, 32, 348, 511, 4189, 197954, 14, 50, 511, 43, 13, 2267, 82, 8539, 82, 458, 2621, 108, 0, 96418, 112889], [1821, 23359, 959, 12, 1020, 12010, 4425, 85, 3153, 8131, 75, 85, 2622, 96, 1283, 91, 82, 13, 167, 47, 7, 325, 10641], [30, 6014, 7535, 134, 4, 610, 96, 85, 29, 14, 0, 1, 1, 1, 1, 1, 1, 1, 1, 1, 1, 1, 1]]
Begin: Training
_________________________________________________________________
Layer (type)                 Output Shape              Param #   
=================================================================
input_1 (InputLayer)         (None, 23)                0         
_________________________________________________________________
embedding_1 (Embedding)      (None, 23, 100)           50000200  
_________________________________________________________________
bidirectional_1 (Bidirection (None, 23, 256)           234496    
_________________________________________________________________
dense_1 (Dense)              (None, 23, 64)            16448     
_________________________________________________________________
dropout_1 (Dropout)          (None, 23, 64)            0         
_________________________________________________________________
dense_2 (Dense)              (None, 23, 32)            2080      
_________________________________________________________________
dropout_2 (Dropout)          (None, 23, 32)            0         
_________________________________________________________________
flatten_1 (Flatten)          (None, 736)               0         
_________________________________________________________________
dense_3 (Dense)              (None, 2)                 1474      
=================================================================
Total params: 50,254,698
Trainable params: 254,498
Non-trainable params: 50,000,200
_________________________________________________________________
End: Training
Begin: Loading embeddings
End: Loading embeddings
[[8, 91473, 4430, 112, 7493, 0, 259, 31562, 27449, 4430, 7937, 32006, 114038, 259, 0, 9587, 4885, 225647, 1, 1, 1
…
