…
0, 104730, 391420, 450953, 0, 328657], [149053, 279139, 406625, 314578, 202432, 95347, 0, 0, 67894, 0, 0, 276243, 154049, 446072, 399576, 295769, 91433, 38707, 376669, 0, 459860, 41123, 285113], [233420, 95666, 0, 408507, 369489, 317379, 0, 459860, 43180, 459860, 343524, 13442, 413890, 444210, 303526, 285113, 388486, 446072, 0, 487269, 34956, 176521, 0]]
Begin: Training
_________________________________________________________________
Layer (type)                 Output Shape              Param #   
=================================================================
input_1 (InputLayer)         (None, 23)                0         
_________________________________________________________________
embedding_1 (Embedding)      (None, 23, 100)           50000200  
_________________________________________________________________
bidirectional_1 (Bidirection (None, 23, 256)           234496    
_________________________________________________________________
dense_1 (Dense)              (None, 23, 64)            16448     
_________________________________________________________________
dropout_1 (Dropout)          (None, 23, 64)            0         
_________________________________________________________________
dense_2 (Dense)              (None, 23, 32)            2080      
_________________________________________________________________
dropout_2 (Dropout)          (None, 23, 32)            0         
_________________________________________________________________
flatten_1 (Flatten)          (None, 736)               0         
_________________________________________________________________
dense_3 (Dense)              (None, 2)                 1474      
=================================================================
Total params: 50,254,698
Trainable params: 254,498
Non-trainable params: 50,000,200
_________________________________________________________________
End: Training
Begin: Loading embeddings
End: Loading embeddings
[[0, 419192, 0, 419192, 285113, 153022, 309375, 0, 398491, 0, 452710, 419192, 359592, 419192, 0, 185706, 194119, 
…
