…
[[729, 753, 80, 79, 67, 12, 4, 1992, 33, 917, 1423, 9, 716, 13987, 23, 1145, 0, 1, 1, 1, 1, 1, 1], [8, 1746, 2183, 15, 13992, 1479, 15, 626, 185, 15, 139, 12, 9034, 15, 131, 27058, 12, 4, 1103, 44, 1139, 14, 0], [8, 2419, 53, 87, 19, 891, 701, 7, 8, 2452, 40, 482, 160, 283, 4327, 84, 269, 15, 4, 2275, 2770, 751, 0], [1616, 2455, 35, 702, 4, 268, 0, 9346, 3117, 12, 38, 43, 7070, 0, 926, 305, 311, 10, 2709, 78, 4, 19316, 9945], [8, 22, 24, 2719, 40, 24, 1118, 531, 6, 222, 4, 2872, 838, 17, 3015, 69, 5660, 4003, 84, 926, 632, 11, 1]]
Begin: Training
_________________________________________________________________
Layer (type)                 Output Shape              Param #   
=================================================================
input_1 (InputLayer)         (None, 23)                0         
_________________________________________________________________
embedding_1 (Embedding)      (None, 23, 100)           50000200  
_________________________________________________________________
bidirectional_1 (Bidirection (None, 23, 256)           234496    
_________________________________________________________________
dense_1 (Dense)              (None, 23, 64)            16448     
_________________________________________________________________
dropout_1 (Dropout)          (None, 23, 64)            0         
_________________________________________________________________
dense_2 (Dense)              (None, 23, 32)            2080      
_________________________________________________________________
dropout_2 (Dropout)          (None, 23, 32)            0         
_________________________________________________________________
flatten_1 (Flatten)          (None, 736)               0         
_________________________________________________________________
dense_3 (Dense)              (None, 2)                 1474      
=================================================================
Total params: 50,254,698
Trainable params: 254,498
Non-trainable params: 50,000,200
_________________________________________________________________
End: Training
Begin: Loading embeddings
End: Loading embeddings
[[7070, 82, 8, 91, 192451, 428, 0, 11320, 0, 0, 0, 7070, 82, 0, 26, 0, 1, 1, 1, 1, 1, 1, 1], [0, 102369, 0, 0, 57
…
