…
[[236, 7545, 128, 38, 4, 1740, 14, 13, 81, 30, 133, 109, 680, 313, 85, 18006, 42, 14, 1162, 63, 348, 33518], [8, 8, 106, 262, 416, 9325, 85, 329, 13, 373, 269, 1676, 4, 154, 623, 11, 262, 47, 48, 793, 3775, 14], [63, 166, 6, 1977, 17, 940, 23, 733, 13, 120, 249, 13, 93, 3776, 205, 21, 284, 1, 1, 1, 1, 1], [112, 158, 1726, 15, 31, 7, 12594, 38737, 2588, 0, 40, 5873, 7, 1956, 5582, 0, 1, 1, 1, 1, 1, 1], [12669, 22, 6638, 132, 12434, 40, 183, 77, 23, 1489, 223, 54, 6, 2104, 121, 2418, 159, 172, 132, 1, 1, 1]]
Begin: Training
_________________________________________________________________
Layer (type)                 Output Shape              Param #   
=================================================================
input_1 (InputLayer)         (None, 22)                0         
_________________________________________________________________
embedding_1 (Embedding)      (None, 22, 100)           50000200  
_________________________________________________________________
bidirectional_1 (Bidirection (None, 22, 256)           234496    
_________________________________________________________________
dense_1 (Dense)              (None, 22, 64)            16448     
_________________________________________________________________
dropout_1 (Dropout)          (None, 22, 64)            0         
_________________________________________________________________
dense_2 (Dense)              (None, 22, 32)            2080      
_________________________________________________________________
dropout_2 (Dropout)          (None, 22, 32)            0         
_________________________________________________________________
flatten_1 (Flatten)          (None, 704)               0         
_________________________________________________________________
dense_3 (Dense)              (None, 3)                 2115      
=================================================================
Total params: 50,255,339
Trainable params: 255,139
Non-trainable params: 50,000,200
_________________________________________________________________
End: Training
Begin: Loading embeddings
End: Loading embeddings
[[7070, 82, 8, 91, 192451, 428, 0, 11320, 0, 0, 0, 7070, 82, 0, 26, 0, 1, 1, 1, 1, 1, 1], [0, 102369, 0, 0, 5771,
…
