…
[[2391, 4150, 7059, 15, 50, 1389, 6, 24, 23058, 7408, 14, 11164, 281, 3, 18484, 469, 20734, 23, 5659, 198, 14, 0, 1], [30, 13, 1476, 16, 194, 3176, 22, 166, 6, 4, 2021, 139, 231, 9, 753, 850, 84, 4290, 84, 91, 389, 18251, 1], [4, 2497, 20, 1971, 28, 22, 40, 24, 547, 264, 28, 2901, 375, 64, 7, 452, 14, 1, 1, 1, 1, 1, 1], [16517, 1489, 10, 40, 2000, 64, 7, 331, 1182, 40, 170, 36, 1071, 2182, 12, 165, 43, 298, 4, 371, 2738, 27365, 20], [6544, 4813, 204, 4, 4860, 11163, 6, 160, 132, 96, 7, 273, 380, 11, 0, 1, 1, 1, 1, 1, 1, 1, 1]]
Begin: Training
_________________________________________________________________
Layer (type)                 Output Shape              Param #   
=================================================================
input_1 (InputLayer)         (None, 23)                0         
_________________________________________________________________
embedding_1 (Embedding)      (None, 23, 100)           50000200  
_________________________________________________________________
bidirectional_1 (Bidirection (None, 23, 256)           234496    
_________________________________________________________________
dense_1 (Dense)              (None, 23, 64)            16448     
_________________________________________________________________
dropout_1 (Dropout)          (None, 23, 64)            0         
_________________________________________________________________
dense_2 (Dense)              (None, 23, 32)            2080      
_________________________________________________________________
dropout_2 (Dropout)          (None, 23, 32)            0         
_________________________________________________________________
flatten_1 (Flatten)          (None, 736)               0         
_________________________________________________________________
dense_3 (Dense)              (None, 2)                 1474      
=================================================================
Total params: 50,254,698
Trainable params: 254,498
Non-trainable params: 50,000,200
_________________________________________________________________
End: Training
Begin: Loading embeddings
End: Loading embeddings
[[0, 263, 0, 263, 15, 24078, 14, 0, 1734, 0, 6255, 263, 221395, 263, 1695, 183757, 1218, 90587, 263, 0, 263, 7, 1
…
