…
[[13055, 108, 47, 112, 3196, 2530, 760, 9, 1891, 14, 1048, 363, 24, 20, 0, 31920, 14, 1, 1, 1, 1, 1], [906, 533, 54, 891, 826, 12, 56, 13, 482, 80, 6, 4088, 1414, 13, 31, 77, 7, 420, 17, 16, 8270, 9], [9718, 36830, 1511, 1468, 2078, 507, 17, 4, 3820, 2307, 305, 0, 1, 1, 1, 1, 1, 1, 1, 1, 1, 1], [2382, 10798, 1451, 15, 41, 777, 108, 89, 712, 430, 85, 8, 9, 4, 78771, 22, 240, 6, 2483, 15, 3833, 543], [1506, 26, 19, 185764, 821, 31, 7, 224, 2159, 425, 26, 67, 4751, 10668, 15, 21, 332, 3382, 1429, 9623, 32, 1688]]
Begin: Training
_________________________________________________________________
Layer (type)                 Output Shape              Param #   
=================================================================
input_1 (InputLayer)         (None, 22)                0         
_________________________________________________________________
embedding_1 (Embedding)      (None, 22, 100)           50000200  
_________________________________________________________________
bidirectional_1 (Bidirection (None, 22, 256)           234496    
_________________________________________________________________
dense_1 (Dense)              (None, 22, 64)            16448     
_________________________________________________________________
dropout_1 (Dropout)          (None, 22, 64)            0         
_________________________________________________________________
dense_2 (Dense)              (None, 22, 32)            2080      
_________________________________________________________________
dropout_2 (Dropout)          (None, 22, 32)            0         
_________________________________________________________________
flatten_1 (Flatten)          (None, 704)               0         
_________________________________________________________________
dense_3 (Dense)              (None, 2)                 1410      
=================================================================
Total params: 50,254,634
Trainable params: 254,434
Non-trainable params: 50,000,200
_________________________________________________________________
End: Training
Begin: Loading embeddings
End: Loading embeddings
[[7070, 82, 8, 91, 192451, 428, 0, 11320, 0, 0, 0, 7070, 82, 0, 26, 0, 1, 1, 1, 1, 1, 1], [0, 102369, 0, 0, 5771,
…
