…
[[23, 4935, 27, 172, 4, 8976, 6, 32543, 0, 3, 29772, 0, 1, 1, 1, 1, 1, 1, 1, 1, 1, 1], [8, 4, 926, 48, 547, 29, 375, 64, 63, 5137, 4, 114, 12, 7, 16517, 60476, 1, 1, 1, 1, 1, 1], [674, 729, 753, 80, 6, 940, 25014, 28, 20, 29, 84, 84, 84, 4299, 17271, 1062, 1305, 11, 11, 1, 1, 1], [8, 160, 1821, 23359, 231, 1, 1, 1, 1, 1, 1, 1, 1, 1, 1, 1, 1, 1, 1, 1, 1, 1], [8, 18, 4088, 15, 136, 638, 999, 14, 313, 1922, 2074, 13, 249, 14, 24, 36, 152, 4, 489, 438, 1, 1]]
Begin: Training
_________________________________________________________________
Layer (type)                 Output Shape              Param #   
=================================================================
input_1 (InputLayer)         (None, 22)                0         
_________________________________________________________________
embedding_1 (Embedding)      (None, 22, 100)           50000200  
_________________________________________________________________
bidirectional_1 (Bidirection (None, 22, 256)           234496    
_________________________________________________________________
dense_1 (Dense)              (None, 22, 64)            16448     
_________________________________________________________________
dropout_1 (Dropout)          (None, 22, 64)            0         
_________________________________________________________________
dense_2 (Dense)              (None, 22, 32)            2080      
_________________________________________________________________
dropout_2 (Dropout)          (None, 22, 32)            0         
_________________________________________________________________
flatten_1 (Flatten)          (None, 704)               0         
_________________________________________________________________
dense_3 (Dense)              (None, 3)                 2115      
=================================================================
Total params: 50,255,339
Trainable params: 255,139
Non-trainable params: 50,000,200
_________________________________________________________________
End: Training
Begin: Loading embeddings
End: Loading embeddings
[[8, 91473, 4430, 112, 7493, 0, 259, 31562, 27449, 4430, 7937, 32006, 114038, 259, 0, 9587, 4885, 225647, 1, 1, 1
…
