…
[[166, 129, 79, 552, 1881, 36947, 17, 4, 760, 43, 231, 11, 152, 448, 21, 2347, 15, 112, 17164, 845, 15, 56], [31, 438, 46, 4, 3820, 2307, 305, 14, 337, 79, 115, 24, 674, 231, 14, 59, 4281, 107, 15, 2820, 15, 1528], [8, 8, 4633, 538, 40, 23, 224, 15, 6, 9171, 4546, 61, 44, 19, 23, 7, 43, 4605, 84, 1, 1, 1], [87, 19, 2346, 240, 23, 7, 485, 12, 4, 21341, 18, 0, 84, 634, 14358, 23, 800, 1566, 53, 0, 14, 1], [8, 175, 10, 2411, 4093, 33, 4375, 2895, 53, 397, 47, 24, 231, 11, 11, 11, 2649, 275, 2075, 0, 1, 1]]
Begin: Training
_________________________________________________________________
Layer (type)                 Output Shape              Param #   
=================================================================
input_1 (InputLayer)         (None, 22)                0         
_________________________________________________________________
embedding_1 (Embedding)      (None, 22, 100)           50000200  
_________________________________________________________________
bidirectional_1 (Bidirection (None, 22, 256)           234496    
_________________________________________________________________
dense_1 (Dense)              (None, 22, 64)            16448     
_________________________________________________________________
dropout_1 (Dropout)          (None, 22, 64)            0         
_________________________________________________________________
dense_2 (Dense)              (None, 22, 32)            2080      
_________________________________________________________________
dropout_2 (Dropout)          (None, 22, 32)            0         
_________________________________________________________________
flatten_1 (Flatten)          (None, 704)               0         
_________________________________________________________________
dense_3 (Dense)              (None, 3)                 2115      
=================================================================
Total params: 50,255,339
Trainable params: 255,139
Non-trainable params: 50,000,200
_________________________________________________________________
End: Training
[[50304, 134, 1321, 503, 1, 1, 1, 1, 1, 1, 1, 1, 1, 1, 1, 1, 1, 1, 1, 1, 1, 1], [8, 23464, 37048, 331385, 7, 312, 6415, 22424, 197, 49781, 15, 107267, 4430, 112, 7
…
