…
[[12042, 15588, 7095, 165, 1130, 18, 4, 669, 231, 26, 2506, 37, 170, 81, 7, 8074, 7832, 17, 0, 14, 1, 1, 1], [112, 1236, 332, 19, 80, 6, 1908, 61, 19, 87, 20, 7, 2148, 674, 15, 31, 173, 18, 24, 38, 3213, 86, 15], [322, 54, 16, 96, 23, 452, 93, 546, 1038, 29, 67, 12, 40, 10319, 58, 16700, 1739, 144, 5865, 241, 15, 149, 476], [13, 1684, 7070, 0, 7119, 1504, 421, 5665, 2750, 14, 1218, 389, 2341, 13, 706, 7070, 0, 64, 24, 2299, 14, 1, 1], [2380, 8, 91, 180328, 1343, 1688, 6, 870, 5324, 6, 10059, 1782, 12, 166, 1383, 0, 5953, 14, 61, 84, 610, 43, 85]]
Begin: Training
_________________________________________________________________
Layer (type)                 Output Shape              Param #   
=================================================================
input_1 (InputLayer)         (None, 23)                0         
_________________________________________________________________
embedding_1 (Embedding)      (None, 23, 100)           50000200  
_________________________________________________________________
bidirectional_1 (Bidirection (None, 23, 256)           234496    
_________________________________________________________________
dense_1 (Dense)              (None, 23, 64)            16448     
_________________________________________________________________
dropout_1 (Dropout)          (None, 23, 64)            0         
_________________________________________________________________
dense_2 (Dense)              (None, 23, 32)            2080      
_________________________________________________________________
dropout_2 (Dropout)          (None, 23, 32)            0         
_________________________________________________________________
flatten_1 (Flatten)          (None, 736)               0         
_________________________________________________________________
dense_3 (Dense)              (None, 2)                 1474      
=================================================================
Total params: 50,254,698
Trainable params: 254,498
Non-trainable params: 50,000,200
_________________________________________________________________
End: Training
[[50304, 134, 1321, 503, 1, 1, 1, 1, 1, 1, 1, 1, 1, 1, 1, 1, 1, 1, 1, 1, 1, 1, 1], [8, 23464, 37048, 331385, 7, 312, 6415, 22424, 197, 49781, 15, 107267, 4430, 112
…
