…
[[0, 2566, 373, 32, 7, 1789, 1769, 14, 694, 1787, 10, 105, 15, 940, 10, 4, 665, 14, 72043, 19734, 1, 1], [13, 210, 4743, 69, 929, 432, 6, 32, 7, 746, 13811, 203, 31, 3199, 29, 6, 1257, 46, 152, 13, 31, 1489], [4887, 149046, 11232, 1084, 17, 586, 265296, 5463, 5953, 91, 473701, 5463, 15644, 4887, 149046, 317, 68, 160, 24, 171, 26, 1], [1284, 12, 8027, 15, 2721, 43, 14, 926, 2447, 611, 240, 430, 6, 4375, 14, 54, 95, 7, 673, 21231, 9, 2721], [159, 275, 6, 79, 3991, 282, 231, 20, 8, 11, 0, 0, 1, 1, 1, 1, 1, 1, 1, 1, 1, 1]]
Begin: Training
_________________________________________________________________
Layer (type)                 Output Shape              Param #   
=================================================================
input_1 (InputLayer)         (None, 22)                0         
_________________________________________________________________
embedding_1 (Embedding)      (None, 22, 100)           50000200  
_________________________________________________________________
bidirectional_1 (Bidirection (None, 22, 256)           234496    
_________________________________________________________________
dense_1 (Dense)              (None, 22, 64)            16448     
_________________________________________________________________
dropout_1 (Dropout)          (None, 22, 64)            0         
_________________________________________________________________
dense_2 (Dense)              (None, 22, 32)            2080      
_________________________________________________________________
dropout_2 (Dropout)          (None, 22, 32)            0         
_________________________________________________________________
flatten_1 (Flatten)          (None, 704)               0         
_________________________________________________________________
dense_3 (Dense)              (None, 2)                 1410      
=================================================================
Total params: 50,254,634
Trainable params: 254,434
Non-trainable params: 50,000,200
_________________________________________________________________
End: Training
Begin: Loading embeddings
End: Loading embeddings
[[8, 91473, 4430, 112, 7493, 0, 259, 31562, 27449, 4430, 7937, 32006, 114038, 259, 0, 9587, 4885, 225647, 1, 1, 1
…
