…
[[8, 13, 217, 40, 26339, 40, 6892, 514, 18, 41, 141, 15, 317, 19, 2192, 29, 57, 41, 449, 131, 3410, 22], [873, 2861, 66370, 53, 4, 929, 432, 108, 32, 617, 18, 4564, 12, 76, 1038, 539, 1202, 15, 4, 4523, 262, 1], [8, 4375, 11309, 14, 7246, 5526, 19, 982, 4, 365, 12, 1145, 50, 19, 93, 17104, 4, 43, 19, 853, 24, 1], [29198, 134, 5405, 428, 751, 1632, 758, 683, 109936, 17, 4, 1804, 16365, 288, 91, 1226, 53, 1212, 53, 2065, 53, 2861], [8, 373, 19, 458, 1683, 19948, 12, 4279, 57, 388, 12951, 4279, 428, 22, 112, 229, 1381, 12951, 11, 1, 1, 1]]
Begin: Training
_________________________________________________________________
Layer (type)                 Output Shape              Param #   
=================================================================
input_1 (InputLayer)         (None, 22)                0         
_________________________________________________________________
embedding_1 (Embedding)      (None, 22, 100)           50000200  
_________________________________________________________________
bidirectional_1 (Bidirection (None, 22, 256)           234496    
_________________________________________________________________
dense_1 (Dense)              (None, 22, 64)            16448     
_________________________________________________________________
dropout_1 (Dropout)          (None, 22, 64)            0         
_________________________________________________________________
dense_2 (Dense)              (None, 22, 32)            2080      
_________________________________________________________________
dropout_2 (Dropout)          (None, 22, 32)            0         
_________________________________________________________________
flatten_1 (Flatten)          (None, 704)               0         
_________________________________________________________________
dense_3 (Dense)              (None, 3)                 2115      
=================================================================
Total params: 50,255,339
Trainable params: 255,139
Non-trainable params: 50,000,200
_________________________________________________________________
End: Training
[[50304, 134, 1321, 503, 1, 1, 1, 1, 1, 1, 1, 1, 1, 1, 1, 1, 1, 1, 1, 1, 1, 1], [8, 23464, 37048, 331385, 7, 312, 6415, 22424, 197, 49781, 15, 107267, 4430, 112, 7
…
