…
[[276, 11, 30, 11319, 8, 134, 112, 6275, 21042, 23, 4, 3029, 11, 229, 4, 4897, 142, 13, 3020, 6, 510, 57], [54, 116, 7, 636, 103, 421, 6544, 2483, 132, 215, 9, 183, 6638, 231, 51, 26, 0, 1, 1, 1, 1, 1], [112, 3874, 16, 449, 108, 2290, 21273, 131, 172, 132, 378, 128, 57, 183, 3086, 3991, 282, 231, 1, 1, 1, 1], [293, 7, 74815, 11, 3872, 4104, 6, 60, 162, 7790, 17, 4375, 2895, 9, 257, 1635, 6, 15339, 24, 17, 7, 926], [3548, 397, 4386, 104, 804, 231, 33, 4088, 276, 35, 4, 145, 13, 39, 21, 435, 30, 133, 0, 1, 1, 1]]
Begin: Training
_________________________________________________________________
Layer (type)                 Output Shape              Param #   
=================================================================
input_1 (InputLayer)         (None, 22)                0         
_________________________________________________________________
embedding_1 (Embedding)      (None, 22, 100)           50000200  
_________________________________________________________________
bidirectional_1 (Bidirection (None, 22, 256)           234496    
_________________________________________________________________
dense_1 (Dense)              (None, 22, 64)            16448     
_________________________________________________________________
dropout_1 (Dropout)          (None, 22, 64)            0         
_________________________________________________________________
dense_2 (Dense)              (None, 22, 32)            2080      
_________________________________________________________________
dropout_2 (Dropout)          (None, 22, 32)            0         
_________________________________________________________________
flatten_1 (Flatten)          (None, 704)               0         
_________________________________________________________________
dense_3 (Dense)              (None, 2)                 1410      
=================================================================
Total params: 50,254,634
Trainable params: 254,434
Non-trainable params: 50,000,200
_________________________________________________________________
End: Training
Begin: Loading embeddings
End: Loading embeddings
[[7070, 82, 8, 91, 192451, 428, 0, 11320, 0, 0, 0, 7070, 82, 0, 26, 0, 1, 1, 1, 1, 1, 1], [0, 102369, 0, 0, 5771,
…
