…
[[1821, 6483, 22, 4743, 6, 2116, 4, 6495, 108, 172, 10, 104, 27317, 17230, 91, 0, 0, 0, 1, 1, 1, 1], [47, 7, 981, 13870, 6, 47, 7, 1746, 2183, 1787, 75, 78, 231, 1, 1, 1, 1, 1, 1, 1, 1, 1], [8, 501, 3669, 15, 18484, 134, 7, 55, 1230, 17, 19, 11, 13, 2737, 262, 7, 10481, 0, 14, 43, 17, 7], [373, 131, 373, 68, 47, 31, 381, 16, 194, 26339, 155, 140, 11569, 15, 12104, 13848, 15, 78, 2751, 15715, 23, 24], [3248, 2394, 11, 610, 28, 85, 12594, 38737, 0, 1, 1, 1, 1, 1, 1, 1, 1, 1, 1, 1, 1, 1]]
Begin: Training
_________________________________________________________________
Layer (type)                 Output Shape              Param #   
=================================================================
input_1 (InputLayer)         (None, 22)                0         
_________________________________________________________________
embedding_1 (Embedding)      (None, 22, 100)           50000200  
_________________________________________________________________
bidirectional_1 (Bidirection (None, 22, 256)           234496    
_________________________________________________________________
dense_1 (Dense)              (None, 22, 64)            16448     
_________________________________________________________________
dropout_1 (Dropout)          (None, 22, 64)            0         
_________________________________________________________________
dense_2 (Dense)              (None, 22, 32)            2080      
_________________________________________________________________
dropout_2 (Dropout)          (None, 22, 32)            0         
_________________________________________________________________
flatten_1 (Flatten)          (None, 704)               0         
_________________________________________________________________
dense_3 (Dense)              (None, 3)                 2115      
=================================================================
Total params: 50,255,339
Trainable params: 255,139
Non-trainable params: 50,000,200
_________________________________________________________________
End: Training
Begin: Loading embeddings
End: Loading embeddings
[[0, 263, 0, 263, 15, 24078, 14, 0, 1734, 0, 6255, 263, 221395, 263, 1695, 183757, 1218, 90587, 263, 0, 263, 7], 
…
