…
25972, 0, 4659, 0, 0, 309375, 97348, 80039, 367543, 411444, 479252, 440839], [149053, 278018, 399576, 24198, 178859, 385604, 440839, 31955, 95347, 114687, 7112, 31955, 487396, 0, 158542, 1, 1, 1, 1, 1, 1, 1, 1], [118834, 392025, 242012, 0, 480093, 367131, 331823, 295769, 0, 309375, 0, 0, 233426, 268074, 95347, 0, 499041, 0, 295769, 491717, 0, 0, 497903]]
Begin: Training
_________________________________________________________________
Layer (type)                 Output Shape              Param #   
=================================================================
input_1 (InputLayer)         (None, 23)                0         
_________________________________________________________________
embedding_1 (Embedding)      (None, 23, 100)           50000200  
_________________________________________________________________
bidirectional_1 (Bidirection (None, 23, 256)           234496    
_________________________________________________________________
dense_1 (Dense)              (None, 23, 64)            16448     
_________________________________________________________________
dropout_1 (Dropout)          (None, 23, 64)            0         
_________________________________________________________________
dense_2 (Dense)              (None, 23, 32)            2080      
_________________________________________________________________
dropout_2 (Dropout)          (None, 23, 32)            0         
_________________________________________________________________
flatten_1 (Flatten)          (None, 736)               0         
_________________________________________________________________
dense_3 (Dense)              (None, 2)                 1474      
=================================================================
Total params: 50,254,698
Trainable params: 254,498
Non-trainable params: 50,000,200
_________________________________________________________________
End: Training
[[141144, 84312, 196328, 73820, 1, 1, 1, 1, 1, 1, 1, 1, 1, 1, 1, 1, 1, 1, 1, 1, 1, 1, 1], [328170, 0, 157367, 170707, 95347, 458563, 0, 76351, 0, 142578, 285113, 0
…
