…
[[13, 289, 829, 32, 1559, 20, 3991, 282, 480, 20351, 18, 1104, 198, 311, 231, 51, 14, 0, 1, 1, 1, 1, 1], [105, 38, 11, 3019, 46, 18, 49170, 6, 14457, 373, 68, 47, 116, 4, 76, 1379, 14, 7122, 16, 1035, 14, 21, 598], [205, 7641, 6, 1941, 368, 373, 32, 4, 2350, 356, 40, 7070, 0, 1206, 6, 29, 1792, 14, 1, 1, 1, 1, 1], [8, 157, 51491, 8659, 66495, 95, 3570, 56360, 22, 61, 77, 132, 4, 21024, 183, 134, 10, 4, 586, 164, 14, 1, 1], [746, 515, 6, 4, 195, 50, 31, 73, 33, 552, 1881, 36947, 9, 0, 13, 317, 47, 1489, 10, 40, 3487, 17, 4]]
Begin: Training
_________________________________________________________________
Layer (type)                 Output Shape              Param #   
=================================================================
input_1 (InputLayer)         (None, 23)                0         
_________________________________________________________________
embedding_1 (Embedding)      (None, 23, 100)           50000200  
_________________________________________________________________
bidirectional_1 (Bidirection (None, 23, 256)           234496    
_________________________________________________________________
dense_1 (Dense)              (None, 23, 64)            16448     
_________________________________________________________________
dropout_1 (Dropout)          (None, 23, 64)            0         
_________________________________________________________________
dense_2 (Dense)              (None, 23, 32)            2080      
_________________________________________________________________
dropout_2 (Dropout)          (None, 23, 32)            0         
_________________________________________________________________
flatten_1 (Flatten)          (None, 736)               0         
_________________________________________________________________
dense_3 (Dense)              (None, 2)                 1474      
=================================================================
Total params: 50,254,698
Trainable params: 254,498
Non-trainable params: 50,000,200
_________________________________________________________________
End: Training
Begin: Loading embeddings
End: Loading embeddings
[[8, 91473, 4430, 112, 7493, 0, 259, 31562, 27449, 4430, 7937, 32006, 114038, 259, 0, 9587, 4885, 225647, 1, 1, 1
…
