…
[[4666, 2549, 20, 8, 14, 159, 275, 6, 79, 422, 185, 1489, 18, 4088, 11, 48875, 34759, 35458, 407915, 1, 1, 1, 1], [13, 5824, 7, 18444, 4238, 368, 20, 7, 5019, 12, 295, 263, 2074, 82, 20, 4498, 751, 26339, 14, 30877, 12429, 12549, 91], [112015, 563, 12, 128354, 36349, 373, 1954, 6, 2393, 82, 103876, 82, 20, 90, 4076, 15517, 91, 11170, 0, 8, 0, 1, 1], [106, 136, 377, 25, 1696, 231, 1782, 12, 10293, 13, 108, 1638, 48, 12, 4, 399214, 1725, 10, 4, 3234, 18, 33793, 9], [284, 6, 1045, 95, 4, 25, 1628, 42, 33, 929, 11, 11, 0, 1, 1, 1, 1, 1, 1, 1, 1, 1, 1]]
Begin: Training
_________________________________________________________________
Layer (type)                 Output Shape              Param #   
=================================================================
input_1 (InputLayer)         (None, 23)                0         
_________________________________________________________________
embedding_1 (Embedding)      (None, 23, 100)           50000200  
_________________________________________________________________
bidirectional_1 (Bidirection (None, 23, 256)           234496    
_________________________________________________________________
dense_1 (Dense)              (None, 23, 64)            16448     
_________________________________________________________________
dropout_1 (Dropout)          (None, 23, 64)            0         
_________________________________________________________________
dense_2 (Dense)              (None, 23, 32)            2080      
_________________________________________________________________
dropout_2 (Dropout)          (None, 23, 32)            0         
_________________________________________________________________
flatten_1 (Flatten)          (None, 736)               0         
_________________________________________________________________
dense_3 (Dense)              (None, 2)                 1474      
=================================================================
Total params: 50,254,698
Trainable params: 254,498
Non-trainable params: 50,000,200
_________________________________________________________________
End: Training
Begin: Loading embeddings
End: Loading embeddings
[[0, 263, 0, 263, 15, 24078, 14, 0, 1734, 0, 6255, 263, 221395, 263, 1695, 183757, 1218, 90587, 263, 0, 263, 7, 1
…
