…
[[8, 1036, 2360, 15, 19, 77, 41, 2491, 17, 4, 2859, 1976, 84, 13, 249, 13, 217, 6, 60, 1139, 57, 13, 60], [55946, 31, 978, 165, 3692, 1456, 461, 23, 165, 2375, 26, 304, 916, 1, 1, 1, 1, 1, 1, 1, 1, 1, 1], [6014, 7535, 22, 95, 6, 24687, 511, 688, 4633, 868, 47, 12, 1577, 4, 366, 141, 166, 1146, 195, 14, 2418, 0, 1], [21, 108, 1198, 487, 265360, 10, 4, 25, 12709, 14, 0, 1, 1, 1, 1, 1, 1, 1, 1, 1, 1, 1, 1], [1821, 74438, 7070, 0, 480, 20, 88645, 18, 494, 22709, 2147, 1581, 14, 149, 204, 6, 1045, 88645, 78818, 14, 1, 1, 1]]
Begin: Training
_________________________________________________________________
Layer (type)                 Output Shape              Param #   
=================================================================
input_1 (InputLayer)         (None, 23)                0         
_________________________________________________________________
embedding_1 (Embedding)      (None, 23, 100)           50000200  
_________________________________________________________________
bidirectional_1 (Bidirection (None, 23, 256)           234496    
_________________________________________________________________
dense_1 (Dense)              (None, 23, 64)            16448     
_________________________________________________________________
dropout_1 (Dropout)          (None, 23, 64)            0         
_________________________________________________________________
dense_2 (Dense)              (None, 23, 32)            2080      
_________________________________________________________________
dropout_2 (Dropout)          (None, 23, 32)            0         
_________________________________________________________________
flatten_1 (Flatten)          (None, 736)               0         
_________________________________________________________________
dense_3 (Dense)              (None, 2)                 1474      
=================================================================
Total params: 50,254,698
Trainable params: 254,498
Non-trainable params: 50,000,200
_________________________________________________________________
End: Training
Begin: Loading embeddings
End: Loading embeddings
[[0, 263, 0, 263, 15, 24078, 14, 0, 1734, 0, 6255, 263, 221395, 263, 1695, 183757, 1218, 90587, 263, 0, 263, 7, 1
…
