…
[[459, 26781, 3683, 15, 44, 92, 22244, 12, 8045, 12, 39, 524, 84, 1359, 46, 1193, 15, 136, 204, 662, 243, 0], [8, 19, 373, 458, 222, 16, 23687, 30044, 20, 4375, 17, 814, 13, 2913, 309, 10851, 9, 1249, 2318, 844, 14, 1], [587, 13, 36, 166, 6, 79, 3187, 2483, 231, 234662, 13, 587, 13, 36, 553, 1, 1, 1, 1, 1, 1, 1], [8, 61, 36, 4, 1361, 262, 221, 68, 915, 3658, 10, 4, 11170, 2000, 1489, 10, 5676, 57, 262, 2094, 24, 22], [5596, 12, 216, 166, 6, 1776, 1114, 23, 626, 1, 1, 1, 1, 1, 1, 1, 1, 1, 1, 1, 1, 1]]
Begin: Training
_________________________________________________________________
Layer (type)                 Output Shape              Param #   
=================================================================
input_1 (InputLayer)         (None, 22)                0         
_________________________________________________________________
embedding_1 (Embedding)      (None, 22, 100)           50000200  
_________________________________________________________________
bidirectional_1 (Bidirection (None, 22, 256)           234496    
_________________________________________________________________
dense_1 (Dense)              (None, 22, 64)            16448     
_________________________________________________________________
dropout_1 (Dropout)          (None, 22, 64)            0         
_________________________________________________________________
dense_2 (Dense)              (None, 22, 32)            2080      
_________________________________________________________________
dropout_2 (Dropout)          (None, 22, 32)            0         
_________________________________________________________________
flatten_1 (Flatten)          (None, 704)               0         
_________________________________________________________________
dense_3 (Dense)              (None, 2)                 1410      
=================================================================
Total params: 50,254,634
Trainable params: 254,434
Non-trainable params: 50,000,200
_________________________________________________________________
End: Training
Begin: Loading embeddings
End: Loading embeddings
[[0, 263, 0, 263, 15, 24078, 14, 0, 1734, 0, 6255, 263, 221395, 263, 1695, 183757, 1218, 90587, 263, 0, 263, 7], 
…
