…
[[2006, 15, 4, 929, 398, 3999, 86, 9570, 19, 6, 432, 33, 4, 5660, 2400, 43918, 23, 4279, 428, 0, 1, 1], [363, 16, 3439, 10, 52264, 50, 167, 5260, 623, 6, 7, 1439, 17335, 586, 423, 5821, 23, 4, 1233, 1178, 6, 13519], [55946, 5431, 409, 10, 4, 926, 438, 11, 228, 0, 4, 593, 11, 46, 10850, 11, 105935, 9013, 107625, 1, 1, 1], [120, 219, 581, 10319, 156, 23, 4, 21935, 59, 3, 4, 1701, 65, 231, 18, 2024, 234, 14, 314, 290, 108, 32], [8, 8, 56, 51, 4189, 14, 117, 19, 9, 79, 19, 231, 11, 1, 1, 1, 1, 1, 1, 1, 1, 1]]
Begin: Training
_________________________________________________________________
Layer (type)                 Output Shape              Param #   
=================================================================
input_1 (InputLayer)         (None, 22)                0         
_________________________________________________________________
embedding_1 (Embedding)      (None, 22, 100)           50000200  
_________________________________________________________________
bidirectional_1 (Bidirection (None, 22, 256)           234496    
_________________________________________________________________
dense_1 (Dense)              (None, 22, 64)            16448     
_________________________________________________________________
dropout_1 (Dropout)          (None, 22, 64)            0         
_________________________________________________________________
dense_2 (Dense)              (None, 22, 32)            2080      
_________________________________________________________________
dropout_2 (Dropout)          (None, 22, 32)            0         
_________________________________________________________________
flatten_1 (Flatten)          (None, 704)               0         
_________________________________________________________________
dense_3 (Dense)              (None, 2)                 1410      
=================================================================
Total params: 50,254,634
Trainable params: 254,434
Non-trainable params: 50,000,200
_________________________________________________________________
End: Training
Begin: Loading embeddings
End: Loading embeddings
[[8, 91473, 4430, 112, 7493, 0, 259, 31562, 27449, 4430, 7937, 32006, 114038, 259, 0, 9587, 4885, 225647, 1, 1, 1
…
