…
[[265360, 959, 170, 108, 420, 2069, 0, 1229, 8, 8, 5696, 72526, 12842, 0, 1, 1, 1, 1, 1, 1, 1, 1], [8, 30, 702, 1048, 6331, 11842, 9, 11443, 19948, 9, 27, 2240, 23, 281, 14, 21, 373, 870, 10, 4, 881, 738], [8, 3497, 54, 11827, 15, 50, 13, 249, 40, 33304, 373, 32, 7, 840, 697, 14, 30, 309, 104, 15, 24, 176622], [1292, 185, 6, 800, 5361, 12256, 18, 14433, 1122, 95, 3765, 136, 204, 7, 10271, 131, 12434, 17, 243, 3029, 1044, 916], [59513, 6, 8, 231, 14, 63, 1292, 179, 20, 12344, 5463, 8645, 26781, 3683, 14, 1, 1, 1, 1, 1, 1, 1]]
Begin: Training
_________________________________________________________________
Layer (type)                 Output Shape              Param #   
=================================================================
input_1 (InputLayer)         (None, 22)                0         
_________________________________________________________________
embedding_1 (Embedding)      (None, 22, 100)           50000200  
_________________________________________________________________
bidirectional_1 (Bidirection (None, 22, 256)           234496    
_________________________________________________________________
dense_1 (Dense)              (None, 22, 64)            16448     
_________________________________________________________________
dropout_1 (Dropout)          (None, 22, 64)            0         
_________________________________________________________________
dense_2 (Dense)              (None, 22, 32)            2080      
_________________________________________________________________
dropout_2 (Dropout)          (None, 22, 32)            0         
_________________________________________________________________
flatten_1 (Flatten)          (None, 704)               0         
_________________________________________________________________
dense_3 (Dense)              (None, 3)                 2115      
=================================================================
Total params: 50,255,339
Trainable params: 255,139
Non-trainable params: 50,000,200
_________________________________________________________________
End: Training
[[50304, 134, 1321, 503, 1, 1, 1, 1, 1, 1, 1, 1, 1, 1, 1, 1, 1, 1, 1, 1, 1, 1], [8, 23464, 37048, 331385, 7, 312, 6415, 22424, 197, 49781, 15, 107267, 4430, 112, 7
…
