…
 492035, 151632, 486038, 57856, 151632], [0, 57856, 0, 0, 300698, 325046, 74544, 0, 489574, 240701, 250911, 235149, 310608, 188467, 18049, 227105, 0, 28781, 132817, 209207, 117491, 6547], [390660, 359581, 206150, 255666, 12005, 404676, 257659, 489574, 13478, 105842, 440628, 18049, 301591, 255666, 269425, 425579, 77330, 151632, 255882, 132967, 383242, 0]]
Begin: Training
_________________________________________________________________
Layer (type)                 Output Shape              Param #   
=================================================================
input_1 (InputLayer)         (None, 22)                0         
_________________________________________________________________
embedding_1 (Embedding)      (None, 22, 100)           50000200  
_________________________________________________________________
bidirectional_1 (Bidirection (None, 22, 256)           234496    
_________________________________________________________________
dense_1 (Dense)              (None, 22, 64)            16448     
_________________________________________________________________
dropout_1 (Dropout)          (None, 22, 64)            0         
_________________________________________________________________
dense_2 (Dense)              (None, 22, 32)            2080      
_________________________________________________________________
dropout_2 (Dropout)          (None, 22, 32)            0         
_________________________________________________________________
flatten_1 (Flatten)          (None, 704)               0         
_________________________________________________________________
dense_3 (Dense)              (None, 2)                 1410      
=================================================================
Total params: 50,254,634
Trainable params: 254,434
Non-trainable params: 50,000,200
_________________________________________________________________
End: Training
[[396074, 330801, 478928, 218876, 1, 1, 1, 1, 1, 1, 1, 1, 1, 1, 1, 1, 1, 1, 1, 1, 1, 1], [207923, 246711, 411271, 0, 151632, 362574, 313020, 397108, 253188, 0, 257
…
