…
602, 459860, 312864, 303551, 0, 104730, 312864, 358525, 0, 309375, 315952, 1], [328170, 356555, 0, 461565, 408507, 437918, 465189, 309375, 0, 0, 295769, 0, 309375, 390105, 38707, 480688, 0, 309375, 0, 1, 1, 1], [235863, 431040, 0, 309375, 0, 136591, 0, 149053, 86499, 399576, 279139, 0, 309375, 0, 201339, 235863, 264095, 274152, 399576, 417130, 0, 74073]]
Begin: Training
_________________________________________________________________
Layer (type)                 Output Shape              Param #   
=================================================================
input_1 (InputLayer)         (None, 22)                0         
_________________________________________________________________
embedding_1 (Embedding)      (None, 22, 100)           50000200  
_________________________________________________________________
bidirectional_1 (Bidirection (None, 22, 256)           234496    
_________________________________________________________________
dense_1 (Dense)              (None, 22, 64)            16448     
_________________________________________________________________
dropout_1 (Dropout)          (None, 22, 64)            0         
_________________________________________________________________
dense_2 (Dense)              (None, 22, 32)            2080      
_________________________________________________________________
dropout_2 (Dropout)          (None, 22, 32)            0         
_________________________________________________________________
flatten_1 (Flatten)          (None, 704)               0         
_________________________________________________________________
dense_3 (Dense)              (None, 2)                 1410      
=================================================================
Total params: 50,254,634
Trainable params: 254,434
Non-trainable params: 50,000,200
_________________________________________________________________
End: Training
Begin: Loading embeddings
End: Loading embeddings
[[0, 419192, 0, 419192, 285113, 153022, 309375, 0, 398491, 0, 452710, 419192, 359592, 419192, 0, 185706, 194119, 
…
