…
8, 77866, 257659, 37480, 497274, 53128, 0, 325046, 74544, 257659, 369367, 0, 117491, 286304], [0, 210279, 492035, 228243, 473287, 431306, 250505, 0, 324678, 117491, 448503, 464408, 244358, 9246, 348377, 108537, 0, 1, 1, 1, 1, 1], [207923, 347373, 99671, 141386, 369367, 271017, 277516, 141975, 0, 134937, 461393, 153370, 348426, 0, 1, 1, 1, 1, 1, 1, 1, 1]]
Begin: Training
_________________________________________________________________
Layer (type)                 Output Shape              Param #   
=================================================================
input_1 (InputLayer)         (None, 22)                0         
_________________________________________________________________
embedding_1 (Embedding)      (None, 22, 100)           50000200  
_________________________________________________________________
bidirectional_1 (Bidirection (None, 22, 256)           234496    
_________________________________________________________________
dense_1 (Dense)              (None, 22, 64)            16448     
_________________________________________________________________
dropout_1 (Dropout)          (None, 22, 64)            0         
_________________________________________________________________
dense_2 (Dense)              (None, 22, 32)            2080      
_________________________________________________________________
dropout_2 (Dropout)          (None, 22, 32)            0         
_________________________________________________________________
flatten_1 (Flatten)          (None, 704)               0         
_________________________________________________________________
dense_3 (Dense)              (None, 3)                 2115      
=================================================================
Total params: 50,255,339
Trainable params: 255,139
Non-trainable params: 50,000,200
_________________________________________________________________
End: Training
Begin: Loading embeddings
End: Loading embeddings
[[207923, 182888, 230437, 283892, 496992, 0, 344363, 203292, 181836, 230437, 0, 112066, 318596, 344363, 112414, 2
…
