…
[[8, 1476, 55, 283, 95, 4, 5808, 19948, 12, 139, 12, 9034, 59, 3264, 4, 14475, 17266, 221, 68, 1262, 4, 760, 611], [8, 40, 12434, 3942, 14094, 46, 16, 1489, 1267, 226, 14, 61, 22, 166, 23, 84, 0, 1, 1, 1, 1, 1, 1], [309, 373, 68, 125, 40, 5220, 4860, 3611, 33, 3978, 14, 61, 221, 183, 1167, 168, 84, 183, 81, 6, 12246, 132, 2247], [82, 1603, 12254, 16, 8993, 75, 14, 24, 6262, 46, 15, 9, 1152, 228, 939, 128, 14, 1021, 4, 1601, 87957, 9, 114], [385, 24, 15, 4887, 149046, 14, 270, 464, 1915, 19, 6, 4, 610, 32961, 272, 85, 3382, 1429, 14, 373, 19, 823, 42805]]
Begin: Training
_________________________________________________________________
Layer (type)                 Output Shape              Param #   
=================================================================
input_1 (InputLayer)         (None, 23)                0         
_________________________________________________________________
embedding_1 (Embedding)      (None, 23, 100)           50000200  
_________________________________________________________________
bidirectional_1 (Bidirection (None, 23, 256)           234496    
_________________________________________________________________
dense_1 (Dense)              (None, 23, 64)            16448     
_________________________________________________________________
dropout_1 (Dropout)          (None, 23, 64)            0         
_________________________________________________________________
dense_2 (Dense)              (None, 23, 32)            2080      
_________________________________________________________________
dropout_2 (Dropout)          (None, 23, 32)            0         
_________________________________________________________________
flatten_1 (Flatten)          (None, 736)               0         
_________________________________________________________________
dense_3 (Dense)              (None, 2)                 1474      
=================================================================
Total params: 50,254,698
Trainable params: 254,498
Non-trainable params: 50,000,200
_________________________________________________________________
End: Training
Begin: Loading embeddings
End: Loading embeddings
[[0, 263, 0, 263, 15, 24078, 14, 0, 1734, 0, 6255, 263, 221395, 263, 1695, 183757, 1218, 90587, 263, 0, 263, 7, 1
…
