…
6857, 335580, 331823, 0, 309375, 60939, 309375], [0, 0, 0, 0, 117528, 465189, 239594, 437918, 358934, 0, 168746, 295769, 276649, 340066, 38707, 0, 465189, 187648, 369489, 4943, 409043, 409043], [328170, 86915, 497903, 285113, 295769, 4943, 227789, 411954, 304246, 19545, 309960, 149053, 438278, 391069, 411812, 0, 337920, 23384, 101246, 282189, 309375, 1]]
Begin: Training
_________________________________________________________________
Layer (type)                 Output Shape              Param #   
=================================================================
input_1 (InputLayer)         (None, 22)                0         
_________________________________________________________________
embedding_1 (Embedding)      (None, 22, 100)           50000200  
_________________________________________________________________
bidirectional_1 (Bidirection (None, 22, 256)           234496    
_________________________________________________________________
dense_1 (Dense)              (None, 22, 64)            16448     
_________________________________________________________________
dropout_1 (Dropout)          (None, 22, 64)            0         
_________________________________________________________________
dense_2 (Dense)              (None, 22, 32)            2080      
_________________________________________________________________
dropout_2 (Dropout)          (None, 22, 32)            0         
_________________________________________________________________
flatten_1 (Flatten)          (None, 704)               0         
_________________________________________________________________
dense_3 (Dense)              (None, 2)                 1410      
=================================================================
Total params: 50,254,634
Trainable params: 254,434
Non-trainable params: 50,000,200
_________________________________________________________________
End: Training
[[141144, 84312, 196328, 73820, 1, 1, 1, 1, 1, 1, 1, 1, 1, 1, 1, 1, 1, 1, 1, 1, 1, 1], [328170, 0, 157367, 170707, 95347, 458563, 0, 76351, 0, 142578, 285113, 0, 0
…
