…
2432, 285113, 0, 0, 420183, 0, 0, 357121, 95347, 456775, 0, 0, 101233, 83840, 86499, 295769, 0], [0, 25972, 472080, 0, 0, 331823, 405488, 0, 118090, 0, 0, 469918, 138996, 295769, 0, 485371, 409043, 0, 0, 1, 1, 1], [0, 0, 250345, 328170, 399576, 156970, 62714, 0, 95347, 0, 392025, 313849, 295769, 0, 310051, 95347, 0, 386372, 65040, 86368, 499429, 481898]]
Begin: Training
_________________________________________________________________
Layer (type)                 Output Shape              Param #   
=================================================================
input_1 (InputLayer)         (None, 22)                0         
_________________________________________________________________
embedding_1 (Embedding)      (None, 22, 100)           50000200  
_________________________________________________________________
bidirectional_1 (Bidirection (None, 22, 256)           234496    
_________________________________________________________________
dense_1 (Dense)              (None, 22, 64)            16448     
_________________________________________________________________
dropout_1 (Dropout)          (None, 22, 64)            0         
_________________________________________________________________
dense_2 (Dense)              (None, 22, 32)            2080      
_________________________________________________________________
dropout_2 (Dropout)          (None, 22, 32)            0         
_________________________________________________________________
flatten_1 (Flatten)          (None, 704)               0         
_________________________________________________________________
dense_3 (Dense)              (None, 3)                 2115      
=================================================================
Total params: 50,255,339
Trainable params: 255,139
Non-trainable params: 50,000,200
_________________________________________________________________
End: Training
[[141144, 84312, 196328, 73820, 1, 1, 1, 1, 1, 1, 1, 1, 1, 1, 1, 1, 1, 1, 1, 1, 1, 1], [328170, 0, 157367, 170707, 95347, 458563, 0, 76351, 0, 142578, 285113, 0, 0
…
