…
332, 206150, 438749, 18049, 0, 57969, 257659, 375766, 276014, 293354, 299693, 206150, 1], [479534, 330801, 0, 151632, 0, 252035, 147561, 0, 244358, 380238, 37480, 90296, 209737, 0, 154854, 132817, 281685, 0, 0, 331154, 0, 188467], [0, 23876, 277516, 270706, 86670, 0, 325046, 244358, 0, 371860, 489574, 0, 105842, 267540, 484169, 105092, 1, 1, 1, 1, 1, 1]]
Begin: Training
_________________________________________________________________
Layer (type)                 Output Shape              Param #   
=================================================================
input_1 (InputLayer)         (None, 22)                0         
_________________________________________________________________
embedding_1 (Embedding)      (None, 22, 100)           50000200  
_________________________________________________________________
bidirectional_1 (Bidirection (None, 22, 256)           234496    
_________________________________________________________________
dense_1 (Dense)              (None, 22, 64)            16448     
_________________________________________________________________
dropout_1 (Dropout)          (None, 22, 64)            0         
_________________________________________________________________
dense_2 (Dense)              (None, 22, 32)            2080      
_________________________________________________________________
dropout_2 (Dropout)          (None, 22, 32)            0         
_________________________________________________________________
flatten_1 (Flatten)          (None, 704)               0         
_________________________________________________________________
dense_3 (Dense)              (None, 2)                 1410      
=================================================================
Total params: 50,254,634
Trainable params: 254,434
Non-trainable params: 50,000,200
_________________________________________________________________
End: Training
Begin: Loading embeddings
End: Loading embeddings
[[0, 497032, 0, 497032, 257659, 5560, 117491, 0, 0, 0, 273679, 497032, 266233, 497032, 347187, 311058, 224028, 48
…
