…
[[16, 433, 8, 78, 8, 31, 358, 23, 14280, 23, 16, 26339, 9, 86, 13, 219, 30000, 576, 767, 9, 4, 2147], [63, 464, 1638, 6014, 7535, 7, 96, 195, 23, 733, 261, 38, 3561, 1, 1, 1, 1, 1, 1, 1, 1, 1], [6, 38, 13526, 1451, 37, 168, 1218, 13, 373, 1185, 528, 57, 13, 239, 21, 50, 13694, 9, 4, 1946, 12555, 9], [4186, 61, 13, 221, 20, 1139, 14, 13, 197948, 4375, 17, 833, 9, 381, 7, 1726, 31, 64, 40, 9, 23289, 24], [19, 31, 125, 1339, 2290, 32, 12083, 69, 47, 7, 4062, 0, 1383, 2859, 23, 251, 131, 60, 1089, 167382, 14, 1]]
Begin: Training
_________________________________________________________________
Layer (type)                 Output Shape              Param #   
=================================================================
input_1 (InputLayer)         (None, 22)                0         
_________________________________________________________________
embedding_1 (Embedding)      (None, 22, 100)           50000200  
_________________________________________________________________
bidirectional_1 (Bidirection (None, 22, 256)           234496    
_________________________________________________________________
dense_1 (Dense)              (None, 22, 64)            16448     
_________________________________________________________________
dropout_1 (Dropout)          (None, 22, 64)            0         
_________________________________________________________________
dense_2 (Dense)              (None, 22, 32)            2080      
_________________________________________________________________
dropout_2 (Dropout)          (None, 22, 32)            0         
_________________________________________________________________
flatten_1 (Flatten)          (None, 704)               0         
_________________________________________________________________
dense_3 (Dense)              (None, 3)                 2115      
=================================================================
Total params: 50,255,339
Trainable params: 255,139
Non-trainable params: 50,000,200
_________________________________________________________________
End: Training
[[50304, 134, 1321, 503, 1, 1, 1, 1, 1, 1, 1, 1, 1, 1, 1, 1, 1, 1, 1, 1, 1, 1], [8, 23464, 37048, 331385, 7, 312, 6415, 22424, 197, 49781, 15, 107267, 4430, 112, 7
…
