…
, 326188, 0, 0, 77102, 207923, 117491, 0, 425579, 11379, 292487, 0, 1, 1, 1], [0, 105257, 277516, 207923, 444619, 0, 333249, 0, 0, 368587, 117491, 458153, 445661, 420744, 244358, 105257, 277516, 0, 399355, 425579, 50503, 0], [497032, 84145, 377686, 132817, 262880, 301591, 244358, 289711, 108402, 348685, 0, 379908, 0, 497032, 117491, 0, 1, 1, 1, 1, 1, 1]]
Begin: Training
_________________________________________________________________
Layer (type)                 Output Shape              Param #   
=================================================================
input_1 (InputLayer)         (None, 22)                0         
_________________________________________________________________
embedding_1 (Embedding)      (None, 22, 100)           50000200  
_________________________________________________________________
bidirectional_1 (Bidirection (None, 22, 256)           234496    
_________________________________________________________________
dense_1 (Dense)              (None, 22, 64)            16448     
_________________________________________________________________
dropout_1 (Dropout)          (None, 22, 64)            0         
_________________________________________________________________
dense_2 (Dense)              (None, 22, 32)            2080      
_________________________________________________________________
dropout_2 (Dropout)          (None, 22, 32)            0         
_________________________________________________________________
flatten_1 (Flatten)          (None, 704)               0         
_________________________________________________________________
dense_3 (Dense)              (None, 3)                 2115      
=================================================================
Total params: 50,255,339
Trainable params: 255,139
Non-trainable params: 50,000,200
_________________________________________________________________
End: Training
Begin: Loading embeddings
End: Loading embeddings
[[0, 497032, 0, 497032, 257659, 5560, 117491, 0, 0, 0, 273679, 497032, 266233, 497032, 347187, 311058, 224028, 48
…
