…
[[120, 2376, 79, 61, 136, 3624, 136, 32595, 90, 20, 756, 445, 108, 189, 125, 223, 23, 873, 1422, 17180, 9, 5220, 4860], [17190, 2490, 596, 23, 3305, 28, 91, 4938, 268, 12, 4, 28, 23, 775, 7070, 0, 4, 285, 19605, 26, 0, 9449, 1], [15618, 365, 6, 4, 1976, 17, 171323, 14, 6404, 3590, 6, 79, 7, 1146, 438, 0, 50, 55946, 22, 7, 8003, 14, 755], [27, 108, 32, 193, 8901, 20, 43761, 1566, 2574, 2769, 53, 53, 9, 104, 53, 53, 2078, 14, 1022, 18, 4792, 10007, 14], [871, 6, 79, 5978, 140, 797, 8, 23, 4, 2369, 240, 46, 23, 0, 0, 1, 1, 1, 1, 1, 1, 1, 1]]
Begin: Training
_________________________________________________________________
Layer (type)                 Output Shape              Param #   
=================================================================
input_1 (InputLayer)         (None, 23)                0         
_________________________________________________________________
embedding_1 (Embedding)      (None, 23, 100)           50000200  
_________________________________________________________________
bidirectional_1 (Bidirection (None, 23, 256)           234496    
_________________________________________________________________
dense_1 (Dense)              (None, 23, 64)            16448     
_________________________________________________________________
dropout_1 (Dropout)          (None, 23, 64)            0         
_________________________________________________________________
dense_2 (Dense)              (None, 23, 32)            2080      
_________________________________________________________________
dropout_2 (Dropout)          (None, 23, 32)            0         
_________________________________________________________________
flatten_1 (Flatten)          (None, 736)               0         
_________________________________________________________________
dense_3 (Dense)              (None, 2)                 1474      
=================================================================
Total params: 50,254,698
Trainable params: 254,498
Non-trainable params: 50,000,200
_________________________________________________________________
End: Training
Begin: Loading embeddings
End: Loading embeddings
[[8, 91473, 4430, 112, 7493, 0, 259, 31562, 27449, 4430, 7937, 32006, 114038, 259, 0, 9587, 4885, 225647, 1, 1, 1
…
