…
[[16795, 22, 348, 733, 5384, 264, 28, 406, 1566, 295, 15, 546, 89, 20, 29, 6, 79, 552, 1881, 36947, 84, 84], [5348, 46, 4, 62, 12, 4, 279, 489, 14, 45, 1971, 28, 11, 0, 0, 26, 1, 1, 1, 1, 1, 1], [213, 51, 20, 3991, 282, 11, 11, 0, 1, 1, 1, 1, 1, 1, 1, 1, 1, 1, 1, 1, 1, 1], [2632, 53, 409, 6, 1157, 75, 14, 336, 19, 322, 108, 172, 7, 173, 18, 4189, 25902, 231, 106, 19, 93, 53], [0, 14457, 23, 17713, 4, 239113, 373, 121055, 10, 240, 3475, 0, 7910, 0, 1, 1, 1, 1, 1, 1, 1, 1]]
Begin: Training
_________________________________________________________________
Layer (type)                 Output Shape              Param #   
=================================================================
input_1 (InputLayer)         (None, 22)                0         
_________________________________________________________________
embedding_1 (Embedding)      (None, 22, 100)           50000200  
_________________________________________________________________
bidirectional_1 (Bidirection (None, 22, 256)           234496    
_________________________________________________________________
dense_1 (Dense)              (None, 22, 64)            16448     
_________________________________________________________________
dropout_1 (Dropout)          (None, 22, 64)            0         
_________________________________________________________________
dense_2 (Dense)              (None, 22, 32)            2080      
_________________________________________________________________
dropout_2 (Dropout)          (None, 22, 32)            0         
_________________________________________________________________
flatten_1 (Flatten)          (None, 704)               0         
_________________________________________________________________
dense_3 (Dense)              (None, 2)                 1410      
=================================================================
Total params: 50,254,634
Trainable params: 254,434
Non-trainable params: 50,000,200
_________________________________________________________________
End: Training
[[50304, 134, 1321, 503, 1, 1, 1, 1, 1, 1, 1, 1, 1, 1, 1, 1, 1, 1, 1, 1, 1, 1], [8, 23464, 37048, 331385, 7, 312, 6415, 22424, 197, 49781, 15, 107267, 4430, 112, 7
…
