…
[[1821, 6483, 134, 31, 10260, 6, 4, 141, 12, 4967, 40, 0, 370, 74543, 3782, 1222, 10, 34122, 23, 1212, 1511, 14], [106, 26781, 3683, 2614, 35, 67, 702, 688, 4, 5654, 1194, 108, 32, 210, 3226, 9, 34, 586, 6105, 108, 32, 3806], [1345, 25306, 2455, 18, 1147, 20, 139, 12, 9034, 2530, 184, 7, 26, 91, 0, 7765, 1, 1, 1, 1, 1, 1], [4887, 149046, 11232, 1084, 17, 586, 265296, 5463, 5953, 91, 473701, 5463, 15644, 4887, 149046, 317, 68, 160, 24, 171, 26, 1], [236, 11, 231, 105, 13, 60, 6, 10582, 4, 8, 3820, 2307, 305, 14, 111, 8, 11, 11, 1, 1, 1, 1]]
Begin: Training
_________________________________________________________________
Layer (type)                 Output Shape              Param #   
=================================================================
input_1 (InputLayer)         (None, 22)                0         
_________________________________________________________________
embedding_1 (Embedding)      (None, 22, 100)           50000200  
_________________________________________________________________
bidirectional_1 (Bidirection (None, 22, 256)           234496    
_________________________________________________________________
dense_1 (Dense)              (None, 22, 64)            16448     
_________________________________________________________________
dropout_1 (Dropout)          (None, 22, 64)            0         
_________________________________________________________________
dense_2 (Dense)              (None, 22, 32)            2080      
_________________________________________________________________
dropout_2 (Dropout)          (None, 22, 32)            0         
_________________________________________________________________
flatten_1 (Flatten)          (None, 704)               0         
_________________________________________________________________
dense_3 (Dense)              (None, 3)                 2115      
=================================================================
Total params: 50,255,339
Trainable params: 255,139
Non-trainable params: 50,000,200
_________________________________________________________________
End: Training
Begin: Loading embeddings
End: Loading embeddings
[[7070, 82, 8, 91, 192451, 428, 0, 11320, 0, 0, 0, 7070, 82, 0, 26, 0, 1, 1, 1, 1, 1, 1], [0, 102369, 0, 0, 5771,
…
