…
90498, 73122, 0, 414623, 0, 288281, 0], [12570, 72771, 380786, 0, 298899, 317015, 242070, 317015, 178947, 0, 0, 0, 121055, 12570, 173312, 29378, 189245, 0, 370922, 255363, 365575, 228628], [73298, 300539, 242070, 0, 72489, 447249, 369650, 242952, 365916, 82707, 460545, 271120, 184616, 277139, 447249, 59506, 232125, 377955, 72489, 447249, 406613, 108461]]
Begin: Training
_________________________________________________________________
Layer (type)                 Output Shape              Param #   
=================================================================
input_1 (InputLayer)         (None, 22)                0         
_________________________________________________________________
embedding_1 (Embedding)      (None, 22, 100)           50000200  
_________________________________________________________________
bidirectional_1 (Bidirection (None, 22, 256)           234496    
_________________________________________________________________
dense_1 (Dense)              (None, 22, 64)            16448     
_________________________________________________________________
dropout_1 (Dropout)          (None, 22, 64)            0         
_________________________________________________________________
dense_2 (Dense)              (None, 22, 32)            2080      
_________________________________________________________________
dropout_2 (Dropout)          (None, 22, 32)            0         
_________________________________________________________________
flatten_1 (Flatten)          (None, 704)               0         
_________________________________________________________________
dense_3 (Dense)              (None, 3)                 2115      
=================================================================
Total params: 50,255,339
Trainable params: 255,139
Non-trainable params: 50,000,200
_________________________________________________________________
End: Training
Begin: Loading embeddings
End: Loading embeddings
[[367480, 67270, 483590, 447249, 353931, 396512, 0, 364051, 0, 0, 0, 367480, 67270, 0, 2240, 0, 1, 1, 1, 1, 1, 1]
…
