…
[[8, 13752, 373, 32, 4, 48, 6, 172, 4, 14577, 179, 10, 34122, 15, 128354, 373, 60, 563, 430, 15, 1445, 9, 13752], [8, 60, 4, 6362, 23, 4262, 24527, 33, 4, 21606, 1375, 84, 13, 482, 125, 24, 36, 1519, 213, 14, 1, 1, 1], [8, 8, 8, 82, 62452, 999, 48388, 7, 2711, 95, 4, 18685, 12, 7, 1701, 23209, 368, 82, 15, 760, 179, 7552, 84], [30, 93, 7070, 0, 537, 158, 3644, 22, 231, 7070, 0, 21, 28, 358, 145, 192, 430, 11, 18, 1104, 13, 93, 193], [912, 13, 47, 6, 275, 1662, 7070, 0, 231, 184, 13, 125, 106, 13, 93, 80, 6, 73759, 20, 16, 1705, 14, 912]]
Begin: Training
_________________________________________________________________
Layer (type)                 Output Shape              Param #   
=================================================================
input_1 (InputLayer)         (None, 23)                0         
_________________________________________________________________
embedding_1 (Embedding)      (None, 23, 100)           50000200  
_________________________________________________________________
bidirectional_1 (Bidirection (None, 23, 256)           234496    
_________________________________________________________________
dense_1 (Dense)              (None, 23, 64)            16448     
_________________________________________________________________
dropout_1 (Dropout)          (None, 23, 64)            0         
_________________________________________________________________
dense_2 (Dense)              (None, 23, 32)            2080      
_________________________________________________________________
dropout_2 (Dropout)          (None, 23, 32)            0         
_________________________________________________________________
flatten_1 (Flatten)          (None, 736)               0         
_________________________________________________________________
dense_3 (Dense)              (None, 2)                 1474      
=================================================================
Total params: 50,254,698
Trainable params: 254,498
Non-trainable params: 50,000,200
_________________________________________________________________
End: Training
Begin: Loading embeddings
End: Loading embeddings
[[7070, 82, 8, 91, 192451, 428, 0, 11320, 0, 0, 0, 7070, 82, 0, 26, 0, 1, 1, 1, 1, 1, 1, 1], [0, 102369, 0, 0, 57
…
