…
32, 0, 186167, 215494, 212314, 0, 469068, 132227, 0, 29378], [483590, 259105, 382386, 168269, 77698, 290158, 346553, 376892, 0, 255363, 387546, 460545, 255363, 0, 302916, 0, 377955, 0, 433667, 405803, 29378, 1], [0, 149928, 0, 50909, 317015, 149502, 173311, 100612, 0, 382932, 236537, 350931, 0, 0, 132227, 144942, 7004, 495694, 189245, 0, 292692, 255363]]
Begin: Training
_________________________________________________________________
Layer (type)                 Output Shape              Param #   
=================================================================
input_1 (InputLayer)         (None, 22)                0         
_________________________________________________________________
embedding_1 (Embedding)      (None, 22, 100)           50000200  
_________________________________________________________________
bidirectional_1 (Bidirection (None, 22, 256)           234496    
_________________________________________________________________
dense_1 (Dense)              (None, 22, 64)            16448     
_________________________________________________________________
dropout_1 (Dropout)          (None, 22, 64)            0         
_________________________________________________________________
dense_2 (Dense)              (None, 22, 32)            2080      
_________________________________________________________________
dropout_2 (Dropout)          (None, 22, 32)            0         
_________________________________________________________________
flatten_1 (Flatten)          (None, 704)               0         
_________________________________________________________________
dense_3 (Dense)              (None, 2)                 1410      
=================================================================
Total params: 50,254,634
Trainable params: 254,434
Non-trainable params: 50,000,200
_________________________________________________________________
End: Training
Begin: Loading embeddings
End: Loading embeddings
[[367480, 67270, 483590, 447249, 353931, 396512, 0, 364051, 0, 0, 0, 367480, 67270, 0, 2240, 0, 1, 1, 1, 1, 1, 1]
…
