…
 193092, 244358, 307881, 498884, 430028, 104590, 479006, 117491, 372727, 0], [0, 333249, 497274, 235149, 0, 0, 420744, 0, 333103, 364195, 465440, 244358, 408842, 0, 0, 379908, 0, 57856, 244358, 255666, 57856, 126035], [0, 473255, 267792, 0, 326188, 0, 277516, 194916, 151632, 318860, 0, 9207, 497274, 65269, 0, 277516, 98813, 0, 395415, 0, 497274, 153370]]
Begin: Training
_________________________________________________________________
Layer (type)                 Output Shape              Param #   
=================================================================
input_1 (InputLayer)         (None, 22)                0         
_________________________________________________________________
embedding_1 (Embedding)      (None, 22, 100)           50000200  
_________________________________________________________________
bidirectional_1 (Bidirection (None, 22, 256)           234496    
_________________________________________________________________
dense_1 (Dense)              (None, 22, 64)            16448     
_________________________________________________________________
dropout_1 (Dropout)          (None, 22, 64)            0         
_________________________________________________________________
dense_2 (Dense)              (None, 22, 32)            2080      
_________________________________________________________________
dropout_2 (Dropout)          (None, 22, 32)            0         
_________________________________________________________________
flatten_1 (Flatten)          (None, 704)               0         
_________________________________________________________________
dense_3 (Dense)              (None, 3)                 2115      
=================================================================
Total params: 50,255,339
Trainable params: 255,139
Non-trainable params: 50,000,200
_________________________________________________________________
End: Training
[[396074, 330801, 478928, 218876, 1, 1, 1, 1, 1, 1, 1, 1, 1, 1, 1, 1, 1, 1, 1, 1, 1, 1], [207923, 246711, 411271, 0, 151632, 362574, 313020, 397108, 253188, 0, 257
…
