…
[[1466, 91, 6684, 69, 575, 10, 4, 597, 489, 348, 4, 24, 0, 298, 1473, 6, 917, 1423, 1, 1, 1, 1], [13, 696, 13055, 247, 4, 1336, 118, 247, 3020, 6, 47, 21, 0, 1, 1, 1, 1, 1, 1, 1, 1, 1], [12104, 88167, 1281, 4031, 872, 132, 4230, 16962, 53, 79, 4, 471, 11, 0, 1229, 8, 1, 1, 1, 1, 1, 1], [257, 8426, 6, 4, 18575, 35887, 4637, 2162, 12, 4, 10319, 58, 2442, 1137, 311, 42, 14, 1865, 1473, 6, 24, 17], [633, 118, 373, 32, 2162, 4, 835, 13, 4194, 84, 894, 15, 3991, 282, 14, 31, 77, 363, 7400, 6, 422, 78]]
Begin: Training
_________________________________________________________________
Layer (type)                 Output Shape              Param #   
=================================================================
input_1 (InputLayer)         (None, 22)                0         
_________________________________________________________________
embedding_1 (Embedding)      (None, 22, 100)           50000200  
_________________________________________________________________
bidirectional_1 (Bidirection (None, 22, 256)           234496    
_________________________________________________________________
dense_1 (Dense)              (None, 22, 64)            16448     
_________________________________________________________________
dropout_1 (Dropout)          (None, 22, 64)            0         
_________________________________________________________________
dense_2 (Dense)              (None, 22, 32)            2080      
_________________________________________________________________
dropout_2 (Dropout)          (None, 22, 32)            0         
_________________________________________________________________
flatten_1 (Flatten)          (None, 704)               0         
_________________________________________________________________
dense_3 (Dense)              (None, 3)                 2115      
=================================================================
Total params: 50,255,339
Trainable params: 255,139
Non-trainable params: 50,000,200
_________________________________________________________________
End: Training
Begin: Loading embeddings
End: Loading embeddings
[[0, 263, 0, 263, 15, 24078, 14, 0, 1734, 0, 6255, 263, 221395, 263, 1695, 183757, 1218, 90587, 263, 0, 263, 7], 
…
