…
, 277269, 144942, 0, 495694, 386656, 12570, 0, 346321, 144422, 317015, 497345, 29378, 347235], [61355, 255363, 0, 282400, 447249, 339922, 139103, 0, 0, 377955, 321552, 362596, 0, 1, 1, 1, 1, 1, 1, 1, 1, 1, 1], [483590, 12570, 0, 0, 421679, 83877, 472174, 292692, 161826, 288281, 490498, 73659, 414623, 0, 66120, 404291, 362849, 382386, 123015, 0, 1, 1, 1]]
Begin: Training
_________________________________________________________________
Layer (type)                 Output Shape              Param #   
=================================================================
input_1 (InputLayer)         (None, 23)                0         
_________________________________________________________________
embedding_1 (Embedding)      (None, 23, 100)           50000200  
_________________________________________________________________
bidirectional_1 (Bidirection (None, 23, 256)           234496    
_________________________________________________________________
dense_1 (Dense)              (None, 23, 64)            16448     
_________________________________________________________________
dropout_1 (Dropout)          (None, 23, 64)            0         
_________________________________________________________________
dense_2 (Dense)              (None, 23, 32)            2080      
_________________________________________________________________
dropout_2 (Dropout)          (None, 23, 32)            0         
_________________________________________________________________
flatten_1 (Flatten)          (None, 736)               0         
_________________________________________________________________
dense_3 (Dense)              (None, 2)                 1474      
=================================================================
Total params: 50,254,698
Trainable params: 254,498
Non-trainable params: 50,000,200
_________________________________________________________________
End: Training
Begin: Loading embeddings
End: Loading embeddings
[[367480, 67270, 483590, 447249, 353931, 396512, 0, 364051, 0, 0, 0, 367480, 67270, 0, 2240, 0, 1, 1, 1, 1, 1, 1,
…
