…
, 285113, 466486, 0, 285113, 331823, 168730, 202960], [0, 358934, 24198, 347906, 148049, 459860, 295769, 336353, 170958, 0, 285113, 0, 207099, 331823, 295769, 0, 216717, 309375, 341390, 479252, 358934, 158027], [328170, 328657, 349534, 440839, 0, 457189, 0, 385604, 140950, 178859, 28393, 0, 77495, 454654, 399576, 303815, 440839, 392025, 295769, 0, 0, 0]]
Begin: Training
_________________________________________________________________
Layer (type)                 Output Shape              Param #   
=================================================================
input_1 (InputLayer)         (None, 22)                0         
_________________________________________________________________
embedding_1 (Embedding)      (None, 22, 100)           50000200  
_________________________________________________________________
bidirectional_1 (Bidirection (None, 22, 256)           234496    
_________________________________________________________________
dense_1 (Dense)              (None, 22, 64)            16448     
_________________________________________________________________
dropout_1 (Dropout)          (None, 22, 64)            0         
_________________________________________________________________
dense_2 (Dense)              (None, 22, 32)            2080      
_________________________________________________________________
dropout_2 (Dropout)          (None, 22, 32)            0         
_________________________________________________________________
flatten_1 (Flatten)          (None, 704)               0         
_________________________________________________________________
dense_3 (Dense)              (None, 2)                 1410      
=================================================================
Total params: 50,254,634
Trainable params: 254,434
Non-trainable params: 50,000,200
_________________________________________________________________
End: Training
Begin: Loading embeddings
End: Loading embeddings
[[328170, 443457, 0, 127342, 254165, 0, 26261, 0, 0, 0, 106165, 333987, 280887, 26261, 0, 230412, 244377, 0, 1, 1
…
