…
, 277516, 251389, 219194, 277516, 0, 88405, 348377, 0, 0, 0, 117491, 0, 1, 1], [207923, 457686, 14979, 466241, 242310, 420744, 43577, 55129, 352339, 244358, 43681, 0, 244358, 0, 117491, 0, 1, 1, 1, 1, 1, 1], [207923, 348685, 104178, 206150, 0, 0, 1386, 487934, 194916, 0, 55129, 182962, 18049, 333249, 495069, 0, 425579, 244358, 157422, 257659, 0, 194916]]
Begin: Training
_________________________________________________________________
Layer (type)                 Output Shape              Param #   
=================================================================
input_1 (InputLayer)         (None, 22)                0         
_________________________________________________________________
embedding_1 (Embedding)      (None, 22, 100)           50000200  
_________________________________________________________________
bidirectional_1 (Bidirection (None, 22, 256)           234496    
_________________________________________________________________
dense_1 (Dense)              (None, 22, 64)            16448     
_________________________________________________________________
dropout_1 (Dropout)          (None, 22, 64)            0         
_________________________________________________________________
dense_2 (Dense)              (None, 22, 32)            2080      
_________________________________________________________________
dropout_2 (Dropout)          (None, 22, 32)            0         
_________________________________________________________________
flatten_1 (Flatten)          (None, 704)               0         
_________________________________________________________________
dense_3 (Dense)              (None, 2)                 1410      
=================================================================
Total params: 50,254,634
Trainable params: 254,434
Non-trainable params: 50,000,200
_________________________________________________________________
End: Training
Begin: Loading embeddings
End: Loading embeddings
[[207923, 182888, 230437, 283892, 496992, 0, 344363, 203292, 181836, 230437, 0, 112066, 318596, 344363, 112414, 2
…
