…
[[5971, 17695, 78, 4887, 149046, 15, 823, 1696, 6, 0, 1407, 420, 17, 81980, 4, 3600, 0, 14, 17521, 263, 3708, 22], [8976, 9, 72268, 1163, 4977, 11, 510, 10, 4, 125, 1752, 0, 1, 1, 1, 1, 1, 1, 1, 1, 1, 1], [9, 1645, 4, 3652, 12, 39370, 29198, 872, 7, 148, 84, 1792, 121, 30, 86, 118, 22, 4, 76, 15, 71558, 131], [8, 8, 8, 13, 31, 4093, 3694, 64446, 33, 4375, 14, 7246, 32, 23, 16, 25506, 231, 105, 14, 1, 1, 1], [8, 13, 998, 93, 19, 6713, 132, 84, 927, 4904, 885, 6544, 192, 106, 13, 1492, 7, 428, 53, 619, 4162, 373]]
Begin: Training
_________________________________________________________________
Layer (type)                 Output Shape              Param #   
=================================================================
input_1 (InputLayer)         (None, 22)                0         
_________________________________________________________________
embedding_1 (Embedding)      (None, 22, 100)           50000200  
_________________________________________________________________
bidirectional_1 (Bidirection (None, 22, 256)           234496    
_________________________________________________________________
dense_1 (Dense)              (None, 22, 64)            16448     
_________________________________________________________________
dropout_1 (Dropout)          (None, 22, 64)            0         
_________________________________________________________________
dense_2 (Dense)              (None, 22, 32)            2080      
_________________________________________________________________
dropout_2 (Dropout)          (None, 22, 32)            0         
_________________________________________________________________
flatten_1 (Flatten)          (None, 704)               0         
_________________________________________________________________
dense_3 (Dense)              (None, 2)                 1410      
=================================================================
Total params: 50,254,634
Trainable params: 254,434
Non-trainable params: 50,000,200
_________________________________________________________________
End: Training
Begin: Loading embeddings
End: Loading embeddings
[[0, 263, 0, 263, 15, 24078, 14, 0, 1734, 0, 6255, 263, 221395, 263, 1695, 183757, 1218, 90587, 263, 0, 263, 7], 
…
