…
[[30, 397, 310, 448, 4, 586, 288, 12, 139, 12, 9034, 75, 14, 53786, 503, 1, 1, 1, 1, 1, 1, 1, 1], [8, 304, 4, 2530, 36, 1377, 9114, 6, 263162, 926, 1777, 1383, 48736, 14, 1, 1, 1, 1, 1, 1, 1, 1, 1], [352, 90, 18, 323, 3194, 2764, 985, 148, 17, 7, 3757, 6544, 607, 2025, 14, 16915, 91, 8166, 185, 213, 4, 2673, 26], [373, 0, 82139, 11, 13, 15365, 106, 867, 166, 6, 537, 24, 131, 68, 1515, 19626, 54469, 123967, 7361, 1108, 60859, 9837, 10560], [4, 1406, 373, 32, 4176, 7070, 0, 50, 24, 7070, 0, 68, 161, 511, 5864, 72, 7070, 0, 15860, 1695, 253186, 7070, 0]]
Begin: Training
_________________________________________________________________
Layer (type)                 Output Shape              Param #   
=================================================================
input_1 (InputLayer)         (None, 23)                0         
_________________________________________________________________
embedding_1 (Embedding)      (None, 23, 100)           50000200  
_________________________________________________________________
bidirectional_1 (Bidirection (None, 23, 256)           234496    
_________________________________________________________________
dense_1 (Dense)              (None, 23, 64)            16448     
_________________________________________________________________
dropout_1 (Dropout)          (None, 23, 64)            0         
_________________________________________________________________
dense_2 (Dense)              (None, 23, 32)            2080      
_________________________________________________________________
dropout_2 (Dropout)          (None, 23, 32)            0         
_________________________________________________________________
flatten_1 (Flatten)          (None, 736)               0         
_________________________________________________________________
dense_3 (Dense)              (None, 2)                 1474      
=================================================================
Total params: 50,254,698
Trainable params: 254,498
Non-trainable params: 50,000,200
_________________________________________________________________
End: Training
Begin: Loading embeddings
End: Loading embeddings
[[8, 91473, 4430, 112, 7493, 0, 259, 31562, 27449, 4430, 7937, 32006, 114038, 259, 0, 9587, 4885, 225647, 1, 1, 1
…
