…
[[13, 47, 69, 241, 144, 21, 251, 24, 1022, 18, 3897, 18, 4, 12434, 17008, 369, 685, 23, 486, 14, 458, 813], [12104, 13848, 1084, 7, 89945, 3055, 57, 183, 7163, 37, 10, 99286, 23, 626, 105, 14, 1, 1, 1, 1, 1, 1], [8, 8, 8, 10036, 1262, 4, 351, 14112, 23, 586, 13885, 14, 13, 1635, 157, 868, 68, 125, 2770, 989, 193, 3008], [5014, 134, 476, 181, 1013, 10965, 231, 14, 7512, 1050, 24, 46, 11, 1, 1, 1, 1, 1, 1, 1, 1, 1], [68, 25, 50, 625, 1424, 226, 106, 19, 47, 519, 91, 44845, 4354, 33106, 0, 13294, 0, 1, 1, 1, 1, 1]]
Begin: Training
_________________________________________________________________
Layer (type)                 Output Shape              Param #   
=================================================================
input_1 (InputLayer)         (None, 22)                0         
_________________________________________________________________
embedding_1 (Embedding)      (None, 22, 100)           50000200  
_________________________________________________________________
bidirectional_1 (Bidirection (None, 22, 256)           234496    
_________________________________________________________________
dense_1 (Dense)              (None, 22, 64)            16448     
_________________________________________________________________
dropout_1 (Dropout)          (None, 22, 64)            0         
_________________________________________________________________
dense_2 (Dense)              (None, 22, 32)            2080      
_________________________________________________________________
dropout_2 (Dropout)          (None, 22, 32)            0         
_________________________________________________________________
flatten_1 (Flatten)          (None, 704)               0         
_________________________________________________________________
dense_3 (Dense)              (None, 2)                 1410      
=================================================================
Total params: 50,254,634
Trainable params: 254,434
Non-trainable params: 50,000,200
_________________________________________________________________
End: Training
Begin: Loading embeddings
End: Loading embeddings
[[0, 263, 0, 263, 15, 24078, 14, 0, 1734, 0, 6255, 263, 221395, 263, 1695, 183757, 1218, 90587, 263, 0, 263, 7], 
…
