…
[[29198, 134, 86, 6918, 6, 3173, 1383, 154017, 17, 4, 1447, 16365, 139, 1, 1, 1, 1, 1, 1, 1, 1, 1, 1], [8, 221, 4, 242, 3173, 1632, 84, 221, 136, 993, 83, 15, 13055, 15, 15575, 9, 5064, 2859, 84, 115, 95, 40, 17], [85, 69, 12267, 6, 21381, 27, 4194, 95, 4, 1026, 10, 345, 7070, 0, 68, 391, 13, 0, 204, 6, 1262, 7070, 0], [8, 115, 136, 1094, 1849, 262, 23, 1110, 586, 1812, 12, 4, 25, 288, 12, 13015, 2032, 84, 912, 112, 104, 1279, 1630], [72189, 626, 9, 213, 15, 4088, 17, 0, 251, 14, 14751, 46, 6, 32, 48, 1108, 12, 7, 1539, 96, 124, 20, 8]]
Begin: Training
_________________________________________________________________
Layer (type)                 Output Shape              Param #   
=================================================================
input_1 (InputLayer)         (None, 23)                0         
_________________________________________________________________
embedding_1 (Embedding)      (None, 23, 100)           50000200  
_________________________________________________________________
bidirectional_1 (Bidirection (None, 23, 256)           234496    
_________________________________________________________________
dense_1 (Dense)              (None, 23, 64)            16448     
_________________________________________________________________
dropout_1 (Dropout)          (None, 23, 64)            0         
_________________________________________________________________
dense_2 (Dense)              (None, 23, 32)            2080      
_________________________________________________________________
dropout_2 (Dropout)          (None, 23, 32)            0         
_________________________________________________________________
flatten_1 (Flatten)          (None, 736)               0         
_________________________________________________________________
dense_3 (Dense)              (None, 2)                 1474      
=================================================================
Total params: 50,254,698
Trainable params: 254,498
Non-trainable params: 50,000,200
_________________________________________________________________
End: Training
Begin: Loading embeddings
End: Loading embeddings
[[8, 91473, 4430, 112, 7493, 0, 259, 31562, 27449, 4430, 7937, 32006, 114038, 259, 0, 9587, 4885, 225647, 1, 1, 1
…
