…
[[13201, 240, 37, 455, 78, 345, 213, 620, 166, 6, 3278, 2129, 719, 27, 47, 86, 14, 309, 108, 80, 33, 13335], [12594, 38737, 91, 115, 1547, 84, 29, 91, 8, 14, 13, 373, 131, 373, 68, 32, 7, 88, 10, 39, 20, 2215], [2366, 60, 7, 10373, 15, 7, 3062, 4025, 10685, 9, 60, 29198, 3135, 46, 17, 4, 90, 23, 1062, 2369, 15, 458], [0, 9459, 10, 11076, 305, 59, 4, 838, 12, 1812, 10, 760, 288, 65, 9, 139, 12, 9034, 59, 760, 1812, 15], [4, 2546, 1902, 131, 4, 10319, 58, 2442, 84, 814, 22, 202, 84, 1, 1, 1, 1, 1, 1, 1, 1, 1]]
Begin: Training
_________________________________________________________________
Layer (type)                 Output Shape              Param #   
=================================================================
input_1 (InputLayer)         (None, 22)                0         
_________________________________________________________________
embedding_1 (Embedding)      (None, 22, 100)           50000200  
_________________________________________________________________
bidirectional_1 (Bidirection (None, 22, 256)           234496    
_________________________________________________________________
dense_1 (Dense)              (None, 22, 64)            16448     
_________________________________________________________________
dropout_1 (Dropout)          (None, 22, 64)            0         
_________________________________________________________________
dense_2 (Dense)              (None, 22, 32)            2080      
_________________________________________________________________
dropout_2 (Dropout)          (None, 22, 32)            0         
_________________________________________________________________
flatten_1 (Flatten)          (None, 704)               0         
_________________________________________________________________
dense_3 (Dense)              (None, 3)                 2115      
=================================================================
Total params: 50,255,339
Trainable params: 255,139
Non-trainable params: 50,000,200
_________________________________________________________________
End: Training
Begin: Loading embeddings
End: Loading embeddings
[[8, 91473, 4430, 112, 7493, 0, 259, 31562, 27449, 4430, 7937, 32006, 114038, 259, 0, 9587, 4885, 225647, 1, 1, 1
…
