…
[[68, 6, 32, 30644, 35, 4, 29668, 15, 265360, 22, 86, 2231, 165, 600, 2069, 3475, 15, 21, 43, 23, 1128, 181], [13, 373, 68, 32, 8, 263, 70, 211, 2299, 106, 183, 765, 432, 18, 1104, 4, 74, 1812, 12, 139, 12, 9034], [64, 9, 813, 21, 106, 19, 204, 4, 246653, 269033, 14, 2607, 2452, 23, 11842, 231, 233, 269033, 14, 2607, 29291, 33044], [82, 183569, 47, 55846, 3226, 4874, 20, 2859, 174, 395, 4, 92352, 194, 12594, 0, 23, 14093, 10, 1980, 14, 82, 1], [19, 44, 4, 21193, 6, 1875, 139, 3382, 1429, 0, 1, 1, 1, 1, 1, 1, 1, 1, 1, 1, 1, 1]]
Begin: Training
_________________________________________________________________
Layer (type)                 Output Shape              Param #   
=================================================================
input_1 (InputLayer)         (None, 22)                0         
_________________________________________________________________
embedding_1 (Embedding)      (None, 22, 100)           50000200  
_________________________________________________________________
bidirectional_1 (Bidirection (None, 22, 256)           234496    
_________________________________________________________________
dense_1 (Dense)              (None, 22, 64)            16448     
_________________________________________________________________
dropout_1 (Dropout)          (None, 22, 64)            0         
_________________________________________________________________
dense_2 (Dense)              (None, 22, 32)            2080      
_________________________________________________________________
dropout_2 (Dropout)          (None, 22, 32)            0         
_________________________________________________________________
flatten_1 (Flatten)          (None, 704)               0         
_________________________________________________________________
dense_3 (Dense)              (None, 3)                 2115      
=================================================================
Total params: 50,255,339
Trainable params: 255,139
Non-trainable params: 50,000,200
_________________________________________________________________
End: Training
Begin: Loading embeddings
End: Loading embeddings
[[0, 263, 0, 263, 15, 24078, 14, 0, 1734, 0, 6255, 263, 221395, 263, 1695, 183757, 1218, 90587, 263, 0, 263, 7], 
…
