…
[[8, 552, 1881, 36947, 22, 167, 480, 4, 209, 14902, 483, 428, 22520, 141, 50, 4, 368, 2577, 626, 91, 0, 1], [8, 26, 2589, 40, 13, 524, 39, 14, 50, 4, 586, 10319, 58, 22, 7, 712, 7076, 10, 16, 0, 11, 11], [13, 36, 31, 1821, 155822, 3600, 19117, 0, 1, 1, 1, 1, 1, 1, 1, 1, 1, 1, 1, 1, 1, 1], [27750, 134, 116, 4, 268, 126, 144, 23, 6825, 14, 13, 210, 336, 136, 60, 7, 760, 288, 14, 4729, 14517, 22], [8, 1048, 77, 7, 926, 9010, 41554, 9, 210, 571, 24, 14, 610, 72, 20, 5775, 9, 4375, 2895, 1, 1, 1]]
Begin: Training
_________________________________________________________________
Layer (type)                 Output Shape              Param #   
=================================================================
input_1 (InputLayer)         (None, 22)                0         
_________________________________________________________________
embedding_1 (Embedding)      (None, 22, 100)           50000200  
_________________________________________________________________
bidirectional_1 (Bidirection (None, 22, 256)           234496    
_________________________________________________________________
dense_1 (Dense)              (None, 22, 64)            16448     
_________________________________________________________________
dropout_1 (Dropout)          (None, 22, 64)            0         
_________________________________________________________________
dense_2 (Dense)              (None, 22, 32)            2080      
_________________________________________________________________
dropout_2 (Dropout)          (None, 22, 32)            0         
_________________________________________________________________
flatten_1 (Flatten)          (None, 704)               0         
_________________________________________________________________
dense_3 (Dense)              (None, 2)                 1410      
=================================================================
Total params: 50,254,634
Trainable params: 254,434
Non-trainable params: 50,000,200
_________________________________________________________________
End: Training
[[50304, 134, 1321, 503, 1, 1, 1, 1, 1, 1, 1, 1, 1, 1, 1, 1, 1, 1, 1, 1, 1, 1], [8, 23464, 37048, 331385, 7, 312, 6415, 22424, 197, 49781, 15, 107267, 4430, 112, 7
…
