…
[[30, 257, 381, 18, 1104, 198, 919, 87180, 10, 10319, 58, 421, 13, 638, 1424, 24, 14, 8539, 115, 212, 134, 21], [118, 166, 6, 1776, 1114, 21, 626, 84, 1, 1, 1, 1, 1, 1, 1, 1, 1, 1, 1, 1, 1, 1], [10, 16, 6765, 42, 9038, 4, 433, 593, 15, 962, 23, 16, 37338, 26339, 35251, 9, 4, 586, 835, 36, 82, 73], [13, 2467, 10, 23, 213, 9, 257, 519, 2587, 38, 12, 139, 12, 9034, 23, 4, 1739, 1, 1, 1, 1, 1], [104, 1872, 95, 4, 3820, 2307, 305, 19323, 814, 67952, 11949, 373, 47, 7, 0, 1802, 12785, 78, 104, 0, 1, 1]]
Begin: Training
_________________________________________________________________
Layer (type)                 Output Shape              Param #   
=================================================================
input_1 (InputLayer)         (None, 22)                0         
_________________________________________________________________
embedding_1 (Embedding)      (None, 22, 100)           50000200  
_________________________________________________________________
bidirectional_1 (Bidirection (None, 22, 256)           234496    
_________________________________________________________________
dense_1 (Dense)              (None, 22, 64)            16448     
_________________________________________________________________
dropout_1 (Dropout)          (None, 22, 64)            0         
_________________________________________________________________
dense_2 (Dense)              (None, 22, 32)            2080      
_________________________________________________________________
dropout_2 (Dropout)          (None, 22, 32)            0         
_________________________________________________________________
flatten_1 (Flatten)          (None, 704)               0         
_________________________________________________________________
dense_3 (Dense)              (None, 3)                 2115      
=================================================================
Total params: 50,255,339
Trainable params: 255,139
Non-trainable params: 50,000,200
_________________________________________________________________
End: Training
Begin: Loading embeddings
End: Loading embeddings
[[8, 91473, 4430, 112, 7493, 0, 259, 31562, 27449, 4430, 7937, 32006, 114038, 259, 0, 9587, 4885, 225647, 1, 1, 1
…
