…
6463, 298857, 313216, 430479, 323257, 425579, 0], [372811, 0, 188467, 244358, 242869, 0, 57856, 271792, 418101, 57858, 7968, 0, 474880, 348377, 37480, 209737, 13478, 232030, 462356, 257659, 422108, 0, 22423], [109144, 277516, 471187, 13786, 175607, 0, 348377, 295698, 463667, 0, 151632, 9730, 381984, 283279, 463667, 325046, 244358, 381145, 0, 0, 1, 1, 1]]
Begin: Training
_________________________________________________________________
Layer (type)                 Output Shape              Param #   
=================================================================
input_1 (InputLayer)         (None, 23)                0         
_________________________________________________________________
embedding_1 (Embedding)      (None, 23, 100)           50000200  
_________________________________________________________________
bidirectional_1 (Bidirection (None, 23, 256)           234496    
_________________________________________________________________
dense_1 (Dense)              (None, 23, 64)            16448     
_________________________________________________________________
dropout_1 (Dropout)          (None, 23, 64)            0         
_________________________________________________________________
dense_2 (Dense)              (None, 23, 32)            2080      
_________________________________________________________________
dropout_2 (Dropout)          (None, 23, 32)            0         
_________________________________________________________________
flatten_1 (Flatten)          (None, 736)               0         
_________________________________________________________________
dense_3 (Dense)              (None, 2)                 1474      
=================================================================
Total params: 50,254,698
Trainable params: 254,498
Non-trainable params: 50,000,200
_________________________________________________________________
End: Training
Begin: Loading embeddings
End: Loading embeddings
[[207923, 182888, 230437, 283892, 496992, 0, 344363, 203292, 181836, 230437, 0, 112066, 318596, 344363, 112414, 2
…
