…
[[8, 552, 1881, 36947, 22, 167, 480, 4, 209, 14902, 483, 428, 22520, 141, 50, 4, 368, 2577, 626, 91, 0, 1], [24, 482, 193, 46, 6, 4, 82, 345, 213, 82, 3732, 21626, 8029, 4375, 2895, 28, 5544, 6, 1942, 23932, 9, 18732], [0, 7, 14156, 4398, 23, 11143, 42, 2402, 14, 21341, 15, 22647, 15, 489, 15, 200357, 2388, 85, 97597, 14, 1601, 23], [8, 755, 4, 926, 0, 33, 139, 12, 9034, 1113, 104, 7260, 203, 4, 1384, 91, 0, 1, 1, 1, 1, 1], [3362, 816, 691, 775, 0, 218, 23, 4, 758, 15, 500, 8140, 5115, 9, 1746, 2183, 22933, 23, 4, 1017, 14, 1]]
Begin: Training
_________________________________________________________________
Layer (type)                 Output Shape              Param #   
=================================================================
input_1 (InputLayer)         (None, 22)                0         
_________________________________________________________________
embedding_1 (Embedding)      (None, 22, 100)           50000200  
_________________________________________________________________
bidirectional_1 (Bidirection (None, 22, 256)           234496    
_________________________________________________________________
dense_1 (Dense)              (None, 22, 64)            16448     
_________________________________________________________________
dropout_1 (Dropout)          (None, 22, 64)            0         
_________________________________________________________________
dense_2 (Dense)              (None, 22, 32)            2080      
_________________________________________________________________
dropout_2 (Dropout)          (None, 22, 32)            0         
_________________________________________________________________
flatten_1 (Flatten)          (None, 704)               0         
_________________________________________________________________
dense_3 (Dense)              (None, 2)                 1410      
=================================================================
Total params: 50,254,634
Trainable params: 254,434
Non-trainable params: 50,000,200
_________________________________________________________________
End: Training
Begin: Loading embeddings
End: Loading embeddings
[[8, 91473, 4430, 112, 7493, 0, 259, 31562, 27449, 4430, 7937, 32006, 114038, 259, 0, 9587, 4885, 225647, 1, 1, 1
…
