…
[[26781, 3683, 108, 28526, 165, 5074, 1747, 10, 17765, 23, 775, 14, 12373, 24, 108, 2089, 2051, 18492, 25, 5457, 14, 0], [8063, 67, 1594, 25, 215, 3632, 16, 26339, 17, 4, 0, 231, 14, 1, 1, 1, 1, 1, 1, 1, 1, 1], [24, 289, 47, 116, 297, 10, 4, 121384, 12, 1746, 2183, 106, 136, 16251, 29, 68, 6, 660, 437, 18413, 6936, 62], [62, 28, 12, 205, 834, 42, 14, 3264, 67, 13055, 1451, 289, 47, 81, 29, 18, 2459, 4, 28, 152, 16, 2837], [28267, 6, 600, 7, 2943, 373, 5643, 26781, 3683, 12384, 91, 3107, 22, 37, 12, 2537, 10, 779, 14, 3683, 166, 70782]]
Begin: Training
_________________________________________________________________
Layer (type)                 Output Shape              Param #   
=================================================================
input_1 (InputLayer)         (None, 22)                0         
_________________________________________________________________
embedding_1 (Embedding)      (None, 22, 100)           50000200  
_________________________________________________________________
bidirectional_1 (Bidirection (None, 22, 256)           234496    
_________________________________________________________________
dense_1 (Dense)              (None, 22, 64)            16448     
_________________________________________________________________
dropout_1 (Dropout)          (None, 22, 64)            0         
_________________________________________________________________
dense_2 (Dense)              (None, 22, 32)            2080      
_________________________________________________________________
dropout_2 (Dropout)          (None, 22, 32)            0         
_________________________________________________________________
flatten_1 (Flatten)          (None, 704)               0         
_________________________________________________________________
dense_3 (Dense)              (None, 3)                 2115      
=================================================================
Total params: 50,255,339
Trainable params: 255,139
Non-trainable params: 50,000,200
_________________________________________________________________
End: Training
Begin: Loading embeddings
End: Loading embeddings
[[8, 91473, 4430, 112, 7493, 0, 259, 31562, 27449, 4430, 7937, 32006, 114038, 259, 0, 9587, 4885, 225647, 1, 1, 1
…
