…
 423782, 309375, 472080, 152233, 0, 309375, 1, 1, 1, 1, 1, 1, 1], [149053, 83840, 131759, 265958, 437918, 336971, 399576, 0, 95347, 0, 84433, 0, 142074, 0, 328657, 399576, 298676, 22021, 227789, 149053, 142074, 237402], [149053, 64097, 385604, 0, 392025, 0, 170958, 0, 28393, 149053, 0, 95347, 0, 4943, 399576, 156970, 0, 309375, 0, 70371, 262789, 152233]]
Begin: Training
_________________________________________________________________
Layer (type)                 Output Shape              Param #   
=================================================================
input_1 (InputLayer)         (None, 22)                0         
_________________________________________________________________
embedding_1 (Embedding)      (None, 22, 100)           50000200  
_________________________________________________________________
bidirectional_1 (Bidirection (None, 22, 256)           234496    
_________________________________________________________________
dense_1 (Dense)              (None, 22, 64)            16448     
_________________________________________________________________
dropout_1 (Dropout)          (None, 22, 64)            0         
_________________________________________________________________
dense_2 (Dense)              (None, 22, 32)            2080      
_________________________________________________________________
dropout_2 (Dropout)          (None, 22, 32)            0         
_________________________________________________________________
flatten_1 (Flatten)          (None, 704)               0         
_________________________________________________________________
dense_3 (Dense)              (None, 3)                 2115      
=================================================================
Total params: 50,255,339
Trainable params: 255,139
Non-trainable params: 50,000,200
_________________________________________________________________
End: Training
Begin: Loading embeddings
End: Loading embeddings
[[0, 419192, 0, 419192, 285113, 153022, 309375, 0, 398491, 0, 452710, 419192, 359592, 419192, 0, 185706, 194119, 
…
