…
 0, 422187, 18049, 204683, 267552, 102310, 287714, 0, 0, 316132], [0, 109144, 277516, 455607, 0, 277516, 270706, 416630, 0, 325046, 122752, 0, 489574, 0, 0, 277516, 328766, 0, 213140, 53815, 188467, 484169, 0], [207923, 0, 0, 0, 132817, 397317, 0, 344687, 18049, 381984, 244358, 304891, 420744, 18049, 0, 117491, 23176, 207923, 54447, 18049, 0, 499845, 1]]
Begin: Training
_________________________________________________________________
Layer (type)                 Output Shape              Param #   
=================================================================
input_1 (InputLayer)         (None, 23)                0         
_________________________________________________________________
embedding_1 (Embedding)      (None, 23, 100)           50000200  
_________________________________________________________________
bidirectional_1 (Bidirection (None, 23, 256)           234496    
_________________________________________________________________
dense_1 (Dense)              (None, 23, 64)            16448     
_________________________________________________________________
dropout_1 (Dropout)          (None, 23, 64)            0         
_________________________________________________________________
dense_2 (Dense)              (None, 23, 32)            2080      
_________________________________________________________________
dropout_2 (Dropout)          (None, 23, 32)            0         
_________________________________________________________________
flatten_1 (Flatten)          (None, 736)               0         
_________________________________________________________________
dense_3 (Dense)              (None, 2)                 1474      
=================================================================
Total params: 50,254,698
Trainable params: 254,498
Non-trainable params: 50,000,200
_________________________________________________________________
End: Training
[[396074, 330801, 478928, 218876, 1, 1, 1, 1, 1, 1, 1, 1, 1, 1, 1, 1, 1, 1, 1, 1, 1, 1, 1], [207923, 246711, 411271, 0, 151632, 362574, 313020, 397108, 253188, 0, 
…
